{"format": "graph-model", "generatedBy": "2.8.2", "convertedBy": "TensorFlow.js Converter v3.18.0", "signature": {"inputs": {"input_2": {"name": "input_2:0", "dtype": "DT_FLOAT", "tensorShape": {"dim": [{"size": "-1"}, {"size": "13"}, {"size": "9"}]}}}, "outputs": {"transformer_encoder_regressor_1": {"name": "Identity:0", "dtype": "DT_FLOAT", "tensorShape": {"dim": [{"size": "-1"}, {"size": "2"}]}}}}, "modelTopology": {"node": [{"name": "StatefulPartitionedCall/model_1/transformer_encoder_regressor_1/transformer_batch_norm_encoder_block_1/sequential_2/transformer_batch_norm_encoder_layer_19/dense_50/Tensordot/Const", "op": "Const", "attr": {"value": {"tensor": {"dtype": "DT_INT32", "tensorShape": {"dim": [{"size": "1"}]}}}, "dtype": {"type": "DT_INT32"}}}, {"name": "StatefulPartitionedCall/model_1/transformer_encoder_regressor_1/transformer_batch_norm_encoder_block_1/sequential_2/transformer_batch_norm_encoder_layer_19/dense_50/Tensordot/axes", "op": "Const", "attr": {"value": {"tensor": {"dtype": "DT_INT32", "tensorShape": {"dim": [{"size": "1"}]}}}, "dtype": {"type": "DT_INT32"}}}, {"name": "StatefulPartitionedCall/model_1/transformer_encoder_regressor_1/transformer_batch_norm_encoder_block_1/sequential_2/transformer_batch_norm_encoder_layer_19/dense_50/Tensordot/GatherV2_1/axis", "op": "Const", "attr": {"value": {"tensor": {"dtype": "DT_INT32", "tensorShape": {}}}, "dtype": {"type": "DT_INT32"}}}, {"name": "StatefulPartitionedCall/model_1/transformer_encoder_regressor_1/transformer_batch_norm_encoder_block_1/sequential_2/transformer_batch_norm_encoder_layer_19/dense_50/Tensordot/Const_1", "op": "Const", "attr": {"dtype": {"type": "DT_INT32"}, "value": {"tensor": {"dtype": "DT_INT32", "tensorShape": {"dim": [{"size": "1"}]}}}}}, {"name": "StatefulPartitionedCall/model_1/transformer_encoder_regressor_1/transformer_batch_norm_encoder_block_1/sequential_2/transformer_batch_norm_encoder_layer_19/dense_50/Tensordot/ReadVariableOp", "op": "Const", "attr": {"dtype": {"type": "DT_FLOAT"}, "value": {"tensor": {"dtype": "DT_FLOAT", "tensorShape": {"dim": [{"size": "229"}, {"size": "176"}]}}}}}, {"name": "StatefulPartitionedCall/model_1/transformer_encoder_regressor_1/transformer_batch_norm_encoder_block_1/sequential_2/transformer_batch_norm_encoder_layer_19/dense_49/Tensordot/Const", "op": "Const", "attr": {"dtype": {"type": "DT_INT32"}, "value": {"tensor": {"dtype": "DT_INT32", "tensorShape": {"dim": [{"size": "1"}]}}}}}, {"name": "StatefulPartitionedCall/model_1/transformer_encoder_regressor_1/transformer_batch_norm_encoder_block_1/sequential_2/transformer_batch_norm_encoder_layer_19/dense_49/Tensordot/axes", "op": "Const", "attr": {"value": {"tensor": {"dtype": "DT_INT32", "tensorShape": {"dim": [{"size": "1"}]}}}, "dtype": {"type": "DT_INT32"}}}, {"name": "StatefulPartitionedCall/model_1/transformer_encoder_regressor_1/transformer_batch_norm_encoder_block_1/sequential_2/transformer_batch_norm_encoder_layer_19/dense_49/Tensordot/GatherV2_1/axis", "op": "Const", "attr": {"value": {"tensor": {"dtype": "DT_INT32", "tensorShape": {}}}, "dtype": {"type": "DT_INT32"}}}, {"name": "StatefulPartitionedCall/model_1/transformer_encoder_regressor_1/transformer_batch_norm_encoder_block_1/sequential_2/transformer_batch_norm_encoder_layer_19/dense_49/Tensordot/Const_1", "op": "Const", "attr": {"value": {"tensor": {"dtype": "DT_INT32", "tensorShape": {"dim": [{"size": "1"}]}}}, "dtype": {"type": "DT_INT32"}}}, {"name": "StatefulPartitionedCall/model_1/transformer_encoder_regressor_1/transformer_batch_norm_encoder_block_1/sequential_2/transformer_batch_norm_encoder_layer_19/dense_49/Tensordot/ReadVariableOp", "op": "Const", "attr": {"value": {"tensor": {"dtype": "DT_FLOAT", "tensorShape": {"dim": [{"size": "176"}, {"size": "229"}]}}}, "dtype": {"type": "DT_FLOAT"}}}, {"name": "StatefulPartitionedCall/model_1/transformer_encoder_regressor_1/transformer_batch_norm_encoder_block_1/sequential_2/transformer_batch_norm_encoder_layer_19/dense_49/Tensordot/free", "op": "Const", "attr": {"value": {"tensor": {"dtype": "DT_INT32", "tensorShape": {"dim": [{"size": "2"}]}}}, "dtype": {"type": "DT_INT32"}}}, {"name": "StatefulPartitionedCall/model_1/transformer_encoder_regressor_1/transformer_batch_norm_encoder_block_1/sequential_2/transformer_batch_norm_encoder_layer_19/dense_49/Tensordot/GatherV2/axis", "op": "Const", "attr": {"value": {"tensor": {"dtype": "DT_INT32", "tensorShape": {}}}, "dtype": {"type": "DT_INT32"}}}, {"name": "StatefulPartitionedCall/model_1/transformer_encoder_regressor_1/transformer_batch_norm_encoder_block_1/sequential_2/transformer_batch_norm_encoder_layer_19/dense_49/Tensordot/Const_2", "op": "Const", "attr": {"value": {"tensor": {"dtype": "DT_INT32", "tensorShape": {"dim": [{"size": "1"}]}}}, "dtype": {"type": "DT_INT32"}}}, {"name": "StatefulPartitionedCall/model_1/transformer_encoder_regressor_1/transformer_batch_norm_encoder_block_1/sequential_2/transformer_batch_norm_encoder_layer_19/dense_49/Tensordot/concat_1/axis", "op": "Const", "attr": {"dtype": {"type": "DT_INT32"}, "value": {"tensor": {"dtype": "DT_INT32", "tensorShape": {}}}}}, {"name": "StatefulPartitionedCall/model_1/transformer_encoder_regressor_1/transformer_batch_norm_encoder_block_1/sequential_2/transformer_batch_norm_encoder_layer_19/dense_49/BiasAdd/ReadVariableOp", "op": "Const", "attr": {"dtype": {"type": "DT_FLOAT"}, "value": {"tensor": {"dtype": "DT_FLOAT", "tensorShape": {"dim": [{"size": "229"}]}}}}}, {"name": "StatefulPartitionedCall/model_1/transformer_encoder_regressor_1/transformer_batch_norm_encoder_block_1/sequential_2/transformer_batch_norm_encoder_layer_19/dense_50/Tensordot/free", "op": "Const", "attr": {"value": {"tensor": {"dtype": "DT_INT32", "tensorShape": {"dim": [{"size": "2"}]}}}, "dtype": {"type": "DT_INT32"}}}, {"name": "StatefulPartitionedCall/model_1/transformer_encoder_regressor_1/transformer_batch_norm_encoder_block_1/sequential_2/transformer_batch_norm_encoder_layer_19/dense_50/Tensordot/GatherV2/axis", "op": "Const", "attr": {"dtype": {"type": "DT_INT32"}, "value": {"tensor": {"dtype": "DT_INT32", "tensorShape": {}}}}}, {"name": "StatefulPartitionedCall/model_1/transformer_encoder_regressor_1/transformer_batch_norm_encoder_block_1/sequential_2/transformer_batch_norm_encoder_layer_19/dense_50/Tensordot/Const_2", "op": "Const", "attr": {"dtype": {"type": "DT_INT32"}, "value": {"tensor": {"dtype": "DT_INT32", "tensorShape": {"dim": [{"size": "1"}]}}}}}, {"name": "StatefulPartitionedCall/model_1/transformer_encoder_regressor_1/transformer_batch_norm_encoder_block_1/sequential_2/transformer_batch_norm_encoder_layer_19/dense_50/Tensordot/concat_1/axis", "op": "Const", "attr": {"dtype": {"type": "DT_INT32"}, "value": {"tensor": {"dtype": "DT_INT32", "tensorShape": {}}}}}, {"name": "StatefulPartitionedCall/model_1/transformer_encoder_regressor_1/transformer_batch_norm_encoder_block_1/sequential_2/transformer_batch_norm_encoder_layer_19/dense_50/BiasAdd/ReadVariableOp", "op": "Const", "attr": {"dtype": {"type": "DT_FLOAT"}, "value": {"tensor": {"dtype": "DT_FLOAT", "tensorShape": {"dim": [{"size": "176"}]}}}}}, {"name": "StatefulPartitionedCall/model_1/transformer_encoder_regressor_1/transformer_batch_norm_encoder_block_1/sequential_2/transformer_batch_norm_encoder_layer_19/batch_normalization_39/batchnorm/mul", "op": "Const", "attr": {"value": {"tensor": {"dtype": "DT_FLOAT", "tensorShape": {"dim": [{"size": "176"}]}}}, "dtype": {"type": "DT_FLOAT"}}}, {"name": "StatefulPartitionedCall/model_1/transformer_encoder_regressor_1/transformer_batch_norm_encoder_block_1/sequential_2/transformer_batch_norm_encoder_layer_19/batch_normalization_39/batchnorm/sub", "op": "Const", "attr": {"dtype": {"type": "DT_FLOAT"}, "value": {"tensor": {"dtype": "DT_FLOAT", "tensorShape": {"dim": [{"size": "176"}]}}}}}, {"name": "StatefulPartitionedCall/model_1/transformer_encoder_regressor_1/transformer_batch_norm_encoder_block_1/sequential_2/transformer_batch_norm_encoder_layer_19/batch_normalization_38/batchnorm/sub", "op": "Const", "attr": {"dtype": {"type": "DT_FLOAT"}, "value": {"tensor": {"dtype": "DT_FLOAT", "tensorShape": {"dim": [{"size": "176"}]}}}}}, {"name": "StatefulPartitionedCall/model_1/transformer_encoder_regressor_1/transformer_batch_norm_encoder_block_1/sequential_2/transformer_batch_norm_encoder_layer_19/batch_normalization_38/batchnorm/mul", "op": "Const", "attr": {"value": {"tensor": {"dtype": "DT_FLOAT", "tensorShape": {"dim": [{"size": "176"}]}}}, "dtype": {"type": "DT_FLOAT"}}}, {"name": "StatefulPartitionedCall/model_1/transformer_encoder_regressor_1/transformer_batch_norm_encoder_block_1/sequential_2/transformer_batch_norm_encoder_layer_19/multi_head_attention_19/key/einsum/Einsum/ReadVariableOp", "op": "Const", "attr": {"dtype": {"type": "DT_FLOAT"}, "value": {"tensor": {"dtype": "DT_FLOAT", "tensorShape": {"dim": [{"size": "176"}, {"size": "4"}, {"size": "176"}]}}}}}, {"name": "StatefulPartitionedCall/model_1/transformer_encoder_regressor_1/transformer_batch_norm_encoder_block_1/sequential_2/transformer_batch_norm_encoder_layer_19/multi_head_attention_19/key/add/ReadVariableOp", "op": "Const", "attr": {"value": {"tensor": {"dtype": "DT_FLOAT", "tensorShape": {"dim": [{"size": "4"}, {"size": "176"}]}}}, "dtype": {"type": "DT_FLOAT"}}}, {"name": "StatefulPartitionedCall/model_1/transformer_encoder_regressor_1/transformer_batch_norm_encoder_block_1/sequential_2/transformer_batch_norm_encoder_layer_19/multi_head_attention_19/query/einsum/Einsum/ReadVariableOp", "op": "Const", "attr": {"value": {"tensor": {"dtype": "DT_FLOAT", "tensorShape": {"dim": [{"size": "176"}, {"size": "4"}, {"size": "176"}]}}}, "dtype": {"type": "DT_FLOAT"}}}, {"name": "StatefulPartitionedCall/model_1/transformer_encoder_regressor_1/transformer_batch_norm_encoder_block_1/sequential_2/transformer_batch_norm_encoder_layer_19/multi_head_attention_19/query/add/ReadVariableOp", "op": "Const", "attr": {"dtype": {"type": "DT_FLOAT"}, "value": {"tensor": {"dtype": "DT_FLOAT", "tensorShape": {"dim": [{"size": "4"}, {"size": "176"}]}}}}}, {"name": "StatefulPartitionedCall/model_1/transformer_encoder_regressor_1/transformer_batch_norm_encoder_block_1/sequential_2/transformer_batch_norm_encoder_layer_19/multi_head_attention_19/Mul/y", "op": "Const", "attr": {"value": {"tensor": {"dtype": "DT_FLOAT", "tensorShape": {}}}, "dtype": {"type": "DT_FLOAT"}}}, {"name": "StatefulPartitionedCall/model_1/transformer_encoder_regressor_1/transformer_batch_norm_encoder_block_1/sequential_2/transformer_batch_norm_encoder_layer_18/dense_48/Tensordot/Const", "op": "Const", "attr": {"dtype": {"type": "DT_INT32"}, "value": {"tensor": {"dtype": "DT_INT32", "tensorShape": {"dim": [{"size": "1"}]}}}}}, {"name": "StatefulPartitionedCall/model_1/transformer_encoder_regressor_1/transformer_batch_norm_encoder_block_1/sequential_2/transformer_batch_norm_encoder_layer_18/dense_48/Tensordot/axes", "op": "Const", "attr": {"value": {"tensor": {"dtype": "DT_INT32", "tensorShape": {"dim": [{"size": "1"}]}}}, "dtype": {"type": "DT_INT32"}}}, {"name": "StatefulPartitionedCall/model_1/transformer_encoder_regressor_1/transformer_batch_norm_encoder_block_1/sequential_2/transformer_batch_norm_encoder_layer_18/dense_48/Tensordot/GatherV2_1/axis", "op": "Const", "attr": {"dtype": {"type": "DT_INT32"}, "value": {"tensor": {"dtype": "DT_INT32", "tensorShape": {}}}}}, {"name": "StatefulPartitionedCall/model_1/transformer_encoder_regressor_1/transformer_batch_norm_encoder_block_1/sequential_2/transformer_batch_norm_encoder_layer_18/dense_48/Tensordot/Const_1", "op": "Const", "attr": {"dtype": {"type": "DT_INT32"}, "value": {"tensor": {"dtype": "DT_INT32", "tensorShape": {"dim": [{"size": "1"}]}}}}}, {"name": "StatefulPartitionedCall/model_1/transformer_encoder_regressor_1/transformer_batch_norm_encoder_block_1/sequential_2/transformer_batch_norm_encoder_layer_18/dense_48/Tensordot/ReadVariableOp", "op": "Const", "attr": {"value": {"tensor": {"dtype": "DT_FLOAT", "tensorShape": {"dim": [{"size": "229"}, {"size": "176"}]}}}, "dtype": {"type": "DT_FLOAT"}}}, {"name": "StatefulPartitionedCall/model_1/transformer_encoder_regressor_1/transformer_batch_norm_encoder_block_1/sequential_2/transformer_batch_norm_encoder_layer_18/dense_47/Tensordot/Const", "op": "Const", "attr": {"value": {"tensor": {"dtype": "DT_INT32", "tensorShape": {"dim": [{"size": "1"}]}}}, "dtype": {"type": "DT_INT32"}}}, {"name": "StatefulPartitionedCall/model_1/transformer_encoder_regressor_1/transformer_batch_norm_encoder_block_1/sequential_2/transformer_batch_norm_encoder_layer_18/dense_47/Tensordot/axes", "op": "Const", "attr": {"value": {"tensor": {"dtype": "DT_INT32", "tensorShape": {"dim": [{"size": "1"}]}}}, "dtype": {"type": "DT_INT32"}}}, {"name": "StatefulPartitionedCall/model_1/transformer_encoder_regressor_1/transformer_batch_norm_encoder_block_1/sequential_2/transformer_batch_norm_encoder_layer_18/dense_47/Tensordot/GatherV2_1/axis", "op": "Const", "attr": {"dtype": {"type": "DT_INT32"}, "value": {"tensor": {"dtype": "DT_INT32", "tensorShape": {}}}}}, {"name": "StatefulPartitionedCall/model_1/transformer_encoder_regressor_1/transformer_batch_norm_encoder_block_1/sequential_2/transformer_batch_norm_encoder_layer_18/dense_47/Tensordot/Const_1", "op": "Const", "attr": {"value": {"tensor": {"dtype": "DT_INT32", "tensorShape": {"dim": [{"size": "1"}]}}}, "dtype": {"type": "DT_INT32"}}}, {"name": "StatefulPartitionedCall/model_1/transformer_encoder_regressor_1/transformer_batch_norm_encoder_block_1/sequential_2/transformer_batch_norm_encoder_layer_18/dense_47/Tensordot/ReadVariableOp", "op": "Const", "attr": {"value": {"tensor": {"dtype": "DT_FLOAT", "tensorShape": {"dim": [{"size": "176"}, {"size": "229"}]}}}, "dtype": {"type": "DT_FLOAT"}}}, {"name": "StatefulPartitionedCall/model_1/transformer_encoder_regressor_1/transformer_batch_norm_encoder_block_1/sequential_2/transformer_batch_norm_encoder_layer_18/dense_47/Tensordot/free", "op": "Const", "attr": {"value": {"tensor": {"dtype": "DT_INT32", "tensorShape": {"dim": [{"size": "2"}]}}}, "dtype": {"type": "DT_INT32"}}}, {"name": "StatefulPartitionedCall/model_1/transformer_encoder_regressor_1/transformer_batch_norm_encoder_block_1/sequential_2/transformer_batch_norm_encoder_layer_18/dense_47/Tensordot/GatherV2/axis", "op": "Const", "attr": {"value": {"tensor": {"dtype": "DT_INT32", "tensorShape": {}}}, "dtype": {"type": "DT_INT32"}}}, {"name": "StatefulPartitionedCall/model_1/transformer_encoder_regressor_1/transformer_batch_norm_encoder_block_1/sequential_2/transformer_batch_norm_encoder_layer_18/dense_47/Tensordot/Const_2", "op": "Const", "attr": {"dtype": {"type": "DT_INT32"}, "value": {"tensor": {"dtype": "DT_INT32", "tensorShape": {"dim": [{"size": "1"}]}}}}}, {"name": "StatefulPartitionedCall/model_1/transformer_encoder_regressor_1/transformer_batch_norm_encoder_block_1/sequential_2/transformer_batch_norm_encoder_layer_18/dense_47/Tensordot/concat_1/axis", "op": "Const", "attr": {"dtype": {"type": "DT_INT32"}, "value": {"tensor": {"dtype": "DT_INT32", "tensorShape": {}}}}}, {"name": "StatefulPartitionedCall/model_1/transformer_encoder_regressor_1/transformer_batch_norm_encoder_block_1/sequential_2/transformer_batch_norm_encoder_layer_18/dense_47/BiasAdd/ReadVariableOp", "op": "Const", "attr": {"dtype": {"type": "DT_FLOAT"}, "value": {"tensor": {"dtype": "DT_FLOAT", "tensorShape": {"dim": [{"size": "229"}]}}}}}, {"name": "StatefulPartitionedCall/model_1/transformer_encoder_regressor_1/transformer_batch_norm_encoder_block_1/sequential_2/transformer_batch_norm_encoder_layer_18/dense_48/Tensordot/free", "op": "Const", "attr": {"dtype": {"type": "DT_INT32"}, "value": {"tensor": {"dtype": "DT_INT32", "tensorShape": {"dim": [{"size": "2"}]}}}}}, {"name": "StatefulPartitionedCall/model_1/transformer_encoder_regressor_1/transformer_batch_norm_encoder_block_1/sequential_2/transformer_batch_norm_encoder_layer_18/dense_48/Tensordot/GatherV2/axis", "op": "Const", "attr": {"dtype": {"type": "DT_INT32"}, "value": {"tensor": {"dtype": "DT_INT32", "tensorShape": {}}}}}, {"name": "StatefulPartitionedCall/model_1/transformer_encoder_regressor_1/transformer_batch_norm_encoder_block_1/sequential_2/transformer_batch_norm_encoder_layer_18/dense_48/Tensordot/Const_2", "op": "Const", "attr": {"dtype": {"type": "DT_INT32"}, "value": {"tensor": {"dtype": "DT_INT32", "tensorShape": {"dim": [{"size": "1"}]}}}}}, {"name": "StatefulPartitionedCall/model_1/transformer_encoder_regressor_1/transformer_batch_norm_encoder_block_1/sequential_2/transformer_batch_norm_encoder_layer_18/dense_48/Tensordot/concat_1/axis", "op": "Const", "attr": {"dtype": {"type": "DT_INT32"}, "value": {"tensor": {"dtype": "DT_INT32", "tensorShape": {}}}}}, {"name": "StatefulPartitionedCall/model_1/transformer_encoder_regressor_1/transformer_batch_norm_encoder_block_1/sequential_2/transformer_batch_norm_encoder_layer_18/dense_48/BiasAdd/ReadVariableOp", "op": "Const", "attr": {"dtype": {"type": "DT_FLOAT"}, "value": {"tensor": {"dtype": "DT_FLOAT", "tensorShape": {"dim": [{"size": "176"}]}}}}}, {"name": "StatefulPartitionedCall/model_1/transformer_encoder_regressor_1/transformer_batch_norm_encoder_block_1/sequential_2/transformer_batch_norm_encoder_layer_18/batch_normalization_37/batchnorm/mul", "op": "Const", "attr": {"dtype": {"type": "DT_FLOAT"}, "value": {"tensor": {"dtype": "DT_FLOAT", "tensorShape": {"dim": [{"size": "176"}]}}}}}, {"name": "StatefulPartitionedCall/model_1/transformer_encoder_regressor_1/transformer_batch_norm_encoder_block_1/sequential_2/transformer_batch_norm_encoder_layer_18/batch_normalization_37/batchnorm/sub", "op": "Const", "attr": {"dtype": {"type": "DT_FLOAT"}, "value": {"tensor": {"dtype": "DT_FLOAT", "tensorShape": {"dim": [{"size": "176"}]}}}}}, {"name": "StatefulPartitionedCall/model_1/transformer_encoder_regressor_1/transformer_batch_norm_encoder_block_1/sequential_2/transformer_batch_norm_encoder_layer_18/batch_normalization_36/batchnorm/sub", "op": "Const", "attr": {"dtype": {"type": "DT_FLOAT"}, "value": {"tensor": {"dtype": "DT_FLOAT", "tensorShape": {"dim": [{"size": "176"}]}}}}}, {"name": "StatefulPartitionedCall/model_1/transformer_encoder_regressor_1/transformer_batch_norm_encoder_block_1/sequential_2/transformer_batch_norm_encoder_layer_18/batch_normalization_36/batchnorm/mul", "op": "Const", "attr": {"dtype": {"type": "DT_FLOAT"}, "value": {"tensor": {"dtype": "DT_FLOAT", "tensorShape": {"dim": [{"size": "176"}]}}}}}, {"name": "StatefulPartitionedCall/model_1/transformer_encoder_regressor_1/transformer_batch_norm_encoder_block_1/sequential_2/transformer_batch_norm_encoder_layer_18/multi_head_attention_18/key/einsum/Einsum/ReadVariableOp", "op": "Const", "attr": {"dtype": {"type": "DT_FLOAT"}, "value": {"tensor": {"dtype": "DT_FLOAT", "tensorShape": {"dim": [{"size": "176"}, {"size": "4"}, {"size": "176"}]}}}}}, {"name": "StatefulPartitionedCall/model_1/transformer_encoder_regressor_1/transformer_batch_norm_encoder_block_1/sequential_2/transformer_batch_norm_encoder_layer_18/multi_head_attention_18/key/add/ReadVariableOp", "op": "Const", "attr": {"value": {"tensor": {"dtype": "DT_FLOAT", "tensorShape": {"dim": [{"size": "4"}, {"size": "176"}]}}}, "dtype": {"type": "DT_FLOAT"}}}, {"name": "StatefulPartitionedCall/model_1/transformer_encoder_regressor_1/transformer_batch_norm_encoder_block_1/sequential_2/transformer_batch_norm_encoder_layer_18/multi_head_attention_18/query/einsum/Einsum/ReadVariableOp", "op": "Const", "attr": {"dtype": {"type": "DT_FLOAT"}, "value": {"tensor": {"dtype": "DT_FLOAT", "tensorShape": {"dim": [{"size": "176"}, {"size": "4"}, {"size": "176"}]}}}}}, {"name": "StatefulPartitionedCall/model_1/transformer_encoder_regressor_1/transformer_batch_norm_encoder_block_1/sequential_2/transformer_batch_norm_encoder_layer_18/multi_head_attention_18/query/add/ReadVariableOp", "op": "Const", "attr": {"dtype": {"type": "DT_FLOAT"}, "value": {"tensor": {"dtype": "DT_FLOAT", "tensorShape": {"dim": [{"size": "4"}, {"size": "176"}]}}}}}, {"name": "StatefulPartitionedCall/model_1/transformer_encoder_regressor_1/transformer_batch_norm_encoder_block_1/sequential_2/transformer_batch_norm_encoder_layer_18/multi_head_attention_18/Mul/y", "op": "Const", "attr": {"value": {"tensor": {"dtype": "DT_FLOAT", "tensorShape": {}}}, "dtype": {"type": "DT_FLOAT"}}}, {"name": "StatefulPartitionedCall/model_1/transformer_encoder_regressor_1/transformer_batch_norm_encoder_block_1/sequential_2/transformer_batch_norm_encoder_layer_17/dense_46/Tensordot/Const", "op": "Const", "attr": {"dtype": {"type": "DT_INT32"}, "value": {"tensor": {"dtype": "DT_INT32", "tensorShape": {"dim": [{"size": "1"}]}}}}}, {"name": "StatefulPartitionedCall/model_1/transformer_encoder_regressor_1/transformer_batch_norm_encoder_block_1/sequential_2/transformer_batch_norm_encoder_layer_17/dense_46/Tensordot/axes", "op": "Const", "attr": {"dtype": {"type": "DT_INT32"}, "value": {"tensor": {"dtype": "DT_INT32", "tensorShape": {"dim": [{"size": "1"}]}}}}}, {"name": "StatefulPartitionedCall/model_1/transformer_encoder_regressor_1/transformer_batch_norm_encoder_block_1/sequential_2/transformer_batch_norm_encoder_layer_17/dense_46/Tensordot/GatherV2_1/axis", "op": "Const", "attr": {"value": {"tensor": {"dtype": "DT_INT32", "tensorShape": {}}}, "dtype": {"type": "DT_INT32"}}}, {"name": "StatefulPartitionedCall/model_1/transformer_encoder_regressor_1/transformer_batch_norm_encoder_block_1/sequential_2/transformer_batch_norm_encoder_layer_17/dense_46/Tensordot/Const_1", "op": "Const", "attr": {"dtype": {"type": "DT_INT32"}, "value": {"tensor": {"dtype": "DT_INT32", "tensorShape": {"dim": [{"size": "1"}]}}}}}, {"name": "StatefulPartitionedCall/model_1/transformer_encoder_regressor_1/transformer_batch_norm_encoder_block_1/sequential_2/transformer_batch_norm_encoder_layer_17/dense_46/Tensordot/ReadVariableOp", "op": "Const", "attr": {"dtype": {"type": "DT_FLOAT"}, "value": {"tensor": {"dtype": "DT_FLOAT", "tensorShape": {"dim": [{"size": "229"}, {"size": "176"}]}}}}}, {"name": "StatefulPartitionedCall/model_1/transformer_encoder_regressor_1/transformer_batch_norm_encoder_block_1/sequential_2/transformer_batch_norm_encoder_layer_17/dense_45/Tensordot/Const", "op": "Const", "attr": {"dtype": {"type": "DT_INT32"}, "value": {"tensor": {"dtype": "DT_INT32", "tensorShape": {"dim": [{"size": "1"}]}}}}}, {"name": "StatefulPartitionedCall/model_1/transformer_encoder_regressor_1/transformer_batch_norm_encoder_block_1/sequential_2/transformer_batch_norm_encoder_layer_17/dense_45/Tensordot/axes", "op": "Const", "attr": {"value": {"tensor": {"dtype": "DT_INT32", "tensorShape": {"dim": [{"size": "1"}]}}}, "dtype": {"type": "DT_INT32"}}}, {"name": "StatefulPartitionedCall/model_1/transformer_encoder_regressor_1/transformer_batch_norm_encoder_block_1/sequential_2/transformer_batch_norm_encoder_layer_17/dense_45/Tensordot/GatherV2_1/axis", "op": "Const", "attr": {"value": {"tensor": {"dtype": "DT_INT32", "tensorShape": {}}}, "dtype": {"type": "DT_INT32"}}}, {"name": "StatefulPartitionedCall/model_1/transformer_encoder_regressor_1/transformer_batch_norm_encoder_block_1/sequential_2/transformer_batch_norm_encoder_layer_17/dense_45/Tensordot/Const_1", "op": "Const", "attr": {"value": {"tensor": {"dtype": "DT_INT32", "tensorShape": {"dim": [{"size": "1"}]}}}, "dtype": {"type": "DT_INT32"}}}, {"name": "StatefulPartitionedCall/model_1/transformer_encoder_regressor_1/transformer_batch_norm_encoder_block_1/sequential_2/transformer_batch_norm_encoder_layer_17/dense_45/Tensordot/ReadVariableOp", "op": "Const", "attr": {"value": {"tensor": {"dtype": "DT_FLOAT", "tensorShape": {"dim": [{"size": "176"}, {"size": "229"}]}}}, "dtype": {"type": "DT_FLOAT"}}}, {"name": "StatefulPartitionedCall/model_1/transformer_encoder_regressor_1/transformer_batch_norm_encoder_block_1/sequential_2/transformer_batch_norm_encoder_layer_17/dense_45/Tensordot/free", "op": "Const", "attr": {"dtype": {"type": "DT_INT32"}, "value": {"tensor": {"dtype": "DT_INT32", "tensorShape": {"dim": [{"size": "2"}]}}}}}, {"name": "StatefulPartitionedCall/model_1/transformer_encoder_regressor_1/transformer_batch_norm_encoder_block_1/sequential_2/transformer_batch_norm_encoder_layer_17/dense_45/Tensordot/GatherV2/axis", "op": "Const", "attr": {"value": {"tensor": {"dtype": "DT_INT32", "tensorShape": {}}}, "dtype": {"type": "DT_INT32"}}}, {"name": "StatefulPartitionedCall/model_1/transformer_encoder_regressor_1/transformer_batch_norm_encoder_block_1/sequential_2/transformer_batch_norm_encoder_layer_17/dense_45/Tensordot/Const_2", "op": "Const", "attr": {"dtype": {"type": "DT_INT32"}, "value": {"tensor": {"dtype": "DT_INT32", "tensorShape": {"dim": [{"size": "1"}]}}}}}, {"name": "StatefulPartitionedCall/model_1/transformer_encoder_regressor_1/transformer_batch_norm_encoder_block_1/sequential_2/transformer_batch_norm_encoder_layer_17/dense_45/Tensordot/concat_1/axis", "op": "Const", "attr": {"value": {"tensor": {"dtype": "DT_INT32", "tensorShape": {}}}, "dtype": {"type": "DT_INT32"}}}, {"name": "StatefulPartitionedCall/model_1/transformer_encoder_regressor_1/transformer_batch_norm_encoder_block_1/sequential_2/transformer_batch_norm_encoder_layer_17/dense_45/BiasAdd/ReadVariableOp", "op": "Const", "attr": {"dtype": {"type": "DT_FLOAT"}, "value": {"tensor": {"dtype": "DT_FLOAT", "tensorShape": {"dim": [{"size": "229"}]}}}}}, {"name": "StatefulPartitionedCall/model_1/transformer_encoder_regressor_1/transformer_batch_norm_encoder_block_1/sequential_2/transformer_batch_norm_encoder_layer_17/dense_46/Tensordot/free", "op": "Const", "attr": {"value": {"tensor": {"dtype": "DT_INT32", "tensorShape": {"dim": [{"size": "2"}]}}}, "dtype": {"type": "DT_INT32"}}}, {"name": "StatefulPartitionedCall/model_1/transformer_encoder_regressor_1/transformer_batch_norm_encoder_block_1/sequential_2/transformer_batch_norm_encoder_layer_17/dense_46/Tensordot/GatherV2/axis", "op": "Const", "attr": {"value": {"tensor": {"dtype": "DT_INT32", "tensorShape": {}}}, "dtype": {"type": "DT_INT32"}}}, {"name": "StatefulPartitionedCall/model_1/transformer_encoder_regressor_1/transformer_batch_norm_encoder_block_1/sequential_2/transformer_batch_norm_encoder_layer_17/dense_46/Tensordot/Const_2", "op": "Const", "attr": {"dtype": {"type": "DT_INT32"}, "value": {"tensor": {"dtype": "DT_INT32", "tensorShape": {"dim": [{"size": "1"}]}}}}}, {"name": "StatefulPartitionedCall/model_1/transformer_encoder_regressor_1/transformer_batch_norm_encoder_block_1/sequential_2/transformer_batch_norm_encoder_layer_17/dense_46/Tensordot/concat_1/axis", "op": "Const", "attr": {"dtype": {"type": "DT_INT32"}, "value": {"tensor": {"dtype": "DT_INT32", "tensorShape": {}}}}}, {"name": "StatefulPartitionedCall/model_1/transformer_encoder_regressor_1/transformer_batch_norm_encoder_block_1/sequential_2/transformer_batch_norm_encoder_layer_17/dense_46/BiasAdd/ReadVariableOp", "op": "Const", "attr": {"dtype": {"type": "DT_FLOAT"}, "value": {"tensor": {"dtype": "DT_FLOAT", "tensorShape": {"dim": [{"size": "176"}]}}}}}, {"name": "StatefulPartitionedCall/model_1/transformer_encoder_regressor_1/transformer_batch_norm_encoder_block_1/sequential_2/transformer_batch_norm_encoder_layer_17/batch_normalization_35/batchnorm/mul", "op": "Const", "attr": {"value": {"tensor": {"dtype": "DT_FLOAT", "tensorShape": {"dim": [{"size": "176"}]}}}, "dtype": {"type": "DT_FLOAT"}}}, {"name": "StatefulPartitionedCall/model_1/transformer_encoder_regressor_1/transformer_batch_norm_encoder_block_1/sequential_2/transformer_batch_norm_encoder_layer_17/batch_normalization_35/batchnorm/sub", "op": "Const", "attr": {"dtype": {"type": "DT_FLOAT"}, "value": {"tensor": {"dtype": "DT_FLOAT", "tensorShape": {"dim": [{"size": "176"}]}}}}}, {"name": "StatefulPartitionedCall/model_1/transformer_encoder_regressor_1/transformer_batch_norm_encoder_block_1/sequential_2/transformer_batch_norm_encoder_layer_17/batch_normalization_34/batchnorm/sub", "op": "Const", "attr": {"value": {"tensor": {"dtype": "DT_FLOAT", "tensorShape": {"dim": [{"size": "176"}]}}}, "dtype": {"type": "DT_FLOAT"}}}, {"name": "StatefulPartitionedCall/model_1/transformer_encoder_regressor_1/transformer_batch_norm_encoder_block_1/sequential_2/transformer_batch_norm_encoder_layer_17/batch_normalization_34/batchnorm/mul", "op": "Const", "attr": {"value": {"tensor": {"dtype": "DT_FLOAT", "tensorShape": {"dim": [{"size": "176"}]}}}, "dtype": {"type": "DT_FLOAT"}}}, {"name": "StatefulPartitionedCall/model_1/transformer_encoder_regressor_1/transformer_batch_norm_encoder_block_1/sequential_2/transformer_batch_norm_encoder_layer_17/multi_head_attention_17/key/einsum/Einsum/ReadVariableOp", "op": "Const", "attr": {"value": {"tensor": {"dtype": "DT_FLOAT", "tensorShape": {"dim": [{"size": "176"}, {"size": "4"}, {"size": "176"}]}}}, "dtype": {"type": "DT_FLOAT"}}}, {"name": "StatefulPartitionedCall/model_1/transformer_encoder_regressor_1/transformer_batch_norm_encoder_block_1/sequential_2/transformer_batch_norm_encoder_layer_17/multi_head_attention_17/key/add/ReadVariableOp", "op": "Const", "attr": {"value": {"tensor": {"dtype": "DT_FLOAT", "tensorShape": {"dim": [{"size": "4"}, {"size": "176"}]}}}, "dtype": {"type": "DT_FLOAT"}}}, {"name": "StatefulPartitionedCall/model_1/transformer_encoder_regressor_1/transformer_batch_norm_encoder_block_1/sequential_2/transformer_batch_norm_encoder_layer_17/multi_head_attention_17/query/einsum/Einsum/ReadVariableOp", "op": "Const", "attr": {"dtype": {"type": "DT_FLOAT"}, "value": {"tensor": {"dtype": "DT_FLOAT", "tensorShape": {"dim": [{"size": "176"}, {"size": "4"}, {"size": "176"}]}}}}}, {"name": "StatefulPartitionedCall/model_1/transformer_encoder_regressor_1/transformer_batch_norm_encoder_block_1/sequential_2/transformer_batch_norm_encoder_layer_17/multi_head_attention_17/query/add/ReadVariableOp", "op": "Const", "attr": {"value": {"tensor": {"dtype": "DT_FLOAT", "tensorShape": {"dim": [{"size": "4"}, {"size": "176"}]}}}, "dtype": {"type": "DT_FLOAT"}}}, {"name": "StatefulPartitionedCall/model_1/transformer_encoder_regressor_1/transformer_batch_norm_encoder_block_1/sequential_2/transformer_batch_norm_encoder_layer_17/multi_head_attention_17/Mul/y", "op": "Const", "attr": {"dtype": {"type": "DT_FLOAT"}, "value": {"tensor": {"dtype": "DT_FLOAT", "tensorShape": {}}}}}, {"name": "StatefulPartitionedCall/model_1/transformer_encoder_regressor_1/transformer_batch_norm_encoder_block_1/sequential_2/transformer_batch_norm_encoder_layer_16/dense_44/Tensordot/Const", "op": "Const", "attr": {"dtype": {"type": "DT_INT32"}, "value": {"tensor": {"dtype": "DT_INT32", "tensorShape": {"dim": [{"size": "1"}]}}}}}, {"name": "StatefulPartitionedCall/model_1/transformer_encoder_regressor_1/transformer_batch_norm_encoder_block_1/sequential_2/transformer_batch_norm_encoder_layer_16/dense_44/Tensordot/axes", "op": "Const", "attr": {"value": {"tensor": {"dtype": "DT_INT32", "tensorShape": {"dim": [{"size": "1"}]}}}, "dtype": {"type": "DT_INT32"}}}, {"name": "StatefulPartitionedCall/model_1/transformer_encoder_regressor_1/transformer_batch_norm_encoder_block_1/sequential_2/transformer_batch_norm_encoder_layer_16/dense_44/Tensordot/GatherV2_1/axis", "op": "Const", "attr": {"value": {"tensor": {"dtype": "DT_INT32", "tensorShape": {}}}, "dtype": {"type": "DT_INT32"}}}, {"name": "StatefulPartitionedCall/model_1/transformer_encoder_regressor_1/transformer_batch_norm_encoder_block_1/sequential_2/transformer_batch_norm_encoder_layer_16/dense_44/Tensordot/Const_1", "op": "Const", "attr": {"dtype": {"type": "DT_INT32"}, "value": {"tensor": {"dtype": "DT_INT32", "tensorShape": {"dim": [{"size": "1"}]}}}}}, {"name": "StatefulPartitionedCall/model_1/transformer_encoder_regressor_1/transformer_batch_norm_encoder_block_1/sequential_2/transformer_batch_norm_encoder_layer_16/dense_44/Tensordot/ReadVariableOp", "op": "Const", "attr": {"value": {"tensor": {"dtype": "DT_FLOAT", "tensorShape": {"dim": [{"size": "229"}, {"size": "176"}]}}}, "dtype": {"type": "DT_FLOAT"}}}, {"name": "StatefulPartitionedCall/model_1/transformer_encoder_regressor_1/transformer_batch_norm_encoder_block_1/sequential_2/transformer_batch_norm_encoder_layer_16/dense_43/Tensordot/Const", "op": "Const", "attr": {"dtype": {"type": "DT_INT32"}, "value": {"tensor": {"dtype": "DT_INT32", "tensorShape": {"dim": [{"size": "1"}]}}}}}, {"name": "StatefulPartitionedCall/model_1/transformer_encoder_regressor_1/transformer_batch_norm_encoder_block_1/sequential_2/transformer_batch_norm_encoder_layer_16/dense_43/Tensordot/axes", "op": "Const", "attr": {"dtype": {"type": "DT_INT32"}, "value": {"tensor": {"dtype": "DT_INT32", "tensorShape": {"dim": [{"size": "1"}]}}}}}, {"name": "StatefulPartitionedCall/model_1/transformer_encoder_regressor_1/transformer_batch_norm_encoder_block_1/sequential_2/transformer_batch_norm_encoder_layer_16/dense_43/Tensordot/GatherV2_1/axis", "op": "Const", "attr": {"value": {"tensor": {"dtype": "DT_INT32", "tensorShape": {}}}, "dtype": {"type": "DT_INT32"}}}, {"name": "StatefulPartitionedCall/model_1/transformer_encoder_regressor_1/transformer_batch_norm_encoder_block_1/sequential_2/transformer_batch_norm_encoder_layer_16/dense_43/Tensordot/Const_1", "op": "Const", "attr": {"value": {"tensor": {"dtype": "DT_INT32", "tensorShape": {"dim": [{"size": "1"}]}}}, "dtype": {"type": "DT_INT32"}}}, {"name": "StatefulPartitionedCall/model_1/transformer_encoder_regressor_1/transformer_batch_norm_encoder_block_1/sequential_2/transformer_batch_norm_encoder_layer_16/dense_43/Tensordot/ReadVariableOp", "op": "Const", "attr": {"dtype": {"type": "DT_FLOAT"}, "value": {"tensor": {"dtype": "DT_FLOAT", "tensorShape": {"dim": [{"size": "176"}, {"size": "229"}]}}}}}, {"name": "StatefulPartitionedCall/model_1/transformer_encoder_regressor_1/transformer_batch_norm_encoder_block_1/sequential_2/transformer_batch_norm_encoder_layer_16/dense_43/Tensordot/free", "op": "Const", "attr": {"dtype": {"type": "DT_INT32"}, "value": {"tensor": {"dtype": "DT_INT32", "tensorShape": {"dim": [{"size": "2"}]}}}}}, {"name": "StatefulPartitionedCall/model_1/transformer_encoder_regressor_1/transformer_batch_norm_encoder_block_1/sequential_2/transformer_batch_norm_encoder_layer_16/dense_43/Tensordot/GatherV2/axis", "op": "Const", "attr": {"dtype": {"type": "DT_INT32"}, "value": {"tensor": {"dtype": "DT_INT32", "tensorShape": {}}}}}, {"name": "StatefulPartitionedCall/model_1/transformer_encoder_regressor_1/transformer_batch_norm_encoder_block_1/sequential_2/transformer_batch_norm_encoder_layer_16/dense_43/Tensordot/Const_2", "op": "Const", "attr": {"dtype": {"type": "DT_INT32"}, "value": {"tensor": {"dtype": "DT_INT32", "tensorShape": {"dim": [{"size": "1"}]}}}}}, {"name": "StatefulPartitionedCall/model_1/transformer_encoder_regressor_1/transformer_batch_norm_encoder_block_1/sequential_2/transformer_batch_norm_encoder_layer_16/dense_43/Tensordot/concat_1/axis", "op": "Const", "attr": {"value": {"tensor": {"dtype": "DT_INT32", "tensorShape": {}}}, "dtype": {"type": "DT_INT32"}}}, {"name": "StatefulPartitionedCall/model_1/transformer_encoder_regressor_1/transformer_batch_norm_encoder_block_1/sequential_2/transformer_batch_norm_encoder_layer_16/dense_43/BiasAdd/ReadVariableOp", "op": "Const", "attr": {"value": {"tensor": {"dtype": "DT_FLOAT", "tensorShape": {"dim": [{"size": "229"}]}}}, "dtype": {"type": "DT_FLOAT"}}}, {"name": "StatefulPartitionedCall/model_1/transformer_encoder_regressor_1/transformer_batch_norm_encoder_block_1/sequential_2/transformer_batch_norm_encoder_layer_16/dense_44/Tensordot/free", "op": "Const", "attr": {"value": {"tensor": {"dtype": "DT_INT32", "tensorShape": {"dim": [{"size": "2"}]}}}, "dtype": {"type": "DT_INT32"}}}, {"name": "StatefulPartitionedCall/model_1/transformer_encoder_regressor_1/transformer_batch_norm_encoder_block_1/sequential_2/transformer_batch_norm_encoder_layer_16/dense_44/Tensordot/GatherV2/axis", "op": "Const", "attr": {"value": {"tensor": {"dtype": "DT_INT32", "tensorShape": {}}}, "dtype": {"type": "DT_INT32"}}}, {"name": "StatefulPartitionedCall/model_1/transformer_encoder_regressor_1/transformer_batch_norm_encoder_block_1/sequential_2/transformer_batch_norm_encoder_layer_16/dense_44/Tensordot/Const_2", "op": "Const", "attr": {"dtype": {"type": "DT_INT32"}, "value": {"tensor": {"dtype": "DT_INT32", "tensorShape": {"dim": [{"size": "1"}]}}}}}, {"name": "StatefulPartitionedCall/model_1/transformer_encoder_regressor_1/transformer_batch_norm_encoder_block_1/sequential_2/transformer_batch_norm_encoder_layer_16/dense_44/Tensordot/concat_1/axis", "op": "Const", "attr": {"dtype": {"type": "DT_INT32"}, "value": {"tensor": {"dtype": "DT_INT32", "tensorShape": {}}}}}, {"name": "StatefulPartitionedCall/model_1/transformer_encoder_regressor_1/transformer_batch_norm_encoder_block_1/sequential_2/transformer_batch_norm_encoder_layer_16/dense_44/BiasAdd/ReadVariableOp", "op": "Const", "attr": {"value": {"tensor": {"dtype": "DT_FLOAT", "tensorShape": {"dim": [{"size": "176"}]}}}, "dtype": {"type": "DT_FLOAT"}}}, {"name": "StatefulPartitionedCall/model_1/transformer_encoder_regressor_1/transformer_batch_norm_encoder_block_1/sequential_2/transformer_batch_norm_encoder_layer_16/batch_normalization_33/batchnorm/mul", "op": "Const", "attr": {"dtype": {"type": "DT_FLOAT"}, "value": {"tensor": {"dtype": "DT_FLOAT", "tensorShape": {"dim": [{"size": "176"}]}}}}}, {"name": "StatefulPartitionedCall/model_1/transformer_encoder_regressor_1/transformer_batch_norm_encoder_block_1/sequential_2/transformer_batch_norm_encoder_layer_16/batch_normalization_33/batchnorm/sub", "op": "Const", "attr": {"value": {"tensor": {"dtype": "DT_FLOAT", "tensorShape": {"dim": [{"size": "176"}]}}}, "dtype": {"type": "DT_FLOAT"}}}, {"name": "StatefulPartitionedCall/model_1/transformer_encoder_regressor_1/transformer_batch_norm_encoder_block_1/sequential_2/transformer_batch_norm_encoder_layer_16/batch_normalization_32/batchnorm/sub", "op": "Const", "attr": {"value": {"tensor": {"dtype": "DT_FLOAT", "tensorShape": {"dim": [{"size": "176"}]}}}, "dtype": {"type": "DT_FLOAT"}}}, {"name": "StatefulPartitionedCall/model_1/transformer_encoder_regressor_1/transformer_batch_norm_encoder_block_1/sequential_2/transformer_batch_norm_encoder_layer_16/batch_normalization_32/batchnorm/mul", "op": "Const", "attr": {"dtype": {"type": "DT_FLOAT"}, "value": {"tensor": {"dtype": "DT_FLOAT", "tensorShape": {"dim": [{"size": "176"}]}}}}}, {"name": "StatefulPartitionedCall/model_1/transformer_encoder_regressor_1/transformer_batch_norm_encoder_block_1/sequential_2/transformer_batch_norm_encoder_layer_16/multi_head_attention_16/key/einsum/Einsum/ReadVariableOp", "op": "Const", "attr": {"dtype": {"type": "DT_FLOAT"}, "value": {"tensor": {"dtype": "DT_FLOAT", "tensorShape": {"dim": [{"size": "176"}, {"size": "4"}, {"size": "176"}]}}}}}, {"name": "StatefulPartitionedCall/model_1/transformer_encoder_regressor_1/transformer_batch_norm_encoder_block_1/sequential_2/transformer_batch_norm_encoder_layer_16/multi_head_attention_16/key/add/ReadVariableOp", "op": "Const", "attr": {"dtype": {"type": "DT_FLOAT"}, "value": {"tensor": {"dtype": "DT_FLOAT", "tensorShape": {"dim": [{"size": "4"}, {"size": "176"}]}}}}}, {"name": "StatefulPartitionedCall/model_1/transformer_encoder_regressor_1/transformer_batch_norm_encoder_block_1/sequential_2/transformer_batch_norm_encoder_layer_16/multi_head_attention_16/query/einsum/Einsum/ReadVariableOp", "op": "Const", "attr": {"dtype": {"type": "DT_FLOAT"}, "value": {"tensor": {"dtype": "DT_FLOAT", "tensorShape": {"dim": [{"size": "176"}, {"size": "4"}, {"size": "176"}]}}}}}, {"name": "StatefulPartitionedCall/model_1/transformer_encoder_regressor_1/transformer_batch_norm_encoder_block_1/sequential_2/transformer_batch_norm_encoder_layer_16/multi_head_attention_16/query/add/ReadVariableOp", "op": "Const", "attr": {"dtype": {"type": "DT_FLOAT"}, "value": {"tensor": {"dtype": "DT_FLOAT", "tensorShape": {"dim": [{"size": "4"}, {"size": "176"}]}}}}}, {"name": "StatefulPartitionedCall/model_1/transformer_encoder_regressor_1/transformer_batch_norm_encoder_block_1/sequential_2/transformer_batch_norm_encoder_layer_16/multi_head_attention_16/Mul/y", "op": "Const", "attr": {"value": {"tensor": {"dtype": "DT_FLOAT", "tensorShape": {}}}, "dtype": {"type": "DT_FLOAT"}}}, {"name": "StatefulPartitionedCall/model_1/transformer_encoder_regressor_1/transformer_batch_norm_encoder_block_1/sequential_2/transformer_batch_norm_encoder_layer_15/dense_42/Tensordot/Const", "op": "Const", "attr": {"value": {"tensor": {"dtype": "DT_INT32", "tensorShape": {"dim": [{"size": "1"}]}}}, "dtype": {"type": "DT_INT32"}}}, {"name": "StatefulPartitionedCall/model_1/transformer_encoder_regressor_1/transformer_batch_norm_encoder_block_1/sequential_2/transformer_batch_norm_encoder_layer_15/dense_42/Tensordot/axes", "op": "Const", "attr": {"value": {"tensor": {"dtype": "DT_INT32", "tensorShape": {"dim": [{"size": "1"}]}}}, "dtype": {"type": "DT_INT32"}}}, {"name": "StatefulPartitionedCall/model_1/transformer_encoder_regressor_1/transformer_batch_norm_encoder_block_1/sequential_2/transformer_batch_norm_encoder_layer_15/dense_42/Tensordot/GatherV2_1/axis", "op": "Const", "attr": {"dtype": {"type": "DT_INT32"}, "value": {"tensor": {"dtype": "DT_INT32", "tensorShape": {}}}}}, {"name": "StatefulPartitionedCall/model_1/transformer_encoder_regressor_1/transformer_batch_norm_encoder_block_1/sequential_2/transformer_batch_norm_encoder_layer_15/dense_42/Tensordot/Const_1", "op": "Const", "attr": {"dtype": {"type": "DT_INT32"}, "value": {"tensor": {"dtype": "DT_INT32", "tensorShape": {"dim": [{"size": "1"}]}}}}}, {"name": "StatefulPartitionedCall/model_1/transformer_encoder_regressor_1/transformer_batch_norm_encoder_block_1/sequential_2/transformer_batch_norm_encoder_layer_15/dense_42/Tensordot/ReadVariableOp", "op": "Const", "attr": {"value": {"tensor": {"dtype": "DT_FLOAT", "tensorShape": {"dim": [{"size": "229"}, {"size": "176"}]}}}, "dtype": {"type": "DT_FLOAT"}}}, {"name": "StatefulPartitionedCall/model_1/transformer_encoder_regressor_1/transformer_batch_norm_encoder_block_1/sequential_2/transformer_batch_norm_encoder_layer_15/dense_41/Tensordot/Const", "op": "Const", "attr": {"value": {"tensor": {"dtype": "DT_INT32", "tensorShape": {"dim": [{"size": "1"}]}}}, "dtype": {"type": "DT_INT32"}}}, {"name": "StatefulPartitionedCall/model_1/transformer_encoder_regressor_1/transformer_batch_norm_encoder_block_1/sequential_2/transformer_batch_norm_encoder_layer_15/dense_41/Tensordot/axes", "op": "Const", "attr": {"dtype": {"type": "DT_INT32"}, "value": {"tensor": {"dtype": "DT_INT32", "tensorShape": {"dim": [{"size": "1"}]}}}}}, {"name": "StatefulPartitionedCall/model_1/transformer_encoder_regressor_1/transformer_batch_norm_encoder_block_1/sequential_2/transformer_batch_norm_encoder_layer_15/dense_41/Tensordot/GatherV2_1/axis", "op": "Const", "attr": {"dtype": {"type": "DT_INT32"}, "value": {"tensor": {"dtype": "DT_INT32", "tensorShape": {}}}}}, {"name": "StatefulPartitionedCall/model_1/transformer_encoder_regressor_1/transformer_batch_norm_encoder_block_1/sequential_2/transformer_batch_norm_encoder_layer_15/dense_41/Tensordot/Const_1", "op": "Const", "attr": {"dtype": {"type": "DT_INT32"}, "value": {"tensor": {"dtype": "DT_INT32", "tensorShape": {"dim": [{"size": "1"}]}}}}}, {"name": "StatefulPartitionedCall/model_1/transformer_encoder_regressor_1/transformer_batch_norm_encoder_block_1/sequential_2/transformer_batch_norm_encoder_layer_15/dense_41/Tensordot/ReadVariableOp", "op": "Const", "attr": {"dtype": {"type": "DT_FLOAT"}, "value": {"tensor": {"dtype": "DT_FLOAT", "tensorShape": {"dim": [{"size": "176"}, {"size": "229"}]}}}}}, {"name": "StatefulPartitionedCall/model_1/transformer_encoder_regressor_1/transformer_batch_norm_encoder_block_1/sequential_2/transformer_batch_norm_encoder_layer_15/dense_41/Tensordot/free", "op": "Const", "attr": {"dtype": {"type": "DT_INT32"}, "value": {"tensor": {"dtype": "DT_INT32", "tensorShape": {"dim": [{"size": "2"}]}}}}}, {"name": "StatefulPartitionedCall/model_1/transformer_encoder_regressor_1/transformer_batch_norm_encoder_block_1/sequential_2/transformer_batch_norm_encoder_layer_15/dense_41/Tensordot/GatherV2/axis", "op": "Const", "attr": {"value": {"tensor": {"dtype": "DT_INT32", "tensorShape": {}}}, "dtype": {"type": "DT_INT32"}}}, {"name": "StatefulPartitionedCall/model_1/transformer_encoder_regressor_1/transformer_batch_norm_encoder_block_1/sequential_2/transformer_batch_norm_encoder_layer_15/dense_41/Tensordot/Const_2", "op": "Const", "attr": {"value": {"tensor": {"dtype": "DT_INT32", "tensorShape": {"dim": [{"size": "1"}]}}}, "dtype": {"type": "DT_INT32"}}}, {"name": "StatefulPartitionedCall/model_1/transformer_encoder_regressor_1/transformer_batch_norm_encoder_block_1/sequential_2/transformer_batch_norm_encoder_layer_15/dense_41/Tensordot/concat_1/axis", "op": "Const", "attr": {"dtype": {"type": "DT_INT32"}, "value": {"tensor": {"dtype": "DT_INT32", "tensorShape": {}}}}}, {"name": "StatefulPartitionedCall/model_1/transformer_encoder_regressor_1/transformer_batch_norm_encoder_block_1/sequential_2/transformer_batch_norm_encoder_layer_15/dense_41/BiasAdd/ReadVariableOp", "op": "Const", "attr": {"value": {"tensor": {"dtype": "DT_FLOAT", "tensorShape": {"dim": [{"size": "229"}]}}}, "dtype": {"type": "DT_FLOAT"}}}, {"name": "StatefulPartitionedCall/model_1/transformer_encoder_regressor_1/transformer_batch_norm_encoder_block_1/sequential_2/transformer_batch_norm_encoder_layer_15/dense_42/Tensordot/free", "op": "Const", "attr": {"value": {"tensor": {"dtype": "DT_INT32", "tensorShape": {"dim": [{"size": "2"}]}}}, "dtype": {"type": "DT_INT32"}}}, {"name": "StatefulPartitionedCall/model_1/transformer_encoder_regressor_1/transformer_batch_norm_encoder_block_1/sequential_2/transformer_batch_norm_encoder_layer_15/dense_42/Tensordot/GatherV2/axis", "op": "Const", "attr": {"dtype": {"type": "DT_INT32"}, "value": {"tensor": {"dtype": "DT_INT32", "tensorShape": {}}}}}, {"name": "StatefulPartitionedCall/model_1/transformer_encoder_regressor_1/transformer_batch_norm_encoder_block_1/sequential_2/transformer_batch_norm_encoder_layer_15/dense_42/Tensordot/Const_2", "op": "Const", "attr": {"dtype": {"type": "DT_INT32"}, "value": {"tensor": {"dtype": "DT_INT32", "tensorShape": {"dim": [{"size": "1"}]}}}}}, {"name": "StatefulPartitionedCall/model_1/transformer_encoder_regressor_1/transformer_batch_norm_encoder_block_1/sequential_2/transformer_batch_norm_encoder_layer_15/dense_42/Tensordot/concat_1/axis", "op": "Const", "attr": {"dtype": {"type": "DT_INT32"}, "value": {"tensor": {"dtype": "DT_INT32", "tensorShape": {}}}}}, {"name": "StatefulPartitionedCall/model_1/transformer_encoder_regressor_1/transformer_batch_norm_encoder_block_1/sequential_2/transformer_batch_norm_encoder_layer_15/dense_42/BiasAdd/ReadVariableOp", "op": "Const", "attr": {"value": {"tensor": {"dtype": "DT_FLOAT", "tensorShape": {"dim": [{"size": "176"}]}}}, "dtype": {"type": "DT_FLOAT"}}}, {"name": "StatefulPartitionedCall/model_1/transformer_encoder_regressor_1/transformer_batch_norm_encoder_block_1/sequential_2/transformer_batch_norm_encoder_layer_15/batch_normalization_31/batchnorm/mul", "op": "Const", "attr": {"dtype": {"type": "DT_FLOAT"}, "value": {"tensor": {"dtype": "DT_FLOAT", "tensorShape": {"dim": [{"size": "176"}]}}}}}, {"name": "StatefulPartitionedCall/model_1/transformer_encoder_regressor_1/transformer_batch_norm_encoder_block_1/sequential_2/transformer_batch_norm_encoder_layer_15/batch_normalization_31/batchnorm/sub", "op": "Const", "attr": {"dtype": {"type": "DT_FLOAT"}, "value": {"tensor": {"dtype": "DT_FLOAT", "tensorShape": {"dim": [{"size": "176"}]}}}}}, {"name": "StatefulPartitionedCall/model_1/transformer_encoder_regressor_1/transformer_batch_norm_encoder_block_1/sequential_2/transformer_batch_norm_encoder_layer_15/batch_normalization_30/batchnorm/sub", "op": "Const", "attr": {"value": {"tensor": {"dtype": "DT_FLOAT", "tensorShape": {"dim": [{"size": "176"}]}}}, "dtype": {"type": "DT_FLOAT"}}}, {"name": "StatefulPartitionedCall/model_1/transformer_encoder_regressor_1/transformer_batch_norm_encoder_block_1/sequential_2/transformer_batch_norm_encoder_layer_15/batch_normalization_30/batchnorm/mul", "op": "Const", "attr": {"dtype": {"type": "DT_FLOAT"}, "value": {"tensor": {"dtype": "DT_FLOAT", "tensorShape": {"dim": [{"size": "176"}]}}}}}, {"name": "StatefulPartitionedCall/model_1/transformer_encoder_regressor_1/transformer_batch_norm_encoder_block_1/sequential_2/transformer_batch_norm_encoder_layer_15/multi_head_attention_15/key/einsum/Einsum/ReadVariableOp", "op": "Const", "attr": {"dtype": {"type": "DT_FLOAT"}, "value": {"tensor": {"dtype": "DT_FLOAT", "tensorShape": {"dim": [{"size": "176"}, {"size": "4"}, {"size": "176"}]}}}}}, {"name": "StatefulPartitionedCall/model_1/transformer_encoder_regressor_1/transformer_batch_norm_encoder_block_1/sequential_2/transformer_batch_norm_encoder_layer_15/multi_head_attention_15/key/add/ReadVariableOp", "op": "Const", "attr": {"dtype": {"type": "DT_FLOAT"}, "value": {"tensor": {"dtype": "DT_FLOAT", "tensorShape": {"dim": [{"size": "4"}, {"size": "176"}]}}}}}, {"name": "StatefulPartitionedCall/model_1/transformer_encoder_regressor_1/transformer_batch_norm_encoder_block_1/sequential_2/transformer_batch_norm_encoder_layer_15/multi_head_attention_15/query/einsum/Einsum/ReadVariableOp", "op": "Const", "attr": {"value": {"tensor": {"dtype": "DT_FLOAT", "tensorShape": {"dim": [{"size": "176"}, {"size": "4"}, {"size": "176"}]}}}, "dtype": {"type": "DT_FLOAT"}}}, {"name": "StatefulPartitionedCall/model_1/transformer_encoder_regressor_1/transformer_batch_norm_encoder_block_1/sequential_2/transformer_batch_norm_encoder_layer_15/multi_head_attention_15/query/add/ReadVariableOp", "op": "Const", "attr": {"dtype": {"type": "DT_FLOAT"}, "value": {"tensor": {"dtype": "DT_FLOAT", "tensorShape": {"dim": [{"size": "4"}, {"size": "176"}]}}}}}, {"name": "StatefulPartitionedCall/model_1/transformer_encoder_regressor_1/transformer_batch_norm_encoder_block_1/sequential_2/transformer_batch_norm_encoder_layer_15/multi_head_attention_15/Mul/y", "op": "Const", "attr": {"dtype": {"type": "DT_FLOAT"}, "value": {"tensor": {"dtype": "DT_FLOAT", "tensorShape": {}}}}}, {"name": "StatefulPartitionedCall/model_1/transformer_encoder_regressor_1/transformer_batch_norm_encoder_block_1/sequential_2/transformer_batch_norm_encoder_layer_14/dense_40/Tensordot/Const", "op": "Const", "attr": {"dtype": {"type": "DT_INT32"}, "value": {"tensor": {"dtype": "DT_INT32", "tensorShape": {"dim": [{"size": "1"}]}}}}}, {"name": "StatefulPartitionedCall/model_1/transformer_encoder_regressor_1/transformer_batch_norm_encoder_block_1/sequential_2/transformer_batch_norm_encoder_layer_14/dense_40/Tensordot/axes", "op": "Const", "attr": {"value": {"tensor": {"dtype": "DT_INT32", "tensorShape": {"dim": [{"size": "1"}]}}}, "dtype": {"type": "DT_INT32"}}}, {"name": "StatefulPartitionedCall/model_1/transformer_encoder_regressor_1/transformer_batch_norm_encoder_block_1/sequential_2/transformer_batch_norm_encoder_layer_14/dense_40/Tensordot/GatherV2_1/axis", "op": "Const", "attr": {"value": {"tensor": {"dtype": "DT_INT32", "tensorShape": {}}}, "dtype": {"type": "DT_INT32"}}}, {"name": "StatefulPartitionedCall/model_1/transformer_encoder_regressor_1/transformer_batch_norm_encoder_block_1/sequential_2/transformer_batch_norm_encoder_layer_14/dense_40/Tensordot/Const_1", "op": "Const", "attr": {"dtype": {"type": "DT_INT32"}, "value": {"tensor": {"dtype": "DT_INT32", "tensorShape": {"dim": [{"size": "1"}]}}}}}, {"name": "StatefulPartitionedCall/model_1/transformer_encoder_regressor_1/transformer_batch_norm_encoder_block_1/sequential_2/transformer_batch_norm_encoder_layer_14/dense_40/Tensordot/ReadVariableOp", "op": "Const", "attr": {"dtype": {"type": "DT_FLOAT"}, "value": {"tensor": {"dtype": "DT_FLOAT", "tensorShape": {"dim": [{"size": "229"}, {"size": "176"}]}}}}}, {"name": "StatefulPartitionedCall/model_1/transformer_encoder_regressor_1/transformer_batch_norm_encoder_block_1/sequential_2/transformer_batch_norm_encoder_layer_14/dense_39/Tensordot/Const", "op": "Const", "attr": {"value": {"tensor": {"dtype": "DT_INT32", "tensorShape": {"dim": [{"size": "1"}]}}}, "dtype": {"type": "DT_INT32"}}}, {"name": "StatefulPartitionedCall/model_1/transformer_encoder_regressor_1/transformer_batch_norm_encoder_block_1/sequential_2/transformer_batch_norm_encoder_layer_14/dense_39/Tensordot/axes", "op": "Const", "attr": {"dtype": {"type": "DT_INT32"}, "value": {"tensor": {"dtype": "DT_INT32", "tensorShape": {"dim": [{"size": "1"}]}}}}}, {"name": "StatefulPartitionedCall/model_1/transformer_encoder_regressor_1/transformer_batch_norm_encoder_block_1/sequential_2/transformer_batch_norm_encoder_layer_14/dense_39/Tensordot/GatherV2_1/axis", "op": "Const", "attr": {"dtype": {"type": "DT_INT32"}, "value": {"tensor": {"dtype": "DT_INT32", "tensorShape": {}}}}}, {"name": "StatefulPartitionedCall/model_1/transformer_encoder_regressor_1/transformer_batch_norm_encoder_block_1/sequential_2/transformer_batch_norm_encoder_layer_14/dense_39/Tensordot/Const_1", "op": "Const", "attr": {"value": {"tensor": {"dtype": "DT_INT32", "tensorShape": {"dim": [{"size": "1"}]}}}, "dtype": {"type": "DT_INT32"}}}, {"name": "StatefulPartitionedCall/model_1/transformer_encoder_regressor_1/transformer_batch_norm_encoder_block_1/sequential_2/transformer_batch_norm_encoder_layer_14/dense_39/Tensordot/ReadVariableOp", "op": "Const", "attr": {"dtype": {"type": "DT_FLOAT"}, "value": {"tensor": {"dtype": "DT_FLOAT", "tensorShape": {"dim": [{"size": "176"}, {"size": "229"}]}}}}}, {"name": "StatefulPartitionedCall/model_1/transformer_encoder_regressor_1/transformer_batch_norm_encoder_block_1/sequential_2/transformer_batch_norm_encoder_layer_14/dense_39/Tensordot/free", "op": "Const", "attr": {"value": {"tensor": {"dtype": "DT_INT32", "tensorShape": {"dim": [{"size": "2"}]}}}, "dtype": {"type": "DT_INT32"}}}, {"name": "StatefulPartitionedCall/model_1/transformer_encoder_regressor_1/transformer_batch_norm_encoder_block_1/sequential_2/transformer_batch_norm_encoder_layer_14/dense_39/Tensordot/GatherV2/axis", "op": "Const", "attr": {"value": {"tensor": {"dtype": "DT_INT32", "tensorShape": {}}}, "dtype": {"type": "DT_INT32"}}}, {"name": "StatefulPartitionedCall/model_1/transformer_encoder_regressor_1/transformer_batch_norm_encoder_block_1/sequential_2/transformer_batch_norm_encoder_layer_14/dense_39/Tensordot/Const_2", "op": "Const", "attr": {"value": {"tensor": {"dtype": "DT_INT32", "tensorShape": {"dim": [{"size": "1"}]}}}, "dtype": {"type": "DT_INT32"}}}, {"name": "StatefulPartitionedCall/model_1/transformer_encoder_regressor_1/transformer_batch_norm_encoder_block_1/sequential_2/transformer_batch_norm_encoder_layer_14/dense_39/Tensordot/concat_1/axis", "op": "Const", "attr": {"value": {"tensor": {"dtype": "DT_INT32", "tensorShape": {}}}, "dtype": {"type": "DT_INT32"}}}, {"name": "StatefulPartitionedCall/model_1/transformer_encoder_regressor_1/transformer_batch_norm_encoder_block_1/sequential_2/transformer_batch_norm_encoder_layer_14/dense_39/BiasAdd/ReadVariableOp", "op": "Const", "attr": {"value": {"tensor": {"dtype": "DT_FLOAT", "tensorShape": {"dim": [{"size": "229"}]}}}, "dtype": {"type": "DT_FLOAT"}}}, {"name": "StatefulPartitionedCall/model_1/transformer_encoder_regressor_1/transformer_batch_norm_encoder_block_1/sequential_2/transformer_batch_norm_encoder_layer_14/dense_40/Tensordot/free", "op": "Const", "attr": {"value": {"tensor": {"dtype": "DT_INT32", "tensorShape": {"dim": [{"size": "2"}]}}}, "dtype": {"type": "DT_INT32"}}}, {"name": "StatefulPartitionedCall/model_1/transformer_encoder_regressor_1/transformer_batch_norm_encoder_block_1/sequential_2/transformer_batch_norm_encoder_layer_14/dense_40/Tensordot/GatherV2/axis", "op": "Const", "attr": {"dtype": {"type": "DT_INT32"}, "value": {"tensor": {"dtype": "DT_INT32", "tensorShape": {}}}}}, {"name": "StatefulPartitionedCall/model_1/transformer_encoder_regressor_1/transformer_batch_norm_encoder_block_1/sequential_2/transformer_batch_norm_encoder_layer_14/dense_40/Tensordot/Const_2", "op": "Const", "attr": {"value": {"tensor": {"dtype": "DT_INT32", "tensorShape": {"dim": [{"size": "1"}]}}}, "dtype": {"type": "DT_INT32"}}}, {"name": "StatefulPartitionedCall/model_1/transformer_encoder_regressor_1/transformer_batch_norm_encoder_block_1/sequential_2/transformer_batch_norm_encoder_layer_14/dense_40/Tensordot/concat_1/axis", "op": "Const", "attr": {"value": {"tensor": {"dtype": "DT_INT32", "tensorShape": {}}}, "dtype": {"type": "DT_INT32"}}}, {"name": "StatefulPartitionedCall/model_1/transformer_encoder_regressor_1/transformer_batch_norm_encoder_block_1/sequential_2/transformer_batch_norm_encoder_layer_14/dense_40/BiasAdd/ReadVariableOp", "op": "Const", "attr": {"dtype": {"type": "DT_FLOAT"}, "value": {"tensor": {"dtype": "DT_FLOAT", "tensorShape": {"dim": [{"size": "176"}]}}}}}, {"name": "StatefulPartitionedCall/model_1/transformer_encoder_regressor_1/transformer_batch_norm_encoder_block_1/sequential_2/transformer_batch_norm_encoder_layer_14/batch_normalization_29/batchnorm/mul", "op": "Const", "attr": {"dtype": {"type": "DT_FLOAT"}, "value": {"tensor": {"dtype": "DT_FLOAT", "tensorShape": {"dim": [{"size": "176"}]}}}}}, {"name": "StatefulPartitionedCall/model_1/transformer_encoder_regressor_1/transformer_batch_norm_encoder_block_1/sequential_2/transformer_batch_norm_encoder_layer_14/batch_normalization_29/batchnorm/sub", "op": "Const", "attr": {"dtype": {"type": "DT_FLOAT"}, "value": {"tensor": {"dtype": "DT_FLOAT", "tensorShape": {"dim": [{"size": "176"}]}}}}}, {"name": "StatefulPartitionedCall/model_1/transformer_encoder_regressor_1/transformer_batch_norm_encoder_block_1/sequential_2/transformer_batch_norm_encoder_layer_14/batch_normalization_28/batchnorm/sub", "op": "Const", "attr": {"value": {"tensor": {"dtype": "DT_FLOAT", "tensorShape": {"dim": [{"size": "176"}]}}}, "dtype": {"type": "DT_FLOAT"}}}, {"name": "StatefulPartitionedCall/model_1/transformer_encoder_regressor_1/transformer_batch_norm_encoder_block_1/sequential_2/transformer_batch_norm_encoder_layer_14/batch_normalization_28/batchnorm/mul", "op": "Const", "attr": {"value": {"tensor": {"dtype": "DT_FLOAT", "tensorShape": {"dim": [{"size": "176"}]}}}, "dtype": {"type": "DT_FLOAT"}}}, {"name": "StatefulPartitionedCall/model_1/transformer_encoder_regressor_1/transformer_batch_norm_encoder_block_1/sequential_2/transformer_batch_norm_encoder_layer_14/multi_head_attention_14/key/einsum/Einsum/ReadVariableOp", "op": "Const", "attr": {"dtype": {"type": "DT_FLOAT"}, "value": {"tensor": {"dtype": "DT_FLOAT", "tensorShape": {"dim": [{"size": "176"}, {"size": "4"}, {"size": "176"}]}}}}}, {"name": "StatefulPartitionedCall/model_1/transformer_encoder_regressor_1/transformer_batch_norm_encoder_block_1/sequential_2/transformer_batch_norm_encoder_layer_14/multi_head_attention_14/key/add/ReadVariableOp", "op": "Const", "attr": {"value": {"tensor": {"dtype": "DT_FLOAT", "tensorShape": {"dim": [{"size": "4"}, {"size": "176"}]}}}, "dtype": {"type": "DT_FLOAT"}}}, {"name": "StatefulPartitionedCall/model_1/transformer_encoder_regressor_1/transformer_batch_norm_encoder_block_1/sequential_2/transformer_batch_norm_encoder_layer_14/multi_head_attention_14/query/einsum/Einsum/ReadVariableOp", "op": "Const", "attr": {"value": {"tensor": {"dtype": "DT_FLOAT", "tensorShape": {"dim": [{"size": "176"}, {"size": "4"}, {"size": "176"}]}}}, "dtype": {"type": "DT_FLOAT"}}}, {"name": "StatefulPartitionedCall/model_1/transformer_encoder_regressor_1/transformer_batch_norm_encoder_block_1/sequential_2/transformer_batch_norm_encoder_layer_14/multi_head_attention_14/query/add/ReadVariableOp", "op": "Const", "attr": {"value": {"tensor": {"dtype": "DT_FLOAT", "tensorShape": {"dim": [{"size": "4"}, {"size": "176"}]}}}, "dtype": {"type": "DT_FLOAT"}}}, {"name": "StatefulPartitionedCall/model_1/transformer_encoder_regressor_1/transformer_batch_norm_encoder_block_1/sequential_2/transformer_batch_norm_encoder_layer_14/multi_head_attention_14/Mul/y", "op": "Const", "attr": {"dtype": {"type": "DT_FLOAT"}, "value": {"tensor": {"dtype": "DT_FLOAT", "tensorShape": {}}}}}, {"name": "StatefulPartitionedCall/model_1/transformer_encoder_regressor_1/transformer_batch_norm_encoder_block_1/sequential_2/transformer_batch_norm_encoder_layer_13/dense_38/Tensordot/Const", "op": "Const", "attr": {"value": {"tensor": {"dtype": "DT_INT32", "tensorShape": {"dim": [{"size": "1"}]}}}, "dtype": {"type": "DT_INT32"}}}, {"name": "StatefulPartitionedCall/model_1/transformer_encoder_regressor_1/transformer_batch_norm_encoder_block_1/sequential_2/transformer_batch_norm_encoder_layer_13/dense_38/Tensordot/axes", "op": "Const", "attr": {"value": {"tensor": {"dtype": "DT_INT32", "tensorShape": {"dim": [{"size": "1"}]}}}, "dtype": {"type": "DT_INT32"}}}, {"name": "StatefulPartitionedCall/model_1/transformer_encoder_regressor_1/transformer_batch_norm_encoder_block_1/sequential_2/transformer_batch_norm_encoder_layer_13/dense_38/Tensordot/GatherV2_1/axis", "op": "Const", "attr": {"value": {"tensor": {"dtype": "DT_INT32", "tensorShape": {}}}, "dtype": {"type": "DT_INT32"}}}, {"name": "StatefulPartitionedCall/model_1/transformer_encoder_regressor_1/transformer_batch_norm_encoder_block_1/sequential_2/transformer_batch_norm_encoder_layer_13/dense_38/Tensordot/Const_1", "op": "Const", "attr": {"dtype": {"type": "DT_INT32"}, "value": {"tensor": {"dtype": "DT_INT32", "tensorShape": {"dim": [{"size": "1"}]}}}}}, {"name": "StatefulPartitionedCall/model_1/transformer_encoder_regressor_1/transformer_batch_norm_encoder_block_1/sequential_2/transformer_batch_norm_encoder_layer_13/dense_38/Tensordot/ReadVariableOp", "op": "Const", "attr": {"value": {"tensor": {"dtype": "DT_FLOAT", "tensorShape": {"dim": [{"size": "229"}, {"size": "176"}]}}}, "dtype": {"type": "DT_FLOAT"}}}, {"name": "StatefulPartitionedCall/model_1/transformer_encoder_regressor_1/transformer_batch_norm_encoder_block_1/sequential_2/transformer_batch_norm_encoder_layer_13/dense_37/Tensordot/Const", "op": "Const", "attr": {"dtype": {"type": "DT_INT32"}, "value": {"tensor": {"dtype": "DT_INT32", "tensorShape": {"dim": [{"size": "1"}]}}}}}, {"name": "StatefulPartitionedCall/model_1/transformer_encoder_regressor_1/transformer_batch_norm_encoder_block_1/sequential_2/transformer_batch_norm_encoder_layer_13/dense_37/Tensordot/axes", "op": "Const", "attr": {"value": {"tensor": {"dtype": "DT_INT32", "tensorShape": {"dim": [{"size": "1"}]}}}, "dtype": {"type": "DT_INT32"}}}, {"name": "StatefulPartitionedCall/model_1/transformer_encoder_regressor_1/transformer_batch_norm_encoder_block_1/sequential_2/transformer_batch_norm_encoder_layer_13/dense_37/Tensordot/GatherV2_1/axis", "op": "Const", "attr": {"value": {"tensor": {"dtype": "DT_INT32", "tensorShape": {}}}, "dtype": {"type": "DT_INT32"}}}, {"name": "StatefulPartitionedCall/model_1/transformer_encoder_regressor_1/transformer_batch_norm_encoder_block_1/sequential_2/transformer_batch_norm_encoder_layer_13/dense_37/Tensordot/Const_1", "op": "Const", "attr": {"value": {"tensor": {"dtype": "DT_INT32", "tensorShape": {"dim": [{"size": "1"}]}}}, "dtype": {"type": "DT_INT32"}}}, {"name": "StatefulPartitionedCall/model_1/transformer_encoder_regressor_1/transformer_batch_norm_encoder_block_1/sequential_2/transformer_batch_norm_encoder_layer_13/dense_37/Tensordot/ReadVariableOp", "op": "Const", "attr": {"dtype": {"type": "DT_FLOAT"}, "value": {"tensor": {"dtype": "DT_FLOAT", "tensorShape": {"dim": [{"size": "176"}, {"size": "229"}]}}}}}, {"name": "StatefulPartitionedCall/model_1/transformer_encoder_regressor_1/transformer_batch_norm_encoder_block_1/sequential_2/transformer_batch_norm_encoder_layer_13/dense_37/Tensordot/free", "op": "Const", "attr": {"value": {"tensor": {"dtype": "DT_INT32", "tensorShape": {"dim": [{"size": "2"}]}}}, "dtype": {"type": "DT_INT32"}}}, {"name": "StatefulPartitionedCall/model_1/transformer_encoder_regressor_1/transformer_batch_norm_encoder_block_1/sequential_2/transformer_batch_norm_encoder_layer_13/dense_37/Tensordot/GatherV2/axis", "op": "Const", "attr": {"value": {"tensor": {"dtype": "DT_INT32", "tensorShape": {}}}, "dtype": {"type": "DT_INT32"}}}, {"name": "StatefulPartitionedCall/model_1/transformer_encoder_regressor_1/transformer_batch_norm_encoder_block_1/sequential_2/transformer_batch_norm_encoder_layer_13/dense_37/Tensordot/Const_2", "op": "Const", "attr": {"value": {"tensor": {"dtype": "DT_INT32", "tensorShape": {"dim": [{"size": "1"}]}}}, "dtype": {"type": "DT_INT32"}}}, {"name": "StatefulPartitionedCall/model_1/transformer_encoder_regressor_1/transformer_batch_norm_encoder_block_1/sequential_2/transformer_batch_norm_encoder_layer_13/dense_37/Tensordot/concat_1/axis", "op": "Const", "attr": {"value": {"tensor": {"dtype": "DT_INT32", "tensorShape": {}}}, "dtype": {"type": "DT_INT32"}}}, {"name": "StatefulPartitionedCall/model_1/transformer_encoder_regressor_1/transformer_batch_norm_encoder_block_1/sequential_2/transformer_batch_norm_encoder_layer_13/dense_37/BiasAdd/ReadVariableOp", "op": "Const", "attr": {"dtype": {"type": "DT_FLOAT"}, "value": {"tensor": {"dtype": "DT_FLOAT", "tensorShape": {"dim": [{"size": "229"}]}}}}}, {"name": "StatefulPartitionedCall/model_1/transformer_encoder_regressor_1/transformer_batch_norm_encoder_block_1/sequential_2/transformer_batch_norm_encoder_layer_13/dense_38/Tensordot/free", "op": "Const", "attr": {"value": {"tensor": {"dtype": "DT_INT32", "tensorShape": {"dim": [{"size": "2"}]}}}, "dtype": {"type": "DT_INT32"}}}, {"name": "StatefulPartitionedCall/model_1/transformer_encoder_regressor_1/transformer_batch_norm_encoder_block_1/sequential_2/transformer_batch_norm_encoder_layer_13/dense_38/Tensordot/GatherV2/axis", "op": "Const", "attr": {"dtype": {"type": "DT_INT32"}, "value": {"tensor": {"dtype": "DT_INT32", "tensorShape": {}}}}}, {"name": "StatefulPartitionedCall/model_1/transformer_encoder_regressor_1/transformer_batch_norm_encoder_block_1/sequential_2/transformer_batch_norm_encoder_layer_13/dense_38/Tensordot/Const_2", "op": "Const", "attr": {"dtype": {"type": "DT_INT32"}, "value": {"tensor": {"dtype": "DT_INT32", "tensorShape": {"dim": [{"size": "1"}]}}}}}, {"name": "StatefulPartitionedCall/model_1/transformer_encoder_regressor_1/transformer_batch_norm_encoder_block_1/sequential_2/transformer_batch_norm_encoder_layer_13/dense_38/Tensordot/concat_1/axis", "op": "Const", "attr": {"dtype": {"type": "DT_INT32"}, "value": {"tensor": {"dtype": "DT_INT32", "tensorShape": {}}}}}, {"name": "StatefulPartitionedCall/model_1/transformer_encoder_regressor_1/transformer_batch_norm_encoder_block_1/sequential_2/transformer_batch_norm_encoder_layer_13/dense_38/BiasAdd/ReadVariableOp", "op": "Const", "attr": {"dtype": {"type": "DT_FLOAT"}, "value": {"tensor": {"dtype": "DT_FLOAT", "tensorShape": {"dim": [{"size": "176"}]}}}}}, {"name": "StatefulPartitionedCall/model_1/transformer_encoder_regressor_1/transformer_batch_norm_encoder_block_1/sequential_2/transformer_batch_norm_encoder_layer_13/batch_normalization_27/batchnorm/mul", "op": "Const", "attr": {"dtype": {"type": "DT_FLOAT"}, "value": {"tensor": {"dtype": "DT_FLOAT", "tensorShape": {"dim": [{"size": "176"}]}}}}}, {"name": "StatefulPartitionedCall/model_1/transformer_encoder_regressor_1/transformer_batch_norm_encoder_block_1/sequential_2/transformer_batch_norm_encoder_layer_13/batch_normalization_27/batchnorm/sub", "op": "Const", "attr": {"dtype": {"type": "DT_FLOAT"}, "value": {"tensor": {"dtype": "DT_FLOAT", "tensorShape": {"dim": [{"size": "176"}]}}}}}, {"name": "StatefulPartitionedCall/model_1/transformer_encoder_regressor_1/transformer_batch_norm_encoder_block_1/sequential_2/transformer_batch_norm_encoder_layer_13/batch_normalization_26/batchnorm/sub", "op": "Const", "attr": {"value": {"tensor": {"dtype": "DT_FLOAT", "tensorShape": {"dim": [{"size": "176"}]}}}, "dtype": {"type": "DT_FLOAT"}}}, {"name": "StatefulPartitionedCall/model_1/transformer_encoder_regressor_1/transformer_batch_norm_encoder_block_1/sequential_2/transformer_batch_norm_encoder_layer_13/batch_normalization_26/batchnorm/mul", "op": "Const", "attr": {"value": {"tensor": {"dtype": "DT_FLOAT", "tensorShape": {"dim": [{"size": "176"}]}}}, "dtype": {"type": "DT_FLOAT"}}}, {"name": "StatefulPartitionedCall/model_1/transformer_encoder_regressor_1/transformer_batch_norm_encoder_block_1/sequential_2/transformer_batch_norm_encoder_layer_13/multi_head_attention_13/key/einsum/Einsum/ReadVariableOp", "op": "Const", "attr": {"dtype": {"type": "DT_FLOAT"}, "value": {"tensor": {"dtype": "DT_FLOAT", "tensorShape": {"dim": [{"size": "176"}, {"size": "4"}, {"size": "176"}]}}}}}, {"name": "StatefulPartitionedCall/model_1/transformer_encoder_regressor_1/transformer_batch_norm_encoder_block_1/sequential_2/transformer_batch_norm_encoder_layer_13/multi_head_attention_13/key/add/ReadVariableOp", "op": "Const", "attr": {"value": {"tensor": {"dtype": "DT_FLOAT", "tensorShape": {"dim": [{"size": "4"}, {"size": "176"}]}}}, "dtype": {"type": "DT_FLOAT"}}}, {"name": "StatefulPartitionedCall/model_1/transformer_encoder_regressor_1/transformer_batch_norm_encoder_block_1/sequential_2/transformer_batch_norm_encoder_layer_13/multi_head_attention_13/query/einsum/Einsum/ReadVariableOp", "op": "Const", "attr": {"dtype": {"type": "DT_FLOAT"}, "value": {"tensor": {"dtype": "DT_FLOAT", "tensorShape": {"dim": [{"size": "176"}, {"size": "4"}, {"size": "176"}]}}}}}, {"name": "StatefulPartitionedCall/model_1/transformer_encoder_regressor_1/transformer_batch_norm_encoder_block_1/sequential_2/transformer_batch_norm_encoder_layer_13/multi_head_attention_13/query/add/ReadVariableOp", "op": "Const", "attr": {"dtype": {"type": "DT_FLOAT"}, "value": {"tensor": {"dtype": "DT_FLOAT", "tensorShape": {"dim": [{"size": "4"}, {"size": "176"}]}}}}}, {"name": "StatefulPartitionedCall/model_1/transformer_encoder_regressor_1/transformer_batch_norm_encoder_block_1/sequential_2/transformer_batch_norm_encoder_layer_13/multi_head_attention_13/Mul/y", "op": "Const", "attr": {"dtype": {"type": "DT_FLOAT"}, "value": {"tensor": {"dtype": "DT_FLOAT", "tensorShape": {}}}}}, {"name": "StatefulPartitionedCall/model_1/transformer_encoder_regressor_1/transformer_batch_norm_encoder_block_1/sequential_2/transformer_batch_norm_encoder_layer_12/dense_36/Tensordot/Const", "op": "Const", "attr": {"value": {"tensor": {"dtype": "DT_INT32", "tensorShape": {"dim": [{"size": "1"}]}}}, "dtype": {"type": "DT_INT32"}}}, {"name": "StatefulPartitionedCall/model_1/transformer_encoder_regressor_1/transformer_batch_norm_encoder_block_1/sequential_2/transformer_batch_norm_encoder_layer_12/dense_36/Tensordot/axes", "op": "Const", "attr": {"value": {"tensor": {"dtype": "DT_INT32", "tensorShape": {"dim": [{"size": "1"}]}}}, "dtype": {"type": "DT_INT32"}}}, {"name": "StatefulPartitionedCall/model_1/transformer_encoder_regressor_1/transformer_batch_norm_encoder_block_1/sequential_2/transformer_batch_norm_encoder_layer_12/dense_36/Tensordot/GatherV2_1/axis", "op": "Const", "attr": {"value": {"tensor": {"dtype": "DT_INT32", "tensorShape": {}}}, "dtype": {"type": "DT_INT32"}}}, {"name": "StatefulPartitionedCall/model_1/transformer_encoder_regressor_1/transformer_batch_norm_encoder_block_1/sequential_2/transformer_batch_norm_encoder_layer_12/dense_36/Tensordot/Const_1", "op": "Const", "attr": {"value": {"tensor": {"dtype": "DT_INT32", "tensorShape": {"dim": [{"size": "1"}]}}}, "dtype": {"type": "DT_INT32"}}}, {"name": "StatefulPartitionedCall/model_1/transformer_encoder_regressor_1/transformer_batch_norm_encoder_block_1/sequential_2/transformer_batch_norm_encoder_layer_12/dense_36/Tensordot/ReadVariableOp", "op": "Const", "attr": {"dtype": {"type": "DT_FLOAT"}, "value": {"tensor": {"dtype": "DT_FLOAT", "tensorShape": {"dim": [{"size": "229"}, {"size": "176"}]}}}}}, {"name": "StatefulPartitionedCall/model_1/transformer_encoder_regressor_1/transformer_batch_norm_encoder_block_1/sequential_2/transformer_batch_norm_encoder_layer_12/dense_35/Tensordot/Const", "op": "Const", "attr": {"dtype": {"type": "DT_INT32"}, "value": {"tensor": {"dtype": "DT_INT32", "tensorShape": {"dim": [{"size": "1"}]}}}}}, {"name": "StatefulPartitionedCall/model_1/transformer_encoder_regressor_1/transformer_batch_norm_encoder_block_1/sequential_2/transformer_batch_norm_encoder_layer_12/dense_35/Tensordot/axes", "op": "Const", "attr": {"value": {"tensor": {"dtype": "DT_INT32", "tensorShape": {"dim": [{"size": "1"}]}}}, "dtype": {"type": "DT_INT32"}}}, {"name": "StatefulPartitionedCall/model_1/transformer_encoder_regressor_1/transformer_batch_norm_encoder_block_1/sequential_2/transformer_batch_norm_encoder_layer_12/dense_35/Tensordot/GatherV2_1/axis", "op": "Const", "attr": {"value": {"tensor": {"dtype": "DT_INT32", "tensorShape": {}}}, "dtype": {"type": "DT_INT32"}}}, {"name": "StatefulPartitionedCall/model_1/transformer_encoder_regressor_1/transformer_batch_norm_encoder_block_1/sequential_2/transformer_batch_norm_encoder_layer_12/dense_35/Tensordot/Const_1", "op": "Const", "attr": {"dtype": {"type": "DT_INT32"}, "value": {"tensor": {"dtype": "DT_INT32", "tensorShape": {"dim": [{"size": "1"}]}}}}}, {"name": "StatefulPartitionedCall/model_1/transformer_encoder_regressor_1/transformer_batch_norm_encoder_block_1/sequential_2/transformer_batch_norm_encoder_layer_12/dense_35/Tensordot/ReadVariableOp", "op": "Const", "attr": {"value": {"tensor": {"dtype": "DT_FLOAT", "tensorShape": {"dim": [{"size": "176"}, {"size": "229"}]}}}, "dtype": {"type": "DT_FLOAT"}}}, {"name": "StatefulPartitionedCall/model_1/transformer_encoder_regressor_1/transformer_batch_norm_encoder_block_1/sequential_2/transformer_batch_norm_encoder_layer_12/dense_35/Tensordot/free", "op": "Const", "attr": {"dtype": {"type": "DT_INT32"}, "value": {"tensor": {"dtype": "DT_INT32", "tensorShape": {"dim": [{"size": "2"}]}}}}}, {"name": "StatefulPartitionedCall/model_1/transformer_encoder_regressor_1/transformer_batch_norm_encoder_block_1/sequential_2/transformer_batch_norm_encoder_layer_12/dense_35/Tensordot/GatherV2/axis", "op": "Const", "attr": {"value": {"tensor": {"dtype": "DT_INT32", "tensorShape": {}}}, "dtype": {"type": "DT_INT32"}}}, {"name": "StatefulPartitionedCall/model_1/transformer_encoder_regressor_1/transformer_batch_norm_encoder_block_1/sequential_2/transformer_batch_norm_encoder_layer_12/dense_35/Tensordot/Const_2", "op": "Const", "attr": {"dtype": {"type": "DT_INT32"}, "value": {"tensor": {"dtype": "DT_INT32", "tensorShape": {"dim": [{"size": "1"}]}}}}}, {"name": "StatefulPartitionedCall/model_1/transformer_encoder_regressor_1/transformer_batch_norm_encoder_block_1/sequential_2/transformer_batch_norm_encoder_layer_12/dense_35/Tensordot/concat_1/axis", "op": "Const", "attr": {"value": {"tensor": {"dtype": "DT_INT32", "tensorShape": {}}}, "dtype": {"type": "DT_INT32"}}}, {"name": "StatefulPartitionedCall/model_1/transformer_encoder_regressor_1/transformer_batch_norm_encoder_block_1/sequential_2/transformer_batch_norm_encoder_layer_12/dense_35/BiasAdd/ReadVariableOp", "op": "Const", "attr": {"value": {"tensor": {"dtype": "DT_FLOAT", "tensorShape": {"dim": [{"size": "229"}]}}}, "dtype": {"type": "DT_FLOAT"}}}, {"name": "StatefulPartitionedCall/model_1/transformer_encoder_regressor_1/transformer_batch_norm_encoder_block_1/sequential_2/transformer_batch_norm_encoder_layer_12/dense_36/Tensordot/free", "op": "Const", "attr": {"value": {"tensor": {"dtype": "DT_INT32", "tensorShape": {"dim": [{"size": "2"}]}}}, "dtype": {"type": "DT_INT32"}}}, {"name": "StatefulPartitionedCall/model_1/transformer_encoder_regressor_1/transformer_batch_norm_encoder_block_1/sequential_2/transformer_batch_norm_encoder_layer_12/dense_36/Tensordot/GatherV2/axis", "op": "Const", "attr": {"value": {"tensor": {"dtype": "DT_INT32", "tensorShape": {}}}, "dtype": {"type": "DT_INT32"}}}, {"name": "StatefulPartitionedCall/model_1/transformer_encoder_regressor_1/transformer_batch_norm_encoder_block_1/sequential_2/transformer_batch_norm_encoder_layer_12/dense_36/Tensordot/Const_2", "op": "Const", "attr": {"dtype": {"type": "DT_INT32"}, "value": {"tensor": {"dtype": "DT_INT32", "tensorShape": {"dim": [{"size": "1"}]}}}}}, {"name": "StatefulPartitionedCall/model_1/transformer_encoder_regressor_1/transformer_batch_norm_encoder_block_1/sequential_2/transformer_batch_norm_encoder_layer_12/dense_36/Tensordot/concat_1/axis", "op": "Const", "attr": {"dtype": {"type": "DT_INT32"}, "value": {"tensor": {"dtype": "DT_INT32", "tensorShape": {}}}}}, {"name": "StatefulPartitionedCall/model_1/transformer_encoder_regressor_1/transformer_batch_norm_encoder_block_1/sequential_2/transformer_batch_norm_encoder_layer_12/dense_36/BiasAdd/ReadVariableOp", "op": "Const", "attr": {"value": {"tensor": {"dtype": "DT_FLOAT", "tensorShape": {"dim": [{"size": "176"}]}}}, "dtype": {"type": "DT_FLOAT"}}}, {"name": "StatefulPartitionedCall/model_1/transformer_encoder_regressor_1/transformer_batch_norm_encoder_block_1/sequential_2/transformer_batch_norm_encoder_layer_12/batch_normalization_25/batchnorm/mul", "op": "Const", "attr": {"value": {"tensor": {"dtype": "DT_FLOAT", "tensorShape": {"dim": [{"size": "176"}]}}}, "dtype": {"type": "DT_FLOAT"}}}, {"name": "StatefulPartitionedCall/model_1/transformer_encoder_regressor_1/transformer_batch_norm_encoder_block_1/sequential_2/transformer_batch_norm_encoder_layer_12/batch_normalization_25/batchnorm/sub", "op": "Const", "attr": {"dtype": {"type": "DT_FLOAT"}, "value": {"tensor": {"dtype": "DT_FLOAT", "tensorShape": {"dim": [{"size": "176"}]}}}}}, {"name": "StatefulPartitionedCall/model_1/transformer_encoder_regressor_1/transformer_batch_norm_encoder_block_1/sequential_2/transformer_batch_norm_encoder_layer_12/batch_normalization_24/batchnorm/sub", "op": "Const", "attr": {"value": {"tensor": {"dtype": "DT_FLOAT", "tensorShape": {"dim": [{"size": "176"}]}}}, "dtype": {"type": "DT_FLOAT"}}}, {"name": "StatefulPartitionedCall/model_1/transformer_encoder_regressor_1/transformer_batch_norm_encoder_block_1/sequential_2/transformer_batch_norm_encoder_layer_12/batch_normalization_24/batchnorm/mul", "op": "Const", "attr": {"dtype": {"type": "DT_FLOAT"}, "value": {"tensor": {"dtype": "DT_FLOAT", "tensorShape": {"dim": [{"size": "176"}]}}}}}, {"name": "StatefulPartitionedCall/model_1/transformer_encoder_regressor_1/transformer_batch_norm_encoder_block_1/sequential_2/transformer_batch_norm_encoder_layer_12/multi_head_attention_12/key/einsum/Einsum/ReadVariableOp", "op": "Const", "attr": {"dtype": {"type": "DT_FLOAT"}, "value": {"tensor": {"dtype": "DT_FLOAT", "tensorShape": {"dim": [{"size": "176"}, {"size": "4"}, {"size": "176"}]}}}}}, {"name": "StatefulPartitionedCall/model_1/transformer_encoder_regressor_1/transformer_batch_norm_encoder_block_1/sequential_2/transformer_batch_norm_encoder_layer_12/multi_head_attention_12/key/add/ReadVariableOp", "op": "Const", "attr": {"dtype": {"type": "DT_FLOAT"}, "value": {"tensor": {"dtype": "DT_FLOAT", "tensorShape": {"dim": [{"size": "4"}, {"size": "176"}]}}}}}, {"name": "StatefulPartitionedCall/model_1/transformer_encoder_regressor_1/transformer_batch_norm_encoder_block_1/sequential_2/transformer_batch_norm_encoder_layer_12/multi_head_attention_12/query/einsum/Einsum/ReadVariableOp", "op": "Const", "attr": {"dtype": {"type": "DT_FLOAT"}, "value": {"tensor": {"dtype": "DT_FLOAT", "tensorShape": {"dim": [{"size": "176"}, {"size": "4"}, {"size": "176"}]}}}}}, {"name": "StatefulPartitionedCall/model_1/transformer_encoder_regressor_1/transformer_batch_norm_encoder_block_1/sequential_2/transformer_batch_norm_encoder_layer_12/multi_head_attention_12/query/add/ReadVariableOp", "op": "Const", "attr": {"value": {"tensor": {"dtype": "DT_FLOAT", "tensorShape": {"dim": [{"size": "4"}, {"size": "176"}]}}}, "dtype": {"type": "DT_FLOAT"}}}, {"name": "StatefulPartitionedCall/model_1/transformer_encoder_regressor_1/transformer_batch_norm_encoder_block_1/sequential_2/transformer_batch_norm_encoder_layer_12/multi_head_attention_12/Mul/y", "op": "Const", "attr": {"dtype": {"type": "DT_FLOAT"}, "value": {"tensor": {"dtype": "DT_FLOAT", "tensorShape": {}}}}}, {"name": "StatefulPartitionedCall/model_1/transformer_encoder_regressor_1/transformer_batch_norm_encoder_block_1/sequential_2/transformer_batch_norm_encoder_layer_11/dense_34/Tensordot/Const", "op": "Const", "attr": {"dtype": {"type": "DT_INT32"}, "value": {"tensor": {"dtype": "DT_INT32", "tensorShape": {"dim": [{"size": "1"}]}}}}}, {"name": "StatefulPartitionedCall/model_1/transformer_encoder_regressor_1/transformer_batch_norm_encoder_block_1/sequential_2/transformer_batch_norm_encoder_layer_11/dense_34/Tensordot/axes", "op": "Const", "attr": {"dtype": {"type": "DT_INT32"}, "value": {"tensor": {"dtype": "DT_INT32", "tensorShape": {"dim": [{"size": "1"}]}}}}}, {"name": "StatefulPartitionedCall/model_1/transformer_encoder_regressor_1/transformer_batch_norm_encoder_block_1/sequential_2/transformer_batch_norm_encoder_layer_11/dense_34/Tensordot/GatherV2_1/axis", "op": "Const", "attr": {"dtype": {"type": "DT_INT32"}, "value": {"tensor": {"dtype": "DT_INT32", "tensorShape": {}}}}}, {"name": "StatefulPartitionedCall/model_1/transformer_encoder_regressor_1/transformer_batch_norm_encoder_block_1/sequential_2/transformer_batch_norm_encoder_layer_11/dense_34/Tensordot/Const_1", "op": "Const", "attr": {"dtype": {"type": "DT_INT32"}, "value": {"tensor": {"dtype": "DT_INT32", "tensorShape": {"dim": [{"size": "1"}]}}}}}, {"name": "StatefulPartitionedCall/model_1/transformer_encoder_regressor_1/transformer_batch_norm_encoder_block_1/sequential_2/transformer_batch_norm_encoder_layer_11/dense_34/Tensordot/ReadVariableOp", "op": "Const", "attr": {"dtype": {"type": "DT_FLOAT"}, "value": {"tensor": {"dtype": "DT_FLOAT", "tensorShape": {"dim": [{"size": "229"}, {"size": "176"}]}}}}}, {"name": "StatefulPartitionedCall/model_1/transformer_encoder_regressor_1/transformer_batch_norm_encoder_block_1/sequential_2/transformer_batch_norm_encoder_layer_11/dense_33/Tensordot/Const", "op": "Const", "attr": {"value": {"tensor": {"dtype": "DT_INT32", "tensorShape": {"dim": [{"size": "1"}]}}}, "dtype": {"type": "DT_INT32"}}}, {"name": "StatefulPartitionedCall/model_1/transformer_encoder_regressor_1/transformer_batch_norm_encoder_block_1/sequential_2/transformer_batch_norm_encoder_layer_11/dense_33/Tensordot/axes", "op": "Const", "attr": {"dtype": {"type": "DT_INT32"}, "value": {"tensor": {"dtype": "DT_INT32", "tensorShape": {"dim": [{"size": "1"}]}}}}}, {"name": "StatefulPartitionedCall/model_1/transformer_encoder_regressor_1/transformer_batch_norm_encoder_block_1/sequential_2/transformer_batch_norm_encoder_layer_11/dense_33/Tensordot/GatherV2_1/axis", "op": "Const", "attr": {"value": {"tensor": {"dtype": "DT_INT32", "tensorShape": {}}}, "dtype": {"type": "DT_INT32"}}}, {"name": "StatefulPartitionedCall/model_1/transformer_encoder_regressor_1/transformer_batch_norm_encoder_block_1/sequential_2/transformer_batch_norm_encoder_layer_11/dense_33/Tensordot/Const_1", "op": "Const", "attr": {"value": {"tensor": {"dtype": "DT_INT32", "tensorShape": {"dim": [{"size": "1"}]}}}, "dtype": {"type": "DT_INT32"}}}, {"name": "StatefulPartitionedCall/model_1/transformer_encoder_regressor_1/transformer_batch_norm_encoder_block_1/sequential_2/transformer_batch_norm_encoder_layer_11/dense_33/Tensordot/ReadVariableOp", "op": "Const", "attr": {"value": {"tensor": {"dtype": "DT_FLOAT", "tensorShape": {"dim": [{"size": "176"}, {"size": "229"}]}}}, "dtype": {"type": "DT_FLOAT"}}}, {"name": "StatefulPartitionedCall/model_1/transformer_encoder_regressor_1/transformer_batch_norm_encoder_block_1/sequential_2/transformer_batch_norm_encoder_layer_11/dense_33/Tensordot/free", "op": "Const", "attr": {"dtype": {"type": "DT_INT32"}, "value": {"tensor": {"dtype": "DT_INT32", "tensorShape": {"dim": [{"size": "2"}]}}}}}, {"name": "StatefulPartitionedCall/model_1/transformer_encoder_regressor_1/transformer_batch_norm_encoder_block_1/sequential_2/transformer_batch_norm_encoder_layer_11/dense_33/Tensordot/GatherV2/axis", "op": "Const", "attr": {"dtype": {"type": "DT_INT32"}, "value": {"tensor": {"dtype": "DT_INT32", "tensorShape": {}}}}}, {"name": "StatefulPartitionedCall/model_1/transformer_encoder_regressor_1/transformer_batch_norm_encoder_block_1/sequential_2/transformer_batch_norm_encoder_layer_11/dense_33/Tensordot/Const_2", "op": "Const", "attr": {"value": {"tensor": {"dtype": "DT_INT32", "tensorShape": {"dim": [{"size": "1"}]}}}, "dtype": {"type": "DT_INT32"}}}, {"name": "StatefulPartitionedCall/model_1/transformer_encoder_regressor_1/transformer_batch_norm_encoder_block_1/sequential_2/transformer_batch_norm_encoder_layer_11/dense_33/Tensordot/concat_1/axis", "op": "Const", "attr": {"dtype": {"type": "DT_INT32"}, "value": {"tensor": {"dtype": "DT_INT32", "tensorShape": {}}}}}, {"name": "StatefulPartitionedCall/model_1/transformer_encoder_regressor_1/transformer_batch_norm_encoder_block_1/sequential_2/transformer_batch_norm_encoder_layer_11/dense_33/BiasAdd/ReadVariableOp", "op": "Const", "attr": {"value": {"tensor": {"dtype": "DT_FLOAT", "tensorShape": {"dim": [{"size": "229"}]}}}, "dtype": {"type": "DT_FLOAT"}}}, {"name": "StatefulPartitionedCall/model_1/transformer_encoder_regressor_1/transformer_batch_norm_encoder_block_1/sequential_2/transformer_batch_norm_encoder_layer_11/dense_34/Tensordot/free", "op": "Const", "attr": {"dtype": {"type": "DT_INT32"}, "value": {"tensor": {"dtype": "DT_INT32", "tensorShape": {"dim": [{"size": "2"}]}}}}}, {"name": "StatefulPartitionedCall/model_1/transformer_encoder_regressor_1/transformer_batch_norm_encoder_block_1/sequential_2/transformer_batch_norm_encoder_layer_11/dense_34/Tensordot/GatherV2/axis", "op": "Const", "attr": {"value": {"tensor": {"dtype": "DT_INT32", "tensorShape": {}}}, "dtype": {"type": "DT_INT32"}}}, {"name": "StatefulPartitionedCall/model_1/transformer_encoder_regressor_1/transformer_batch_norm_encoder_block_1/sequential_2/transformer_batch_norm_encoder_layer_11/dense_34/Tensordot/Const_2", "op": "Const", "attr": {"dtype": {"type": "DT_INT32"}, "value": {"tensor": {"dtype": "DT_INT32", "tensorShape": {"dim": [{"size": "1"}]}}}}}, {"name": "StatefulPartitionedCall/model_1/transformer_encoder_regressor_1/transformer_batch_norm_encoder_block_1/sequential_2/transformer_batch_norm_encoder_layer_11/dense_34/Tensordot/concat_1/axis", "op": "Const", "attr": {"value": {"tensor": {"dtype": "DT_INT32", "tensorShape": {}}}, "dtype": {"type": "DT_INT32"}}}, {"name": "StatefulPartitionedCall/model_1/transformer_encoder_regressor_1/transformer_batch_norm_encoder_block_1/sequential_2/transformer_batch_norm_encoder_layer_11/dense_34/BiasAdd/ReadVariableOp", "op": "Const", "attr": {"dtype": {"type": "DT_FLOAT"}, "value": {"tensor": {"dtype": "DT_FLOAT", "tensorShape": {"dim": [{"size": "176"}]}}}}}, {"name": "StatefulPartitionedCall/model_1/transformer_encoder_regressor_1/transformer_batch_norm_encoder_block_1/sequential_2/transformer_batch_norm_encoder_layer_11/batch_normalization_23/batchnorm/mul", "op": "Const", "attr": {"dtype": {"type": "DT_FLOAT"}, "value": {"tensor": {"dtype": "DT_FLOAT", "tensorShape": {"dim": [{"size": "176"}]}}}}}, {"name": "StatefulPartitionedCall/model_1/transformer_encoder_regressor_1/transformer_batch_norm_encoder_block_1/sequential_2/transformer_batch_norm_encoder_layer_11/batch_normalization_23/batchnorm/sub", "op": "Const", "attr": {"value": {"tensor": {"dtype": "DT_FLOAT", "tensorShape": {"dim": [{"size": "176"}]}}}, "dtype": {"type": "DT_FLOAT"}}}, {"name": "StatefulPartitionedCall/model_1/transformer_encoder_regressor_1/transformer_batch_norm_encoder_block_1/sequential_2/transformer_batch_norm_encoder_layer_11/batch_normalization_22/batchnorm/sub", "op": "Const", "attr": {"dtype": {"type": "DT_FLOAT"}, "value": {"tensor": {"dtype": "DT_FLOAT", "tensorShape": {"dim": [{"size": "176"}]}}}}}, {"name": "StatefulPartitionedCall/model_1/transformer_encoder_regressor_1/transformer_batch_norm_encoder_block_1/sequential_2/transformer_batch_norm_encoder_layer_11/batch_normalization_22/batchnorm/mul", "op": "Const", "attr": {"value": {"tensor": {"dtype": "DT_FLOAT", "tensorShape": {"dim": [{"size": "176"}]}}}, "dtype": {"type": "DT_FLOAT"}}}, {"name": "StatefulPartitionedCall/model_1/transformer_encoder_regressor_1/transformer_batch_norm_encoder_block_1/sequential_2/transformer_batch_norm_encoder_layer_11/multi_head_attention_11/key/einsum/Einsum/ReadVariableOp", "op": "Const", "attr": {"value": {"tensor": {"dtype": "DT_FLOAT", "tensorShape": {"dim": [{"size": "176"}, {"size": "4"}, {"size": "176"}]}}}, "dtype": {"type": "DT_FLOAT"}}}, {"name": "StatefulPartitionedCall/model_1/transformer_encoder_regressor_1/transformer_batch_norm_encoder_block_1/sequential_2/transformer_batch_norm_encoder_layer_11/multi_head_attention_11/key/add/ReadVariableOp", "op": "Const", "attr": {"value": {"tensor": {"dtype": "DT_FLOAT", "tensorShape": {"dim": [{"size": "4"}, {"size": "176"}]}}}, "dtype": {"type": "DT_FLOAT"}}}, {"name": "StatefulPartitionedCall/model_1/transformer_encoder_regressor_1/transformer_batch_norm_encoder_block_1/sequential_2/transformer_batch_norm_encoder_layer_11/multi_head_attention_11/query/einsum/Einsum/ReadVariableOp", "op": "Const", "attr": {"value": {"tensor": {"dtype": "DT_FLOAT", "tensorShape": {"dim": [{"size": "176"}, {"size": "4"}, {"size": "176"}]}}}, "dtype": {"type": "DT_FLOAT"}}}, {"name": "StatefulPartitionedCall/model_1/transformer_encoder_regressor_1/transformer_batch_norm_encoder_block_1/sequential_2/transformer_batch_norm_encoder_layer_11/multi_head_attention_11/query/add/ReadVariableOp", "op": "Const", "attr": {"value": {"tensor": {"dtype": "DT_FLOAT", "tensorShape": {"dim": [{"size": "4"}, {"size": "176"}]}}}, "dtype": {"type": "DT_FLOAT"}}}, {"name": "StatefulPartitionedCall/model_1/transformer_encoder_regressor_1/transformer_batch_norm_encoder_block_1/sequential_2/transformer_batch_norm_encoder_layer_11/multi_head_attention_11/Mul/y", "op": "Const", "attr": {"value": {"tensor": {"dtype": "DT_FLOAT", "tensorShape": {}}}, "dtype": {"type": "DT_FLOAT"}}}, {"name": "StatefulPartitionedCall/model_1/transformer_encoder_regressor_1/transformer_batch_norm_encoder_block_1/sequential_2/transformer_batch_norm_encoder_layer_10/dense_32/Tensordot/Const", "op": "Const", "attr": {"dtype": {"type": "DT_INT32"}, "value": {"tensor": {"dtype": "DT_INT32", "tensorShape": {"dim": [{"size": "1"}]}}}}}, {"name": "StatefulPartitionedCall/model_1/transformer_encoder_regressor_1/transformer_batch_norm_encoder_block_1/sequential_2/transformer_batch_norm_encoder_layer_10/dense_32/Tensordot/axes", "op": "Const", "attr": {"value": {"tensor": {"dtype": "DT_INT32", "tensorShape": {"dim": [{"size": "1"}]}}}, "dtype": {"type": "DT_INT32"}}}, {"name": "StatefulPartitionedCall/model_1/transformer_encoder_regressor_1/transformer_batch_norm_encoder_block_1/sequential_2/transformer_batch_norm_encoder_layer_10/dense_32/Tensordot/GatherV2_1/axis", "op": "Const", "attr": {"dtype": {"type": "DT_INT32"}, "value": {"tensor": {"dtype": "DT_INT32", "tensorShape": {}}}}}, {"name": "StatefulPartitionedCall/model_1/transformer_encoder_regressor_1/transformer_batch_norm_encoder_block_1/sequential_2/transformer_batch_norm_encoder_layer_10/dense_32/Tensordot/Const_1", "op": "Const", "attr": {"dtype": {"type": "DT_INT32"}, "value": {"tensor": {"dtype": "DT_INT32", "tensorShape": {"dim": [{"size": "1"}]}}}}}, {"name": "StatefulPartitionedCall/model_1/transformer_encoder_regressor_1/transformer_batch_norm_encoder_block_1/sequential_2/transformer_batch_norm_encoder_layer_10/dense_32/Tensordot/ReadVariableOp", "op": "Const", "attr": {"dtype": {"type": "DT_FLOAT"}, "value": {"tensor": {"dtype": "DT_FLOAT", "tensorShape": {"dim": [{"size": "229"}, {"size": "176"}]}}}}}, {"name": "StatefulPartitionedCall/model_1/transformer_encoder_regressor_1/transformer_batch_norm_encoder_block_1/sequential_2/transformer_batch_norm_encoder_layer_10/dense_31/Tensordot/Const", "op": "Const", "attr": {"dtype": {"type": "DT_INT32"}, "value": {"tensor": {"dtype": "DT_INT32", "tensorShape": {"dim": [{"size": "1"}]}}}}}, {"name": "StatefulPartitionedCall/model_1/transformer_encoder_regressor_1/transformer_batch_norm_encoder_block_1/sequential_2/transformer_batch_norm_encoder_layer_10/dense_31/Tensordot/axes", "op": "Const", "attr": {"dtype": {"type": "DT_INT32"}, "value": {"tensor": {"dtype": "DT_INT32", "tensorShape": {"dim": [{"size": "1"}]}}}}}, {"name": "StatefulPartitionedCall/model_1/transformer_encoder_regressor_1/transformer_batch_norm_encoder_block_1/sequential_2/transformer_batch_norm_encoder_layer_10/dense_31/Tensordot/GatherV2_1/axis", "op": "Const", "attr": {"value": {"tensor": {"dtype": "DT_INT32", "tensorShape": {}}}, "dtype": {"type": "DT_INT32"}}}, {"name": "StatefulPartitionedCall/model_1/transformer_encoder_regressor_1/transformer_batch_norm_encoder_block_1/sequential_2/transformer_batch_norm_encoder_layer_10/dense_31/Tensordot/Const_1", "op": "Const", "attr": {"dtype": {"type": "DT_INT32"}, "value": {"tensor": {"dtype": "DT_INT32", "tensorShape": {"dim": [{"size": "1"}]}}}}}, {"name": "StatefulPartitionedCall/model_1/transformer_encoder_regressor_1/transformer_batch_norm_encoder_block_1/sequential_2/transformer_batch_norm_encoder_layer_10/dense_31/Tensordot/ReadVariableOp", "op": "Const", "attr": {"value": {"tensor": {"dtype": "DT_FLOAT", "tensorShape": {"dim": [{"size": "176"}, {"size": "229"}]}}}, "dtype": {"type": "DT_FLOAT"}}}, {"name": "StatefulPartitionedCall/model_1/transformer_encoder_regressor_1/transformer_batch_norm_encoder_block_1/sequential_2/transformer_batch_norm_encoder_layer_10/dense_31/Tensordot/free", "op": "Const", "attr": {"value": {"tensor": {"dtype": "DT_INT32", "tensorShape": {"dim": [{"size": "2"}]}}}, "dtype": {"type": "DT_INT32"}}}, {"name": "StatefulPartitionedCall/model_1/transformer_encoder_regressor_1/transformer_batch_norm_encoder_block_1/sequential_2/transformer_batch_norm_encoder_layer_10/dense_31/Tensordot/GatherV2/axis", "op": "Const", "attr": {"value": {"tensor": {"dtype": "DT_INT32", "tensorShape": {}}}, "dtype": {"type": "DT_INT32"}}}, {"name": "StatefulPartitionedCall/model_1/transformer_encoder_regressor_1/transformer_batch_norm_encoder_block_1/sequential_2/transformer_batch_norm_encoder_layer_10/dense_31/Tensordot/Const_2", "op": "Const", "attr": {"dtype": {"type": "DT_INT32"}, "value": {"tensor": {"dtype": "DT_INT32", "tensorShape": {"dim": [{"size": "1"}]}}}}}, {"name": "StatefulPartitionedCall/model_1/transformer_encoder_regressor_1/transformer_batch_norm_encoder_block_1/sequential_2/transformer_batch_norm_encoder_layer_10/dense_31/Tensordot/concat_1/axis", "op": "Const", "attr": {"value": {"tensor": {"dtype": "DT_INT32", "tensorShape": {}}}, "dtype": {"type": "DT_INT32"}}}, {"name": "StatefulPartitionedCall/model_1/transformer_encoder_regressor_1/transformer_batch_norm_encoder_block_1/sequential_2/transformer_batch_norm_encoder_layer_10/dense_31/BiasAdd/ReadVariableOp", "op": "Const", "attr": {"value": {"tensor": {"dtype": "DT_FLOAT", "tensorShape": {"dim": [{"size": "229"}]}}}, "dtype": {"type": "DT_FLOAT"}}}, {"name": "StatefulPartitionedCall/model_1/transformer_encoder_regressor_1/transformer_batch_norm_encoder_block_1/sequential_2/transformer_batch_norm_encoder_layer_10/dense_32/Tensordot/free", "op": "Const", "attr": {"value": {"tensor": {"dtype": "DT_INT32", "tensorShape": {"dim": [{"size": "2"}]}}}, "dtype": {"type": "DT_INT32"}}}, {"name": "StatefulPartitionedCall/model_1/transformer_encoder_regressor_1/transformer_batch_norm_encoder_block_1/sequential_2/transformer_batch_norm_encoder_layer_10/dense_32/Tensordot/GatherV2/axis", "op": "Const", "attr": {"value": {"tensor": {"dtype": "DT_INT32", "tensorShape": {}}}, "dtype": {"type": "DT_INT32"}}}, {"name": "StatefulPartitionedCall/model_1/transformer_encoder_regressor_1/transformer_batch_norm_encoder_block_1/sequential_2/transformer_batch_norm_encoder_layer_10/dense_32/Tensordot/Const_2", "op": "Const", "attr": {"value": {"tensor": {"dtype": "DT_INT32", "tensorShape": {"dim": [{"size": "1"}]}}}, "dtype": {"type": "DT_INT32"}}}, {"name": "StatefulPartitionedCall/model_1/transformer_encoder_regressor_1/transformer_batch_norm_encoder_block_1/sequential_2/transformer_batch_norm_encoder_layer_10/dense_32/Tensordot/concat_1/axis", "op": "Const", "attr": {"value": {"tensor": {"dtype": "DT_INT32", "tensorShape": {}}}, "dtype": {"type": "DT_INT32"}}}, {"name": "StatefulPartitionedCall/model_1/transformer_encoder_regressor_1/transformer_batch_norm_encoder_block_1/sequential_2/transformer_batch_norm_encoder_layer_10/dense_32/BiasAdd/ReadVariableOp", "op": "Const", "attr": {"value": {"tensor": {"dtype": "DT_FLOAT", "tensorShape": {"dim": [{"size": "176"}]}}}, "dtype": {"type": "DT_FLOAT"}}}, {"name": "StatefulPartitionedCall/model_1/transformer_encoder_regressor_1/transformer_batch_norm_encoder_block_1/sequential_2/transformer_batch_norm_encoder_layer_10/batch_normalization_21/batchnorm/mul", "op": "Const", "attr": {"dtype": {"type": "DT_FLOAT"}, "value": {"tensor": {"dtype": "DT_FLOAT", "tensorShape": {"dim": [{"size": "176"}]}}}}}, {"name": "StatefulPartitionedCall/model_1/transformer_encoder_regressor_1/transformer_batch_norm_encoder_block_1/sequential_2/transformer_batch_norm_encoder_layer_10/batch_normalization_21/batchnorm/sub", "op": "Const", "attr": {"value": {"tensor": {"dtype": "DT_FLOAT", "tensorShape": {"dim": [{"size": "176"}]}}}, "dtype": {"type": "DT_FLOAT"}}}, {"name": "StatefulPartitionedCall/model_1/transformer_encoder_regressor_1/transformer_batch_norm_encoder_block_1/sequential_2/transformer_batch_norm_encoder_layer_10/batch_normalization_20/batchnorm/sub", "op": "Const", "attr": {"value": {"tensor": {"dtype": "DT_FLOAT", "tensorShape": {"dim": [{"size": "176"}]}}}, "dtype": {"type": "DT_FLOAT"}}}, {"name": "StatefulPartitionedCall/model_1/transformer_encoder_regressor_1/transformer_batch_norm_encoder_block_1/sequential_2/transformer_batch_norm_encoder_layer_10/batch_normalization_20/batchnorm/mul", "op": "Const", "attr": {"value": {"tensor": {"dtype": "DT_FLOAT", "tensorShape": {"dim": [{"size": "176"}]}}}, "dtype": {"type": "DT_FLOAT"}}}, {"name": "StatefulPartitionedCall/model_1/transformer_encoder_regressor_1/transformer_batch_norm_encoder_block_1/sequential_2/transformer_batch_norm_encoder_layer_10/multi_head_attention_10/key/einsum/Einsum/ReadVariableOp", "op": "Const", "attr": {"value": {"tensor": {"dtype": "DT_FLOAT", "tensorShape": {"dim": [{"size": "176"}, {"size": "4"}, {"size": "176"}]}}}, "dtype": {"type": "DT_FLOAT"}}}, {"name": "StatefulPartitionedCall/model_1/transformer_encoder_regressor_1/transformer_batch_norm_encoder_block_1/sequential_2/transformer_batch_norm_encoder_layer_10/multi_head_attention_10/key/add/ReadVariableOp", "op": "Const", "attr": {"dtype": {"type": "DT_FLOAT"}, "value": {"tensor": {"dtype": "DT_FLOAT", "tensorShape": {"dim": [{"size": "4"}, {"size": "176"}]}}}}}, {"name": "StatefulPartitionedCall/model_1/transformer_encoder_regressor_1/transformer_batch_norm_encoder_block_1/sequential_2/transformer_batch_norm_encoder_layer_10/multi_head_attention_10/query/einsum/Einsum/ReadVariableOp", "op": "Const", "attr": {"value": {"tensor": {"dtype": "DT_FLOAT", "tensorShape": {"dim": [{"size": "176"}, {"size": "4"}, {"size": "176"}]}}}, "dtype": {"type": "DT_FLOAT"}}}, {"name": "StatefulPartitionedCall/model_1/transformer_encoder_regressor_1/transformer_batch_norm_encoder_block_1/sequential_2/transformer_batch_norm_encoder_layer_10/multi_head_attention_10/query/add/ReadVariableOp", "op": "Const", "attr": {"value": {"tensor": {"dtype": "DT_FLOAT", "tensorShape": {"dim": [{"size": "4"}, {"size": "176"}]}}}, "dtype": {"type": "DT_FLOAT"}}}, {"name": "StatefulPartitionedCall/model_1/transformer_encoder_regressor_1/transformer_batch_norm_encoder_block_1/sequential_2/transformer_batch_norm_encoder_layer_10/multi_head_attention_10/Mul/y", "op": "Const", "attr": {"value": {"tensor": {"dtype": "DT_FLOAT", "tensorShape": {}}}, "dtype": {"type": "DT_FLOAT"}}}, {"name": "StatefulPartitionedCall/model_1/transformer_encoder_regressor_1/dense_30/Tensordot/Const", "op": "Const", "attr": {"dtype": {"type": "DT_INT32"}, "value": {"tensor": {"dtype": "DT_INT32", "tensorShape": {"dim": [{"size": "1"}]}}}}}, {"name": "StatefulPartitionedCall/model_1/transformer_encoder_regressor_1/dense_30/Tensordot/axes", "op": "Const", "attr": {"dtype": {"type": "DT_INT32"}, "value": {"tensor": {"dtype": "DT_INT32", "tensorShape": {"dim": [{"size": "1"}]}}}}}, {"name": "StatefulPartitionedCall/model_1/transformer_encoder_regressor_1/dense_30/Tensordot/GatherV2_1/axis", "op": "Const", "attr": {"value": {"tensor": {"dtype": "DT_INT32", "tensorShape": {}}}, "dtype": {"type": "DT_INT32"}}}, {"name": "StatefulPartitionedCall/model_1/transformer_encoder_regressor_1/dense_30/Tensordot/Const_1", "op": "Const", "attr": {"dtype": {"type": "DT_INT32"}, "value": {"tensor": {"dtype": "DT_INT32", "tensorShape": {"dim": [{"size": "1"}]}}}}}, {"name": "StatefulPartitionedCall/model_1/transformer_encoder_regressor_1/dense_30/Tensordot/ReadVariableOp", "op": "Const", "attr": {"dtype": {"type": "DT_FLOAT"}, "value": {"tensor": {"dtype": "DT_FLOAT", "tensorShape": {"dim": [{"size": "9"}, {"size": "176"}]}}}}}, {"name": "StatefulPartitionedCall/model_1/transformer_encoder_regressor_1/dense_30/Tensordot/free", "op": "Const", "attr": {"value": {"tensor": {"dtype": "DT_INT32", "tensorShape": {"dim": [{"size": "2"}]}}}, "dtype": {"type": "DT_INT32"}}}, {"name": "StatefulPartitionedCall/model_1/transformer_encoder_regressor_1/dense_30/Tensordot/GatherV2/axis", "op": "Const", "attr": {"value": {"tensor": {"dtype": "DT_INT32", "tensorShape": {}}}, "dtype": {"type": "DT_INT32"}}}, {"name": "StatefulPartitionedCall/model_1/transformer_encoder_regressor_1/dense_30/Tensordot/Const_2", "op": "Const", "attr": {"dtype": {"type": "DT_INT32"}, "value": {"tensor": {"dtype": "DT_INT32", "tensorShape": {"dim": [{"size": "1"}]}}}}}, {"name": "StatefulPartitionedCall/model_1/transformer_encoder_regressor_1/dense_30/Tensordot/concat_1/axis", "op": "Const", "attr": {"dtype": {"type": "DT_INT32"}, "value": {"tensor": {"dtype": "DT_INT32", "tensorShape": {}}}}}, {"name": "StatefulPartitionedCall/model_1/transformer_encoder_regressor_1/dense_30/BiasAdd/ReadVariableOp", "op": "Const", "attr": {"value": {"tensor": {"dtype": "DT_FLOAT", "tensorShape": {"dim": [{"size": "176"}]}}}, "dtype": {"type": "DT_FLOAT"}}}, {"name": "StatefulPartitionedCall/model_1/transformer_encoder_regressor_1/mul/y", "op": "Const", "attr": {"dtype": {"type": "DT_FLOAT"}, "value": {"tensor": {"dtype": "DT_FLOAT", "tensorShape": {}}}}}, {"name": "StatefulPartitionedCall/model_1/transformer_encoder_regressor_1/learnable_position_encoding_1/strided_slice", "op": "Const", "attr": {"value": {"tensor": {"dtype": "DT_FLOAT", "tensorShape": {"dim": [{"size": "13"}, {"size": "176"}]}}}, "dtype": {"type": "DT_FLOAT"}}}, {"name": "StatefulPartitionedCall/model_1/transformer_encoder_regressor_1/transformer_batch_norm_encoder_block_1/sequential_2/transformer_batch_norm_encoder_layer_10/multi_head_attention_10/value/einsum/Einsum/ReadVariableOp", "op": "Const", "attr": {"dtype": {"type": "DT_FLOAT"}, "value": {"tensor": {"dtype": "DT_FLOAT", "tensorShape": {"dim": [{"size": "176"}, {"size": "4"}, {"size": "176"}]}}}}}, {"name": "StatefulPartitionedCall/model_1/transformer_encoder_regressor_1/transformer_batch_norm_encoder_block_1/sequential_2/transformer_batch_norm_encoder_layer_10/multi_head_attention_10/value/add/ReadVariableOp", "op": "Const", "attr": {"value": {"tensor": {"dtype": "DT_FLOAT", "tensorShape": {"dim": [{"size": "4"}, {"size": "176"}]}}}, "dtype": {"type": "DT_FLOAT"}}}, {"name": "StatefulPartitionedCall/model_1/transformer_encoder_regressor_1/transformer_batch_norm_encoder_block_1/sequential_2/transformer_batch_norm_encoder_layer_10/multi_head_attention_10/attention_output/einsum/Einsum/ReadVariableOp", "op": "Const", "attr": {"dtype": {"type": "DT_FLOAT"}, "value": {"tensor": {"dtype": "DT_FLOAT", "tensorShape": {"dim": [{"size": "4"}, {"size": "176"}, {"size": "176"}]}}}}}, {"name": "StatefulPartitionedCall/model_1/transformer_encoder_regressor_1/transformer_batch_norm_encoder_block_1/sequential_2/transformer_batch_norm_encoder_layer_10/multi_head_attention_10/attention_output/add/ReadVariableOp", "op": "Const", "attr": {"dtype": {"type": "DT_FLOAT"}, "value": {"tensor": {"dtype": "DT_FLOAT", "tensorShape": {"dim": [{"size": "176"}]}}}}}, {"name": "StatefulPartitionedCall/model_1/transformer_encoder_regressor_1/transformer_batch_norm_encoder_block_1/sequential_2/transformer_batch_norm_encoder_layer_11/multi_head_attention_11/value/einsum/Einsum/ReadVariableOp", "op": "Const", "attr": {"value": {"tensor": {"dtype": "DT_FLOAT", "tensorShape": {"dim": [{"size": "176"}, {"size": "4"}, {"size": "176"}]}}}, "dtype": {"type": "DT_FLOAT"}}}, {"name": "StatefulPartitionedCall/model_1/transformer_encoder_regressor_1/transformer_batch_norm_encoder_block_1/sequential_2/transformer_batch_norm_encoder_layer_11/multi_head_attention_11/value/add/ReadVariableOp", "op": "Const", "attr": {"value": {"tensor": {"dtype": "DT_FLOAT", "tensorShape": {"dim": [{"size": "4"}, {"size": "176"}]}}}, "dtype": {"type": "DT_FLOAT"}}}, {"name": "StatefulPartitionedCall/model_1/transformer_encoder_regressor_1/transformer_batch_norm_encoder_block_1/sequential_2/transformer_batch_norm_encoder_layer_11/multi_head_attention_11/attention_output/einsum/Einsum/ReadVariableOp", "op": "Const", "attr": {"dtype": {"type": "DT_FLOAT"}, "value": {"tensor": {"dtype": "DT_FLOAT", "tensorShape": {"dim": [{"size": "4"}, {"size": "176"}, {"size": "176"}]}}}}}, {"name": "StatefulPartitionedCall/model_1/transformer_encoder_regressor_1/transformer_batch_norm_encoder_block_1/sequential_2/transformer_batch_norm_encoder_layer_11/multi_head_attention_11/attention_output/add/ReadVariableOp", "op": "Const", "attr": {"dtype": {"type": "DT_FLOAT"}, "value": {"tensor": {"dtype": "DT_FLOAT", "tensorShape": {"dim": [{"size": "176"}]}}}}}, {"name": "StatefulPartitionedCall/model_1/transformer_encoder_regressor_1/transformer_batch_norm_encoder_block_1/sequential_2/transformer_batch_norm_encoder_layer_12/multi_head_attention_12/value/einsum/Einsum/ReadVariableOp", "op": "Const", "attr": {"value": {"tensor": {"dtype": "DT_FLOAT", "tensorShape": {"dim": [{"size": "176"}, {"size": "4"}, {"size": "176"}]}}}, "dtype": {"type": "DT_FLOAT"}}}, {"name": "StatefulPartitionedCall/model_1/transformer_encoder_regressor_1/transformer_batch_norm_encoder_block_1/sequential_2/transformer_batch_norm_encoder_layer_12/multi_head_attention_12/value/add/ReadVariableOp", "op": "Const", "attr": {"value": {"tensor": {"dtype": "DT_FLOAT", "tensorShape": {"dim": [{"size": "4"}, {"size": "176"}]}}}, "dtype": {"type": "DT_FLOAT"}}}, {"name": "StatefulPartitionedCall/model_1/transformer_encoder_regressor_1/transformer_batch_norm_encoder_block_1/sequential_2/transformer_batch_norm_encoder_layer_12/multi_head_attention_12/attention_output/einsum/Einsum/ReadVariableOp", "op": "Const", "attr": {"value": {"tensor": {"dtype": "DT_FLOAT", "tensorShape": {"dim": [{"size": "4"}, {"size": "176"}, {"size": "176"}]}}}, "dtype": {"type": "DT_FLOAT"}}}, {"name": "StatefulPartitionedCall/model_1/transformer_encoder_regressor_1/transformer_batch_norm_encoder_block_1/sequential_2/transformer_batch_norm_encoder_layer_12/multi_head_attention_12/attention_output/add/ReadVariableOp", "op": "Const", "attr": {"value": {"tensor": {"dtype": "DT_FLOAT", "tensorShape": {"dim": [{"size": "176"}]}}}, "dtype": {"type": "DT_FLOAT"}}}, {"name": "StatefulPartitionedCall/model_1/transformer_encoder_regressor_1/transformer_batch_norm_encoder_block_1/sequential_2/transformer_batch_norm_encoder_layer_13/multi_head_attention_13/value/einsum/Einsum/ReadVariableOp", "op": "Const", "attr": {"value": {"tensor": {"dtype": "DT_FLOAT", "tensorShape": {"dim": [{"size": "176"}, {"size": "4"}, {"size": "176"}]}}}, "dtype": {"type": "DT_FLOAT"}}}, {"name": "StatefulPartitionedCall/model_1/transformer_encoder_regressor_1/transformer_batch_norm_encoder_block_1/sequential_2/transformer_batch_norm_encoder_layer_13/multi_head_attention_13/value/add/ReadVariableOp", "op": "Const", "attr": {"dtype": {"type": "DT_FLOAT"}, "value": {"tensor": {"dtype": "DT_FLOAT", "tensorShape": {"dim": [{"size": "4"}, {"size": "176"}]}}}}}, {"name": "StatefulPartitionedCall/model_1/transformer_encoder_regressor_1/transformer_batch_norm_encoder_block_1/sequential_2/transformer_batch_norm_encoder_layer_13/multi_head_attention_13/attention_output/einsum/Einsum/ReadVariableOp", "op": "Const", "attr": {"value": {"tensor": {"dtype": "DT_FLOAT", "tensorShape": {"dim": [{"size": "4"}, {"size": "176"}, {"size": "176"}]}}}, "dtype": {"type": "DT_FLOAT"}}}, {"name": "StatefulPartitionedCall/model_1/transformer_encoder_regressor_1/transformer_batch_norm_encoder_block_1/sequential_2/transformer_batch_norm_encoder_layer_13/multi_head_attention_13/attention_output/add/ReadVariableOp", "op": "Const", "attr": {"dtype": {"type": "DT_FLOAT"}, "value": {"tensor": {"dtype": "DT_FLOAT", "tensorShape": {"dim": [{"size": "176"}]}}}}}, {"name": "StatefulPartitionedCall/model_1/transformer_encoder_regressor_1/transformer_batch_norm_encoder_block_1/sequential_2/transformer_batch_norm_encoder_layer_14/multi_head_attention_14/value/einsum/Einsum/ReadVariableOp", "op": "Const", "attr": {"dtype": {"type": "DT_FLOAT"}, "value": {"tensor": {"dtype": "DT_FLOAT", "tensorShape": {"dim": [{"size": "176"}, {"size": "4"}, {"size": "176"}]}}}}}, {"name": "StatefulPartitionedCall/model_1/transformer_encoder_regressor_1/transformer_batch_norm_encoder_block_1/sequential_2/transformer_batch_norm_encoder_layer_14/multi_head_attention_14/value/add/ReadVariableOp", "op": "Const", "attr": {"dtype": {"type": "DT_FLOAT"}, "value": {"tensor": {"dtype": "DT_FLOAT", "tensorShape": {"dim": [{"size": "4"}, {"size": "176"}]}}}}}, {"name": "StatefulPartitionedCall/model_1/transformer_encoder_regressor_1/transformer_batch_norm_encoder_block_1/sequential_2/transformer_batch_norm_encoder_layer_14/multi_head_attention_14/attention_output/einsum/Einsum/ReadVariableOp", "op": "Const", "attr": {"dtype": {"type": "DT_FLOAT"}, "value": {"tensor": {"dtype": "DT_FLOAT", "tensorShape": {"dim": [{"size": "4"}, {"size": "176"}, {"size": "176"}]}}}}}, {"name": "StatefulPartitionedCall/model_1/transformer_encoder_regressor_1/transformer_batch_norm_encoder_block_1/sequential_2/transformer_batch_norm_encoder_layer_14/multi_head_attention_14/attention_output/add/ReadVariableOp", "op": "Const", "attr": {"dtype": {"type": "DT_FLOAT"}, "value": {"tensor": {"dtype": "DT_FLOAT", "tensorShape": {"dim": [{"size": "176"}]}}}}}, {"name": "StatefulPartitionedCall/model_1/transformer_encoder_regressor_1/transformer_batch_norm_encoder_block_1/sequential_2/transformer_batch_norm_encoder_layer_15/multi_head_attention_15/value/einsum/Einsum/ReadVariableOp", "op": "Const", "attr": {"dtype": {"type": "DT_FLOAT"}, "value": {"tensor": {"dtype": "DT_FLOAT", "tensorShape": {"dim": [{"size": "176"}, {"size": "4"}, {"size": "176"}]}}}}}, {"name": "StatefulPartitionedCall/model_1/transformer_encoder_regressor_1/transformer_batch_norm_encoder_block_1/sequential_2/transformer_batch_norm_encoder_layer_15/multi_head_attention_15/value/add/ReadVariableOp", "op": "Const", "attr": {"value": {"tensor": {"dtype": "DT_FLOAT", "tensorShape": {"dim": [{"size": "4"}, {"size": "176"}]}}}, "dtype": {"type": "DT_FLOAT"}}}, {"name": "StatefulPartitionedCall/model_1/transformer_encoder_regressor_1/transformer_batch_norm_encoder_block_1/sequential_2/transformer_batch_norm_encoder_layer_15/multi_head_attention_15/attention_output/einsum/Einsum/ReadVariableOp", "op": "Const", "attr": {"value": {"tensor": {"dtype": "DT_FLOAT", "tensorShape": {"dim": [{"size": "4"}, {"size": "176"}, {"size": "176"}]}}}, "dtype": {"type": "DT_FLOAT"}}}, {"name": "StatefulPartitionedCall/model_1/transformer_encoder_regressor_1/transformer_batch_norm_encoder_block_1/sequential_2/transformer_batch_norm_encoder_layer_15/multi_head_attention_15/attention_output/add/ReadVariableOp", "op": "Const", "attr": {"dtype": {"type": "DT_FLOAT"}, "value": {"tensor": {"dtype": "DT_FLOAT", "tensorShape": {"dim": [{"size": "176"}]}}}}}, {"name": "StatefulPartitionedCall/model_1/transformer_encoder_regressor_1/transformer_batch_norm_encoder_block_1/sequential_2/transformer_batch_norm_encoder_layer_16/multi_head_attention_16/value/einsum/Einsum/ReadVariableOp", "op": "Const", "attr": {"dtype": {"type": "DT_FLOAT"}, "value": {"tensor": {"dtype": "DT_FLOAT", "tensorShape": {"dim": [{"size": "176"}, {"size": "4"}, {"size": "176"}]}}}}}, {"name": "StatefulPartitionedCall/model_1/transformer_encoder_regressor_1/transformer_batch_norm_encoder_block_1/sequential_2/transformer_batch_norm_encoder_layer_16/multi_head_attention_16/value/add/ReadVariableOp", "op": "Const", "attr": {"value": {"tensor": {"dtype": "DT_FLOAT", "tensorShape": {"dim": [{"size": "4"}, {"size": "176"}]}}}, "dtype": {"type": "DT_FLOAT"}}}, {"name": "StatefulPartitionedCall/model_1/transformer_encoder_regressor_1/transformer_batch_norm_encoder_block_1/sequential_2/transformer_batch_norm_encoder_layer_16/multi_head_attention_16/attention_output/einsum/Einsum/ReadVariableOp", "op": "Const", "attr": {"dtype": {"type": "DT_FLOAT"}, "value": {"tensor": {"dtype": "DT_FLOAT", "tensorShape": {"dim": [{"size": "4"}, {"size": "176"}, {"size": "176"}]}}}}}, {"name": "StatefulPartitionedCall/model_1/transformer_encoder_regressor_1/transformer_batch_norm_encoder_block_1/sequential_2/transformer_batch_norm_encoder_layer_16/multi_head_attention_16/attention_output/add/ReadVariableOp", "op": "Const", "attr": {"dtype": {"type": "DT_FLOAT"}, "value": {"tensor": {"dtype": "DT_FLOAT", "tensorShape": {"dim": [{"size": "176"}]}}}}}, {"name": "StatefulPartitionedCall/model_1/transformer_encoder_regressor_1/transformer_batch_norm_encoder_block_1/sequential_2/transformer_batch_norm_encoder_layer_17/multi_head_attention_17/value/einsum/Einsum/ReadVariableOp", "op": "Const", "attr": {"dtype": {"type": "DT_FLOAT"}, "value": {"tensor": {"dtype": "DT_FLOAT", "tensorShape": {"dim": [{"size": "176"}, {"size": "4"}, {"size": "176"}]}}}}}, {"name": "StatefulPartitionedCall/model_1/transformer_encoder_regressor_1/transformer_batch_norm_encoder_block_1/sequential_2/transformer_batch_norm_encoder_layer_17/multi_head_attention_17/value/add/ReadVariableOp", "op": "Const", "attr": {"value": {"tensor": {"dtype": "DT_FLOAT", "tensorShape": {"dim": [{"size": "4"}, {"size": "176"}]}}}, "dtype": {"type": "DT_FLOAT"}}}, {"name": "StatefulPartitionedCall/model_1/transformer_encoder_regressor_1/transformer_batch_norm_encoder_block_1/sequential_2/transformer_batch_norm_encoder_layer_17/multi_head_attention_17/attention_output/einsum/Einsum/ReadVariableOp", "op": "Const", "attr": {"value": {"tensor": {"dtype": "DT_FLOAT", "tensorShape": {"dim": [{"size": "4"}, {"size": "176"}, {"size": "176"}]}}}, "dtype": {"type": "DT_FLOAT"}}}, {"name": "StatefulPartitionedCall/model_1/transformer_encoder_regressor_1/transformer_batch_norm_encoder_block_1/sequential_2/transformer_batch_norm_encoder_layer_17/multi_head_attention_17/attention_output/add/ReadVariableOp", "op": "Const", "attr": {"dtype": {"type": "DT_FLOAT"}, "value": {"tensor": {"dtype": "DT_FLOAT", "tensorShape": {"dim": [{"size": "176"}]}}}}}, {"name": "StatefulPartitionedCall/model_1/transformer_encoder_regressor_1/transformer_batch_norm_encoder_block_1/sequential_2/transformer_batch_norm_encoder_layer_18/multi_head_attention_18/value/einsum/Einsum/ReadVariableOp", "op": "Const", "attr": {"value": {"tensor": {"dtype": "DT_FLOAT", "tensorShape": {"dim": [{"size": "176"}, {"size": "4"}, {"size": "176"}]}}}, "dtype": {"type": "DT_FLOAT"}}}, {"name": "StatefulPartitionedCall/model_1/transformer_encoder_regressor_1/transformer_batch_norm_encoder_block_1/sequential_2/transformer_batch_norm_encoder_layer_18/multi_head_attention_18/value/add/ReadVariableOp", "op": "Const", "attr": {"dtype": {"type": "DT_FLOAT"}, "value": {"tensor": {"dtype": "DT_FLOAT", "tensorShape": {"dim": [{"size": "4"}, {"size": "176"}]}}}}}, {"name": "StatefulPartitionedCall/model_1/transformer_encoder_regressor_1/transformer_batch_norm_encoder_block_1/sequential_2/transformer_batch_norm_encoder_layer_18/multi_head_attention_18/attention_output/einsum/Einsum/ReadVariableOp", "op": "Const", "attr": {"value": {"tensor": {"dtype": "DT_FLOAT", "tensorShape": {"dim": [{"size": "4"}, {"size": "176"}, {"size": "176"}]}}}, "dtype": {"type": "DT_FLOAT"}}}, {"name": "StatefulPartitionedCall/model_1/transformer_encoder_regressor_1/transformer_batch_norm_encoder_block_1/sequential_2/transformer_batch_norm_encoder_layer_18/multi_head_attention_18/attention_output/add/ReadVariableOp", "op": "Const", "attr": {"value": {"tensor": {"dtype": "DT_FLOAT", "tensorShape": {"dim": [{"size": "176"}]}}}, "dtype": {"type": "DT_FLOAT"}}}, {"name": "StatefulPartitionedCall/model_1/transformer_encoder_regressor_1/transformer_batch_norm_encoder_block_1/sequential_2/transformer_batch_norm_encoder_layer_19/multi_head_attention_19/value/einsum/Einsum/ReadVariableOp", "op": "Const", "attr": {"value": {"tensor": {"dtype": "DT_FLOAT", "tensorShape": {"dim": [{"size": "176"}, {"size": "4"}, {"size": "176"}]}}}, "dtype": {"type": "DT_FLOAT"}}}, {"name": "StatefulPartitionedCall/model_1/transformer_encoder_regressor_1/transformer_batch_norm_encoder_block_1/sequential_2/transformer_batch_norm_encoder_layer_19/multi_head_attention_19/value/add/ReadVariableOp", "op": "Const", "attr": {"value": {"tensor": {"dtype": "DT_FLOAT", "tensorShape": {"dim": [{"size": "4"}, {"size": "176"}]}}}, "dtype": {"type": "DT_FLOAT"}}}, {"name": "StatefulPartitionedCall/model_1/transformer_encoder_regressor_1/transformer_batch_norm_encoder_block_1/sequential_2/transformer_batch_norm_encoder_layer_19/multi_head_attention_19/attention_output/einsum/Einsum/ReadVariableOp", "op": "Const", "attr": {"dtype": {"type": "DT_FLOAT"}, "value": {"tensor": {"dtype": "DT_FLOAT", "tensorShape": {"dim": [{"size": "4"}, {"size": "176"}, {"size": "176"}]}}}}}, {"name": "StatefulPartitionedCall/model_1/transformer_encoder_regressor_1/transformer_batch_norm_encoder_block_1/sequential_2/transformer_batch_norm_encoder_layer_19/multi_head_attention_19/attention_output/add/ReadVariableOp", "op": "Const", "attr": {"value": {"tensor": {"dtype": "DT_FLOAT", "tensorShape": {"dim": [{"size": "176"}]}}}, "dtype": {"type": "DT_FLOAT"}}}, {"name": "StatefulPartitionedCall/model_1/transformer_encoder_regressor_1/flatten_1/Const", "op": "Const", "attr": {"dtype": {"type": "DT_INT32"}, "value": {"tensor": {"dtype": "DT_INT32", "tensorShape": {"dim": [{"size": "2"}]}}}}}, {"name": "StatefulPartitionedCall/model_1/transformer_encoder_regressor_1/sequential_3/dense_51/MatMul/ReadVariableOp", "op": "Const", "attr": {"value": {"tensor": {"dtype": "DT_FLOAT", "tensorShape": {"dim": [{"size": "2288"}, {"size": "176"}]}}}, "dtype": {"type": "DT_FLOAT"}}}, {"name": "StatefulPartitionedCall/model_1/transformer_encoder_regressor_1/sequential_3/dense_51/BiasAdd/ReadVariableOp", "op": "Const", "attr": {"value": {"tensor": {"dtype": "DT_FLOAT", "tensorShape": {"dim": [{"size": "176"}]}}}, "dtype": {"type": "DT_FLOAT"}}}, {"name": "StatefulPartitionedCall/model_1/transformer_encoder_regressor_1/sequential_3/dense_52/MatMul/ReadVariableOp", "op": "Const", "attr": {"value": {"tensor": {"dtype": "DT_FLOAT", "tensorShape": {"dim": [{"size": "176"}, {"size": "176"}]}}}, "dtype": {"type": "DT_FLOAT"}}}, {"name": "StatefulPartitionedCall/model_1/transformer_encoder_regressor_1/sequential_3/dense_52/BiasAdd/ReadVariableOp", "op": "Const", "attr": {"dtype": {"type": "DT_FLOAT"}, "value": {"tensor": {"dtype": "DT_FLOAT", "tensorShape": {"dim": [{"size": "176"}]}}}}}, {"name": "StatefulPartitionedCall/model_1/transformer_encoder_regressor_1/sequential_3/dense_53/MatMul/ReadVariableOp", "op": "Const", "attr": {"dtype": {"type": "DT_FLOAT"}, "value": {"tensor": {"dtype": "DT_FLOAT", "tensorShape": {"dim": [{"size": "176"}, {"size": "176"}]}}}}}, {"name": "StatefulPartitionedCall/model_1/transformer_encoder_regressor_1/sequential_3/dense_53/BiasAdd/ReadVariableOp", "op": "Const", "attr": {"value": {"tensor": {"dtype": "DT_FLOAT", "tensorShape": {"dim": [{"size": "176"}]}}}, "dtype": {"type": "DT_FLOAT"}}}, {"name": "StatefulPartitionedCall/model_1/transformer_encoder_regressor_1/sequential_3/dense_54/MatMul/ReadVariableOp", "op": "Const", "attr": {"dtype": {"type": "DT_FLOAT"}, "value": {"tensor": {"dtype": "DT_FLOAT", "tensorShape": {"dim": [{"size": "176"}, {"size": "176"}]}}}}}, {"name": "StatefulPartitionedCall/model_1/transformer_encoder_regressor_1/sequential_3/dense_54/BiasAdd/ReadVariableOp", "op": "Const", "attr": {"dtype": {"type": "DT_FLOAT"}, "value": {"tensor": {"dtype": "DT_FLOAT", "tensorShape": {"dim": [{"size": "176"}]}}}}}, {"name": "StatefulPartitionedCall/model_1/transformer_encoder_regressor_1/sequential_3/dense_55/MatMul/ReadVariableOp", "op": "Const", "attr": {"dtype": {"type": "DT_FLOAT"}, "value": {"tensor": {"dtype": "DT_FLOAT", "tensorShape": {"dim": [{"size": "176"}, {"size": "176"}]}}}}}, {"name": "StatefulPartitionedCall/model_1/transformer_encoder_regressor_1/sequential_3/dense_55/BiasAdd/ReadVariableOp", "op": "Const", "attr": {"dtype": {"type": "DT_FLOAT"}, "value": {"tensor": {"dtype": "DT_FLOAT", "tensorShape": {"dim": [{"size": "176"}]}}}}}, {"name": "StatefulPartitionedCall/model_1/transformer_encoder_regressor_1/sequential_3/dense_56/MatMul/ReadVariableOp", "op": "Const", "attr": {"value": {"tensor": {"dtype": "DT_FLOAT", "tensorShape": {"dim": [{"size": "176"}, {"size": "176"}]}}}, "dtype": {"type": "DT_FLOAT"}}}, {"name": "StatefulPartitionedCall/model_1/transformer_encoder_regressor_1/sequential_3/dense_56/BiasAdd/ReadVariableOp", "op": "Const", "attr": {"value": {"tensor": {"dtype": "DT_FLOAT", "tensorShape": {"dim": [{"size": "176"}]}}}, "dtype": {"type": "DT_FLOAT"}}}, {"name": "StatefulPartitionedCall/model_1/transformer_encoder_regressor_1/sequential_3/dense_57/MatMul/ReadVariableOp", "op": "Const", "attr": {"dtype": {"type": "DT_FLOAT"}, "value": {"tensor": {"dtype": "DT_FLOAT", "tensorShape": {"dim": [{"size": "176"}, {"size": "176"}]}}}}}, {"name": "StatefulPartitionedCall/model_1/transformer_encoder_regressor_1/sequential_3/dense_57/BiasAdd/ReadVariableOp", "op": "Const", "attr": {"dtype": {"type": "DT_FLOAT"}, "value": {"tensor": {"dtype": "DT_FLOAT", "tensorShape": {"dim": [{"size": "176"}]}}}}}, {"name": "StatefulPartitionedCall/model_1/transformer_encoder_regressor_1/sequential_3/dense_58/MatMul/ReadVariableOp", "op": "Const", "attr": {"value": {"tensor": {"dtype": "DT_FLOAT", "tensorShape": {"dim": [{"size": "176"}, {"size": "176"}]}}}, "dtype": {"type": "DT_FLOAT"}}}, {"name": "StatefulPartitionedCall/model_1/transformer_encoder_regressor_1/sequential_3/dense_58/BiasAdd/ReadVariableOp", "op": "Const", "attr": {"dtype": {"type": "DT_FLOAT"}, "value": {"tensor": {"dtype": "DT_FLOAT", "tensorShape": {"dim": [{"size": "176"}]}}}}}, {"name": "StatefulPartitionedCall/model_1/transformer_encoder_regressor_1/sequential_3/dense_59/MatMul/ReadVariableOp", "op": "Const", "attr": {"dtype": {"type": "DT_FLOAT"}, "value": {"tensor": {"dtype": "DT_FLOAT", "tensorShape": {"dim": [{"size": "176"}, {"size": "2"}]}}}}}, {"name": "StatefulPartitionedCall/model_1/transformer_encoder_regressor_1/sequential_3/dense_59/BiasAdd/ReadVariableOp", "op": "Const", "attr": {"value": {"tensor": {"dtype": "DT_FLOAT", "tensorShape": {"dim": [{"size": "2"}]}}}, "dtype": {"type": "DT_FLOAT"}}}, {"name": "input_2", "op": "Placeholder", "attr": {"shape": {"shape": {"dim": [{"size": "-1"}, {"size": "13"}, {"size": "9"}]}}, "dtype": {"type": "DT_FLOAT"}}}, {"name": "StatefulPartitionedCall/model_1/transformer_encoder_regressor_1/dense_30/Tensordot/Shape", "op": "Shape", "input": ["input_2"], "attr": {"out_type": {"type": "DT_INT32"}, "T": {"type": "DT_FLOAT"}}}, {"name": "StatefulPartitionedCall/model_1/transformer_encoder_regressor_1/dense_30/Tensordot/GatherV2_1", "op": "GatherV2", "input": ["StatefulPartitionedCall/model_1/transformer_encoder_regressor_1/dense_30/Tensordot/Shape", "StatefulPartitionedCall/model_1/transformer_encoder_regressor_1/dense_30/Tensordot/axes", "StatefulPartitionedCall/model_1/transformer_encoder_regressor_1/dense_30/Tensordot/GatherV2_1/axis"], "attr": {"Tindices": {"type": "DT_INT32"}, "batch_dims": {"i": "0"}, "Tparams": {"type": "DT_INT32"}, "Taxis": {"type": "DT_INT32"}}}, {"name": "StatefulPartitionedCall/model_1/transformer_encoder_regressor_1/dense_30/Tensordot/GatherV2", "op": "GatherV2", "input": ["StatefulPartitionedCall/model_1/transformer_encoder_regressor_1/dense_30/Tensordot/Shape", "StatefulPartitionedCall/model_1/transformer_encoder_regressor_1/dense_30/Tensordot/free", "StatefulPartitionedCall/model_1/transformer_encoder_regressor_1/dense_30/Tensordot/GatherV2/axis"], "attr": {"Tparams": {"type": "DT_INT32"}, "batch_dims": {"i": "0"}, "Taxis": {"type": "DT_INT32"}, "Tindices": {"type": "DT_INT32"}}}, {"name": "StatefulPartitionedCall/model_1/transformer_encoder_regressor_1/dense_30/Tensordot/Prod_1", "op": "Prod", "input": ["StatefulPartitionedCall/model_1/transformer_encoder_regressor_1/dense_30/Tensordot/GatherV2_1", "StatefulPartitionedCall/model_1/transformer_encoder_regressor_1/dense_30/Tensordot/Const_1"], "attr": {"keep_dims": {"b": false}, "T": {"type": "DT_INT32"}, "Tidx": {"type": "DT_INT32"}}}, {"name": "StatefulPartitionedCall/model_1/transformer_encoder_regressor_1/dense_30/Tensordot/Prod", "op": "Prod", "input": ["StatefulPartitionedCall/model_1/transformer_encoder_regressor_1/dense_30/Tensordot/GatherV2", "StatefulPartitionedCall/model_1/transformer_encoder_regressor_1/dense_30/Tensordot/Const"], "attr": {"keep_dims": {"b": false}, "T": {"type": "DT_INT32"}, "Tidx": {"type": "DT_INT32"}}}, {"name": "StatefulPartitionedCall/model_1/transformer_encoder_regressor_1/dense_30/Tensordot/concat_1", "op": "ConcatV2", "input": ["StatefulPartitionedCall/model_1/transformer_encoder_regressor_1/dense_30/Tensordot/GatherV2", "StatefulPartitionedCall/model_1/transformer_encoder_regressor_1/dense_30/Tensordot/Const_2", "StatefulPartitionedCall/model_1/transformer_encoder_regressor_1/dense_30/Tensordot/concat_1/axis"], "attr": {"T": {"type": "DT_INT32"}, "Tidx": {"type": "DT_INT32"}, "N": {"i": "2"}}}, {"name": "StatefulPartitionedCall/model_1/transformer_encoder_regressor_1/dense_30/Tensordot/stack", "op": "Pack", "input": ["StatefulPartitionedCall/model_1/transformer_encoder_regressor_1/dense_30/Tensordot/Prod", "StatefulPartitionedCall/model_1/transformer_encoder_regressor_1/dense_30/Tensordot/Prod_1"], "attr": {"T": {"type": "DT_INT32"}, "axis": {"i": "0"}, "N": {"i": "2"}}}, {"name": "StatefulPartitionedCall/model_1/transformer_encoder_regressor_1/dense_30/Tensordot/Reshape", "op": "Reshape", "input": ["input_2", "StatefulPartitionedCall/model_1/transformer_encoder_regressor_1/dense_30/Tensordot/stack"], "attr": {"T": {"type": "DT_FLOAT"}, "Tshape": {"type": "DT_INT32"}}}, {"name": "StatefulPartitionedCall/model_1/transformer_encoder_regressor_1/dense_30/Tensordot/MatMul", "op": "MatMul", "input": ["StatefulPartitionedCall/model_1/transformer_encoder_regressor_1/dense_30/Tensordot/Reshape", "StatefulPartitionedCall/model_1/transformer_encoder_regressor_1/dense_30/Tensordot/ReadVariableOp"], "device": "/device:CPU:0", "attr": {"transpose_b": {"b": false}, "T": {"type": "DT_FLOAT"}, "transpose_a": {"b": false}}}, {"name": "StatefulPartitionedCall/model_1/transformer_encoder_regressor_1/dense_30/Tensordot", "op": "Reshape", "input": ["StatefulPartitionedCall/model_1/transformer_encoder_regressor_1/dense_30/Tensordot/MatMul", "StatefulPartitionedCall/model_1/transformer_encoder_regressor_1/dense_30/Tensordot/concat_1"], "attr": {"T": {"type": "DT_FLOAT"}, "Tshape": {"type": "DT_INT32"}}}, {"name": "StatefulPartitionedCall/model_1/transformer_encoder_regressor_1/dense_30/BiasAdd", "op": "BiasAdd", "input": ["StatefulPartitionedCall/model_1/transformer_encoder_regressor_1/dense_30/Tensordot", "StatefulPartitionedCall/model_1/transformer_encoder_regressor_1/dense_30/BiasAdd/ReadVariableOp"], "attr": {"data_format": {"s": "TkhXQw=="}, "T": {"type": "DT_FLOAT"}}}, {"name": "StatefulPartitionedCall/model_1/transformer_encoder_regressor_1/mul", "op": "Mul", "input": ["StatefulPartitionedCall/model_1/transformer_encoder_regressor_1/dense_30/BiasAdd", "StatefulPartitionedCall/model_1/transformer_encoder_regressor_1/mul/y"], "attr": {"T": {"type": "DT_FLOAT"}}}, {"name": "StatefulPartitionedCall/model_1/transformer_encoder_regressor_1/learnable_position_encoding_1/add", "op": "AddV2", "input": ["StatefulPartitionedCall/model_1/transformer_encoder_regressor_1/mul", "StatefulPartitionedCall/model_1/transformer_encoder_regressor_1/learnable_position_encoding_1/strided_slice"], "attr": {"T": {"type": "DT_FLOAT"}}}, {"name": "StatefulPartitionedCall/model_1/transformer_encoder_regressor_1/transformer_batch_norm_encoder_block_1/sequential_2/transformer_batch_norm_encoder_layer_10/multi_head_attention_10/key/einsum/Einsum", "op": "Einsum", "input": ["StatefulPartitionedCall/model_1/transformer_encoder_regressor_1/learnable_position_encoding_1/add", "StatefulPartitionedCall/model_1/transformer_encoder_regressor_1/transformer_batch_norm_encoder_block_1/sequential_2/transformer_batch_norm_encoder_layer_10/multi_head_attention_10/key/einsum/Einsum/ReadVariableOp"], "attr": {"N": {"i": "2"}, "T": {"type": "DT_FLOAT"}, "equation": {"s": "YWJjLGNkZS0+YWJkZQ=="}}}, {"name": "StatefulPartitionedCall/model_1/transformer_encoder_regressor_1/transformer_batch_norm_encoder_block_1/sequential_2/transformer_batch_norm_encoder_layer_10/multi_head_attention_10/query/einsum/Einsum", "op": "Einsum", "input": ["StatefulPartitionedCall/model_1/transformer_encoder_regressor_1/learnable_position_encoding_1/add", "StatefulPartitionedCall/model_1/transformer_encoder_regressor_1/transformer_batch_norm_encoder_block_1/sequential_2/transformer_batch_norm_encoder_layer_10/multi_head_attention_10/query/einsum/Einsum/ReadVariableOp"], "attr": {"equation": {"s": "YWJjLGNkZS0+YWJkZQ=="}, "T": {"type": "DT_FLOAT"}, "N": {"i": "2"}}}, {"name": "StatefulPartitionedCall/model_1/transformer_encoder_regressor_1/transformer_batch_norm_encoder_block_1/sequential_2/transformer_batch_norm_encoder_layer_10/multi_head_attention_10/value/einsum/Einsum", "op": "Einsum", "input": ["StatefulPartitionedCall/model_1/transformer_encoder_regressor_1/learnable_position_encoding_1/add", "StatefulPartitionedCall/model_1/transformer_encoder_regressor_1/transformer_batch_norm_encoder_block_1/sequential_2/transformer_batch_norm_encoder_layer_10/multi_head_attention_10/value/einsum/Einsum/ReadVariableOp"], "attr": {"equation": {"s": "YWJjLGNkZS0+YWJkZQ=="}, "N": {"i": "2"}, "T": {"type": "DT_FLOAT"}}}, {"name": "StatefulPartitionedCall/model_1/transformer_encoder_regressor_1/transformer_batch_norm_encoder_block_1/sequential_2/transformer_batch_norm_encoder_layer_10/multi_head_attention_10/key/add", "op": "AddV2", "input": ["StatefulPartitionedCall/model_1/transformer_encoder_regressor_1/transformer_batch_norm_encoder_block_1/sequential_2/transformer_batch_norm_encoder_layer_10/multi_head_attention_10/key/einsum/Einsum", "StatefulPartitionedCall/model_1/transformer_encoder_regressor_1/transformer_batch_norm_encoder_block_1/sequential_2/transformer_batch_norm_encoder_layer_10/multi_head_attention_10/key/add/ReadVariableOp"], "attr": {"T": {"type": "DT_FLOAT"}}}, {"name": "StatefulPartitionedCall/model_1/transformer_encoder_regressor_1/transformer_batch_norm_encoder_block_1/sequential_2/transformer_batch_norm_encoder_layer_10/multi_head_attention_10/query/add", "op": "AddV2", "input": ["StatefulPartitionedCall/model_1/transformer_encoder_regressor_1/transformer_batch_norm_encoder_block_1/sequential_2/transformer_batch_norm_encoder_layer_10/multi_head_attention_10/query/einsum/Einsum", "StatefulPartitionedCall/model_1/transformer_encoder_regressor_1/transformer_batch_norm_encoder_block_1/sequential_2/transformer_batch_norm_encoder_layer_10/multi_head_attention_10/query/add/ReadVariableOp"], "attr": {"T": {"type": "DT_FLOAT"}}}, {"name": "StatefulPartitionedCall/model_1/transformer_encoder_regressor_1/transformer_batch_norm_encoder_block_1/sequential_2/transformer_batch_norm_encoder_layer_10/multi_head_attention_10/value/add", "op": "AddV2", "input": ["StatefulPartitionedCall/model_1/transformer_encoder_regressor_1/transformer_batch_norm_encoder_block_1/sequential_2/transformer_batch_norm_encoder_layer_10/multi_head_attention_10/value/einsum/Einsum", "StatefulPartitionedCall/model_1/transformer_encoder_regressor_1/transformer_batch_norm_encoder_block_1/sequential_2/transformer_batch_norm_encoder_layer_10/multi_head_attention_10/value/add/ReadVariableOp"], "attr": {"T": {"type": "DT_FLOAT"}}}, {"name": "StatefulPartitionedCall/model_1/transformer_encoder_regressor_1/transformer_batch_norm_encoder_block_1/sequential_2/transformer_batch_norm_encoder_layer_10/multi_head_attention_10/Mul", "op": "Mul", "input": ["StatefulPartitionedCall/model_1/transformer_encoder_regressor_1/transformer_batch_norm_encoder_block_1/sequential_2/transformer_batch_norm_encoder_layer_10/multi_head_attention_10/query/add", "StatefulPartitionedCall/model_1/transformer_encoder_regressor_1/transformer_batch_norm_encoder_block_1/sequential_2/transformer_batch_norm_encoder_layer_10/multi_head_attention_10/Mul/y"], "attr": {"T": {"type": "DT_FLOAT"}}}, {"name": "StatefulPartitionedCall/model_1/transformer_encoder_regressor_1/transformer_batch_norm_encoder_block_1/sequential_2/transformer_batch_norm_encoder_layer_10/multi_head_attention_10/einsum/Einsum", "op": "Einsum", "input": ["StatefulPartitionedCall/model_1/transformer_encoder_regressor_1/transformer_batch_norm_encoder_block_1/sequential_2/transformer_batch_norm_encoder_layer_10/multi_head_attention_10/key/add", "StatefulPartitionedCall/model_1/transformer_encoder_regressor_1/transformer_batch_norm_encoder_block_1/sequential_2/transformer_batch_norm_encoder_layer_10/multi_head_attention_10/Mul"], "attr": {"N": {"i": "2"}, "T": {"type": "DT_FLOAT"}, "equation": {"s": "YWVjZCxhYmNkLT5hY2Jl"}}}, {"name": "StatefulPartitionedCall/model_1/transformer_encoder_regressor_1/transformer_batch_norm_encoder_block_1/sequential_2/transformer_batch_norm_encoder_layer_10/multi_head_attention_10/softmax/Softmax", "op": "Softmax", "input": ["StatefulPartitionedCall/model_1/transformer_encoder_regressor_1/transformer_batch_norm_encoder_block_1/sequential_2/transformer_batch_norm_encoder_layer_10/multi_head_attention_10/einsum/Einsum"], "attr": {"T": {"type": "DT_FLOAT"}}}, {"name": "StatefulPartitionedCall/model_1/transformer_encoder_regressor_1/transformer_batch_norm_encoder_block_1/sequential_2/transformer_batch_norm_encoder_layer_10/multi_head_attention_10/einsum_1/Einsum", "op": "Einsum", "input": ["StatefulPartitionedCall/model_1/transformer_encoder_regressor_1/transformer_batch_norm_encoder_block_1/sequential_2/transformer_batch_norm_encoder_layer_10/multi_head_attention_10/softmax/Softmax", "StatefulPartitionedCall/model_1/transformer_encoder_regressor_1/transformer_batch_norm_encoder_block_1/sequential_2/transformer_batch_norm_encoder_layer_10/multi_head_attention_10/value/add"], "attr": {"N": {"i": "2"}, "equation": {"s": "YWNiZSxhZWNkLT5hYmNk"}, "T": {"type": "DT_FLOAT"}}}, {"name": "StatefulPartitionedCall/model_1/transformer_encoder_regressor_1/transformer_batch_norm_encoder_block_1/sequential_2/transformer_batch_norm_encoder_layer_10/multi_head_attention_10/attention_output/einsum/Einsum", "op": "Einsum", "input": ["StatefulPartitionedCall/model_1/transformer_encoder_regressor_1/transformer_batch_norm_encoder_block_1/sequential_2/transformer_batch_norm_encoder_layer_10/multi_head_attention_10/einsum_1/Einsum", "StatefulPartitionedCall/model_1/transformer_encoder_regressor_1/transformer_batch_norm_encoder_block_1/sequential_2/transformer_batch_norm_encoder_layer_10/multi_head_attention_10/attention_output/einsum/Einsum/ReadVariableOp"], "attr": {"equation": {"s": "YWJjZCxjZGUtPmFiZQ=="}, "T": {"type": "DT_FLOAT"}, "N": {"i": "2"}}}, {"name": "StatefulPartitionedCall/model_1/transformer_encoder_regressor_1/transformer_batch_norm_encoder_block_1/sequential_2/transformer_batch_norm_encoder_layer_10/multi_head_attention_10/attention_output/add", "op": "AddV2", "input": ["StatefulPartitionedCall/model_1/transformer_encoder_regressor_1/transformer_batch_norm_encoder_block_1/sequential_2/transformer_batch_norm_encoder_layer_10/multi_head_attention_10/attention_output/einsum/Einsum", "StatefulPartitionedCall/model_1/transformer_encoder_regressor_1/transformer_batch_norm_encoder_block_1/sequential_2/transformer_batch_norm_encoder_layer_10/multi_head_attention_10/attention_output/add/ReadVariableOp"], "attr": {"T": {"type": "DT_FLOAT"}}}, {"name": "StatefulPartitionedCall/model_1/transformer_encoder_regressor_1/transformer_batch_norm_encoder_block_1/sequential_2/transformer_batch_norm_encoder_layer_10/batch_normalization_20/batchnorm/mul_1", "op": "Mul", "input": ["StatefulPartitionedCall/model_1/transformer_encoder_regressor_1/transformer_batch_norm_encoder_block_1/sequential_2/transformer_batch_norm_encoder_layer_10/multi_head_attention_10/attention_output/add", "StatefulPartitionedCall/model_1/transformer_encoder_regressor_1/transformer_batch_norm_encoder_block_1/sequential_2/transformer_batch_norm_encoder_layer_10/batch_normalization_20/batchnorm/mul"], "attr": {"T": {"type": "DT_FLOAT"}}}, {"name": "StatefulPartitionedCall/model_1/transformer_encoder_regressor_1/transformer_batch_norm_encoder_block_1/sequential_2/transformer_batch_norm_encoder_layer_10/ArithmeticOptimizer/AddOpsRewrite_Leaf_1_add", "op": "AddN", "input": ["StatefulPartitionedCall/model_1/transformer_encoder_regressor_1/transformer_batch_norm_encoder_block_1/sequential_2/transformer_batch_norm_encoder_layer_10/batch_normalization_20/batchnorm/mul_1", "StatefulPartitionedCall/model_1/transformer_encoder_regressor_1/transformer_batch_norm_encoder_block_1/sequential_2/transformer_batch_norm_encoder_layer_10/multi_head_attention_10/attention_output/add"], "attr": {"T": {"type": "DT_FLOAT"}, "_grappler_ArithmeticOptimizer_AddOpsRewriteStage": {"b": true}, "N": {"i": "2"}}}, {"name": "StatefulPartitionedCall/model_1/transformer_encoder_regressor_1/transformer_batch_norm_encoder_block_1/sequential_2/transformer_batch_norm_encoder_layer_10/ArithmeticOptimizer/AddOpsRewrite_add", "op": "AddV2", "input": ["StatefulPartitionedCall/model_1/transformer_encoder_regressor_1/transformer_batch_norm_encoder_block_1/sequential_2/transformer_batch_norm_encoder_layer_10/batch_normalization_20/batchnorm/sub", "StatefulPartitionedCall/model_1/transformer_encoder_regressor_1/transformer_batch_norm_encoder_block_1/sequential_2/transformer_batch_norm_encoder_layer_10/ArithmeticOptimizer/AddOpsRewrite_Leaf_1_add"], "attr": {"T": {"type": "DT_FLOAT"}, "_grappler_ArithmeticOptimizer_AddOpsRewriteStage": {"b": true}}}, {"name": "StatefulPartitionedCall/model_1/transformer_encoder_regressor_1/transformer_batch_norm_encoder_block_1/sequential_2/transformer_batch_norm_encoder_layer_10/dense_31/Tensordot/Shape", "op": "Shape", "input": ["StatefulPartitionedCall/model_1/transformer_encoder_regressor_1/transformer_batch_norm_encoder_block_1/sequential_2/transformer_batch_norm_encoder_layer_10/ArithmeticOptimizer/AddOpsRewrite_add"], "attr": {"T": {"type": "DT_FLOAT"}, "out_type": {"type": "DT_INT32"}}}, {"name": "StatefulPartitionedCall/model_1/transformer_encoder_regressor_1/transformer_batch_norm_encoder_block_1/sequential_2/transformer_batch_norm_encoder_layer_10/dense_31/Tensordot/GatherV2_1", "op": "GatherV2", "input": ["StatefulPartitionedCall/model_1/transformer_encoder_regressor_1/transformer_batch_norm_encoder_block_1/sequential_2/transformer_batch_norm_encoder_layer_10/dense_31/Tensordot/Shape", "StatefulPartitionedCall/model_1/transformer_encoder_regressor_1/transformer_batch_norm_encoder_block_1/sequential_2/transformer_batch_norm_encoder_layer_10/dense_31/Tensordot/axes", "StatefulPartitionedCall/model_1/transformer_encoder_regressor_1/transformer_batch_norm_encoder_block_1/sequential_2/transformer_batch_norm_encoder_layer_10/dense_31/Tensordot/GatherV2_1/axis"], "attr": {"Taxis": {"type": "DT_INT32"}, "Tparams": {"type": "DT_INT32"}, "batch_dims": {"i": "0"}, "Tindices": {"type": "DT_INT32"}}}, {"name": "StatefulPartitionedCall/model_1/transformer_encoder_regressor_1/transformer_batch_norm_encoder_block_1/sequential_2/transformer_batch_norm_encoder_layer_10/dense_31/Tensordot/GatherV2", "op": "GatherV2", "input": ["StatefulPartitionedCall/model_1/transformer_encoder_regressor_1/transformer_batch_norm_encoder_block_1/sequential_2/transformer_batch_norm_encoder_layer_10/dense_31/Tensordot/Shape", "StatefulPartitionedCall/model_1/transformer_encoder_regressor_1/transformer_batch_norm_encoder_block_1/sequential_2/transformer_batch_norm_encoder_layer_10/dense_31/Tensordot/free", "StatefulPartitionedCall/model_1/transformer_encoder_regressor_1/transformer_batch_norm_encoder_block_1/sequential_2/transformer_batch_norm_encoder_layer_10/dense_31/Tensordot/GatherV2/axis"], "attr": {"Taxis": {"type": "DT_INT32"}, "Tparams": {"type": "DT_INT32"}, "Tindices": {"type": "DT_INT32"}, "batch_dims": {"i": "0"}}}, {"name": "StatefulPartitionedCall/model_1/transformer_encoder_regressor_1/transformer_batch_norm_encoder_block_1/sequential_2/transformer_batch_norm_encoder_layer_10/dense_31/Tensordot/Prod_1", "op": "Prod", "input": ["StatefulPartitionedCall/model_1/transformer_encoder_regressor_1/transformer_batch_norm_encoder_block_1/sequential_2/transformer_batch_norm_encoder_layer_10/dense_31/Tensordot/GatherV2_1", "StatefulPartitionedCall/model_1/transformer_encoder_regressor_1/transformer_batch_norm_encoder_block_1/sequential_2/transformer_batch_norm_encoder_layer_10/dense_31/Tensordot/Const_1"], "attr": {"T": {"type": "DT_INT32"}, "Tidx": {"type": "DT_INT32"}, "keep_dims": {"b": false}}}, {"name": "StatefulPartitionedCall/model_1/transformer_encoder_regressor_1/transformer_batch_norm_encoder_block_1/sequential_2/transformer_batch_norm_encoder_layer_10/dense_31/Tensordot/Prod", "op": "Prod", "input": ["StatefulPartitionedCall/model_1/transformer_encoder_regressor_1/transformer_batch_norm_encoder_block_1/sequential_2/transformer_batch_norm_encoder_layer_10/dense_31/Tensordot/GatherV2", "StatefulPartitionedCall/model_1/transformer_encoder_regressor_1/transformer_batch_norm_encoder_block_1/sequential_2/transformer_batch_norm_encoder_layer_10/dense_31/Tensordot/Const"], "attr": {"T": {"type": "DT_INT32"}, "Tidx": {"type": "DT_INT32"}, "keep_dims": {"b": false}}}, {"name": "StatefulPartitionedCall/model_1/transformer_encoder_regressor_1/transformer_batch_norm_encoder_block_1/sequential_2/transformer_batch_norm_encoder_layer_10/dense_31/Tensordot/concat_1", "op": "ConcatV2", "input": ["StatefulPartitionedCall/model_1/transformer_encoder_regressor_1/transformer_batch_norm_encoder_block_1/sequential_2/transformer_batch_norm_encoder_layer_10/dense_31/Tensordot/GatherV2", "StatefulPartitionedCall/model_1/transformer_encoder_regressor_1/transformer_batch_norm_encoder_block_1/sequential_2/transformer_batch_norm_encoder_layer_10/dense_31/Tensordot/Const_2", "StatefulPartitionedCall/model_1/transformer_encoder_regressor_1/transformer_batch_norm_encoder_block_1/sequential_2/transformer_batch_norm_encoder_layer_10/dense_31/Tensordot/concat_1/axis"], "attr": {"T": {"type": "DT_INT32"}, "Tidx": {"type": "DT_INT32"}, "N": {"i": "2"}}}, {"name": "StatefulPartitionedCall/model_1/transformer_encoder_regressor_1/transformer_batch_norm_encoder_block_1/sequential_2/transformer_batch_norm_encoder_layer_10/dense_31/Tensordot/stack", "op": "Pack", "input": ["StatefulPartitionedCall/model_1/transformer_encoder_regressor_1/transformer_batch_norm_encoder_block_1/sequential_2/transformer_batch_norm_encoder_layer_10/dense_31/Tensordot/Prod", "StatefulPartitionedCall/model_1/transformer_encoder_regressor_1/transformer_batch_norm_encoder_block_1/sequential_2/transformer_batch_norm_encoder_layer_10/dense_31/Tensordot/Prod_1"], "attr": {"axis": {"i": "0"}, "N": {"i": "2"}, "T": {"type": "DT_INT32"}}}, {"name": "StatefulPartitionedCall/model_1/transformer_encoder_regressor_1/transformer_batch_norm_encoder_block_1/sequential_2/transformer_batch_norm_encoder_layer_10/dense_31/Tensordot/Reshape", "op": "Reshape", "input": ["StatefulPartitionedCall/model_1/transformer_encoder_regressor_1/transformer_batch_norm_encoder_block_1/sequential_2/transformer_batch_norm_encoder_layer_10/ArithmeticOptimizer/AddOpsRewrite_add", "StatefulPartitionedCall/model_1/transformer_encoder_regressor_1/transformer_batch_norm_encoder_block_1/sequential_2/transformer_batch_norm_encoder_layer_10/dense_31/Tensordot/stack"], "attr": {"T": {"type": "DT_FLOAT"}, "Tshape": {"type": "DT_INT32"}}}, {"name": "StatefulPartitionedCall/model_1/transformer_encoder_regressor_1/transformer_batch_norm_encoder_block_1/sequential_2/transformer_batch_norm_encoder_layer_10/dense_31/Tensordot/MatMul", "op": "MatMul", "input": ["StatefulPartitionedCall/model_1/transformer_encoder_regressor_1/transformer_batch_norm_encoder_block_1/sequential_2/transformer_batch_norm_encoder_layer_10/dense_31/Tensordot/Reshape", "StatefulPartitionedCall/model_1/transformer_encoder_regressor_1/transformer_batch_norm_encoder_block_1/sequential_2/transformer_batch_norm_encoder_layer_10/dense_31/Tensordot/ReadVariableOp"], "device": "/device:CPU:0", "attr": {"transpose_b": {"b": false}, "T": {"type": "DT_FLOAT"}, "transpose_a": {"b": false}}}, {"name": "StatefulPartitionedCall/model_1/transformer_encoder_regressor_1/transformer_batch_norm_encoder_block_1/sequential_2/transformer_batch_norm_encoder_layer_10/dense_31/Tensordot", "op": "Reshape", "input": ["StatefulPartitionedCall/model_1/transformer_encoder_regressor_1/transformer_batch_norm_encoder_block_1/sequential_2/transformer_batch_norm_encoder_layer_10/dense_31/Tensordot/MatMul", "StatefulPartitionedCall/model_1/transformer_encoder_regressor_1/transformer_batch_norm_encoder_block_1/sequential_2/transformer_batch_norm_encoder_layer_10/dense_31/Tensordot/concat_1"], "attr": {"T": {"type": "DT_FLOAT"}, "Tshape": {"type": "DT_INT32"}}}, {"name": "StatefulPartitionedCall/model_1/transformer_encoder_regressor_1/transformer_batch_norm_encoder_block_1/sequential_2/transformer_batch_norm_encoder_layer_10/dense_31/BiasAdd", "op": "BiasAdd", "input": ["StatefulPartitionedCall/model_1/transformer_encoder_regressor_1/transformer_batch_norm_encoder_block_1/sequential_2/transformer_batch_norm_encoder_layer_10/dense_31/Tensordot", "StatefulPartitionedCall/model_1/transformer_encoder_regressor_1/transformer_batch_norm_encoder_block_1/sequential_2/transformer_batch_norm_encoder_layer_10/dense_31/BiasAdd/ReadVariableOp"], "attr": {"T": {"type": "DT_FLOAT"}, "data_format": {"s": "TkhXQw=="}}}, {"name": "StatefulPartitionedCall/model_1/transformer_encoder_regressor_1/transformer_batch_norm_encoder_block_1/sequential_2/transformer_batch_norm_encoder_layer_10/dense_31/Sigmoid", "op": "Sigmoid", "input": ["StatefulPartitionedCall/model_1/transformer_encoder_regressor_1/transformer_batch_norm_encoder_block_1/sequential_2/transformer_batch_norm_encoder_layer_10/dense_31/BiasAdd"], "attr": {"T": {"type": "DT_FLOAT"}}}, {"name": "StatefulPartitionedCall/model_1/transformer_encoder_regressor_1/transformer_batch_norm_encoder_block_1/sequential_2/transformer_batch_norm_encoder_layer_10/dense_32/Tensordot/Shape", "op": "Shape", "input": ["StatefulPartitionedCall/model_1/transformer_encoder_regressor_1/transformer_batch_norm_encoder_block_1/sequential_2/transformer_batch_norm_encoder_layer_10/dense_31/Sigmoid"], "attr": {"out_type": {"type": "DT_INT32"}, "T": {"type": "DT_FLOAT"}}}, {"name": "StatefulPartitionedCall/model_1/transformer_encoder_regressor_1/transformer_batch_norm_encoder_block_1/sequential_2/transformer_batch_norm_encoder_layer_10/dense_32/Tensordot/GatherV2_1", "op": "GatherV2", "input": ["StatefulPartitionedCall/model_1/transformer_encoder_regressor_1/transformer_batch_norm_encoder_block_1/sequential_2/transformer_batch_norm_encoder_layer_10/dense_32/Tensordot/Shape", "StatefulPartitionedCall/model_1/transformer_encoder_regressor_1/transformer_batch_norm_encoder_block_1/sequential_2/transformer_batch_norm_encoder_layer_10/dense_32/Tensordot/axes", "StatefulPartitionedCall/model_1/transformer_encoder_regressor_1/transformer_batch_norm_encoder_block_1/sequential_2/transformer_batch_norm_encoder_layer_10/dense_32/Tensordot/GatherV2_1/axis"], "attr": {"batch_dims": {"i": "0"}, "Tparams": {"type": "DT_INT32"}, "Tindices": {"type": "DT_INT32"}, "Taxis": {"type": "DT_INT32"}}}, {"name": "StatefulPartitionedCall/model_1/transformer_encoder_regressor_1/transformer_batch_norm_encoder_block_1/sequential_2/transformer_batch_norm_encoder_layer_10/dense_32/Tensordot/GatherV2", "op": "GatherV2", "input": ["StatefulPartitionedCall/model_1/transformer_encoder_regressor_1/transformer_batch_norm_encoder_block_1/sequential_2/transformer_batch_norm_encoder_layer_10/dense_32/Tensordot/Shape", "StatefulPartitionedCall/model_1/transformer_encoder_regressor_1/transformer_batch_norm_encoder_block_1/sequential_2/transformer_batch_norm_encoder_layer_10/dense_32/Tensordot/free", "StatefulPartitionedCall/model_1/transformer_encoder_regressor_1/transformer_batch_norm_encoder_block_1/sequential_2/transformer_batch_norm_encoder_layer_10/dense_32/Tensordot/GatherV2/axis"], "attr": {"Tindices": {"type": "DT_INT32"}, "Taxis": {"type": "DT_INT32"}, "batch_dims": {"i": "0"}, "Tparams": {"type":…
_batch_norm_encoder_block_1/sequential_2/transformer_batch_norm_encoder_layer_15/multi_head_attention_15/Mul/y", "shape": [], "dtype": "float32"}, {"name": "StatefulPartitionedCall/model_1/transformer_encoder_regressor_1/transformer_batch_norm_encoder_block_1/sequential_2/transformer_batch_norm_encoder_layer_14/dense_40/Tensordot/Const", "shape": [1], "dtype": "int32"}, {"name": "StatefulPartitionedCall/model_1/transformer_encoder_regressor_1/transformer_batch_norm_encoder_block_1/sequential_2/transformer_batch_norm_encoder_layer_14/dense_40/Tensordot/axes", "shape": [1], "dtype": "int32"}, {"name": "StatefulPartitionedCall/model_1/transformer_encoder_regressor_1/transformer_batch_norm_encoder_block_1/sequential_2/transformer_batch_norm_encoder_layer_14/dense_40/Tensordot/GatherV2_1/axis", "shape": [], "dtype": "int32"}, {"name": "StatefulPartitionedCall/model_1/transformer_encoder_regressor_1/transformer_batch_norm_encoder_block_1/sequential_2/transformer_batch_norm_encoder_layer_14/dense_40/Tensordot/Const_1", "shape": [1], "dtype": "int32"}, {"name": "StatefulPartitionedCall/model_1/transformer_encoder_regressor_1/transformer_batch_norm_encoder_block_1/sequential_2/transformer_batch_norm_encoder_layer_14/dense_40/Tensordot/ReadVariableOp", "shape": [229, 176], "dtype": "float32"}, {"name": "StatefulPartitionedCall/model_1/transformer_encoder_regressor_1/transformer_batch_norm_encoder_block_1/sequential_2/transformer_batch_norm_encoder_layer_14/dense_39/Tensordot/Const", "shape": [1], "dtype": "int32"}, {"name": "StatefulPartitionedCall/model_1/transformer_encoder_regressor_1/transformer_batch_norm_encoder_block_1/sequential_2/transformer_batch_norm_encoder_layer_14/dense_39/Tensordot/axes", "shape": [1], "dtype": "int32"}, {"name": "StatefulPartitionedCall/model_1/transformer_encoder_regressor_1/transformer_batch_norm_encoder_block_1/sequential_2/transformer_batch_norm_encoder_layer_14/dense_39/Tensordot/GatherV2_1/axis", "shape": [], "dtype": "int32"}, {"name": "StatefulPartitionedCall/model_1/transformer_encoder_regressor_1/transformer_batch_norm_encoder_block_1/sequential_2/transformer_batch_norm_encoder_layer_14/dense_39/Tensordot/Const_1", "shape": [1], "dtype": "int32"}, {"name": "StatefulPartitionedCall/model_1/transformer_encoder_regressor_1/transformer_batch_norm_encoder_block_1/sequential_2/transformer_batch_norm_encoder_layer_14/dense_39/Tensordot/ReadVariableOp", "shape": [176, 229], "dtype": "float32"}, {"name": "StatefulPartitionedCall/model_1/transformer_encoder_regressor_1/transformer_batch_norm_encoder_block_1/sequential_2/transformer_batch_norm_encoder_layer_14/dense_39/Tensordot/free", "shape": [2], "dtype": "int32"}, {"name": "StatefulPartitionedCall/model_1/transformer_encoder_regressor_1/transformer_batch_norm_encoder_block_1/sequential_2/transformer_batch_norm_encoder_layer_14/dense_39/Tensordot/GatherV2/axis", "shape": [], "dtype": "int32"}, {"name": "StatefulPartitionedCall/model_1/transformer_encoder_regressor_1/transformer_batch_norm_encoder_block_1/sequential_2/transformer_batch_norm_encoder_layer_14/dense_39/Tensordot/Const_2", "shape": [1], "dtype": "int32"}, {"name": "StatefulPartitionedCall/model_1/transformer_encoder_regressor_1/transformer_batch_norm_encoder_block_1/sequential_2/transformer_batch_norm_encoder_layer_14/dense_39/Tensordot/concat_1/axis", "shape": [], "dtype": "int32"}, {"name": "StatefulPartitionedCall/model_1/transformer_encoder_regressor_1/transformer_batch_norm_encoder_block_1/sequential_2/transformer_batch_norm_encoder_layer_14/dense_39/BiasAdd/ReadVariableOp", "shape": [229], "dtype": "float32"}, {"name": "StatefulPartitionedCall/model_1/transformer_encoder_regressor_1/transformer_batch_norm_encoder_block_1/sequential_2/transformer_batch_norm_encoder_layer_14/dense_40/Tensordot/free", "shape": [2], "dtype": "int32"}, {"name": "StatefulPartitionedCall/model_1/transformer_encoder_regressor_1/transformer_batch_norm_encoder_block_1/sequential_2/transformer_batch_norm_encoder_layer_14/dense_40/Tensordot/GatherV2/axis", "shape": [], "dtype": "int32"}, {"name": "StatefulPartitionedCall/model_1/transformer_encoder_regressor_1/transformer_batch_norm_encoder_block_1/sequential_2/transformer_batch_norm_encoder_layer_14/dense_40/Tensordot/Const_2", "shape": [1], "dtype": "int32"}, {"name": "StatefulPartitionedCall/model_1/transformer_encoder_regressor_1/transformer_batch_norm_encoder_block_1/sequential_2/transformer_batch_norm_encoder_layer_14/dense_40/Tensordot/concat_1/axis", "shape": [], "dtype": "int32"}, {"name": "StatefulPartitionedCall/model_1/transformer_encoder_regressor_1/transformer_batch_norm_encoder_block_1/sequential_2/transformer_batch_norm_encoder_layer_14/dense_40/BiasAdd/ReadVariableOp", "shape": [176], "dtype": "float32"}, {"name": "StatefulPartitionedCall/model_1/transformer_encoder_regressor_1/transformer_batch_norm_encoder_block_1/sequential_2/transformer_batch_norm_encoder_layer_14/batch_normalization_29/batchnorm/mul", "shape": [176], "dtype": "float32"}, {"name": "StatefulPartitionedCall/model_1/transformer_encoder_regressor_1/transformer_batch_norm_encoder_block_1/sequential_2/transformer_batch_norm_encoder_layer_14/batch_normalization_29/batchnorm/sub", "shape": [176], "dtype": "float32"}, {"name": "StatefulPartitionedCall/model_1/transformer_encoder_regressor_1/transformer_batch_norm_encoder_block_1/sequential_2/transformer_batch_norm_encoder_layer_14/batch_normalization_28/batchnorm/sub", "shape": [176], "dtype": "float32"}, {"name": "StatefulPartitionedCall/model_1/transformer_encoder_regressor_1/transformer_batch_norm_encoder_block_1/sequential_2/transformer_batch_norm_encoder_layer_14/batch_normalization_28/batchnorm/mul", "shape": [176], "dtype": "float32"}, {"name": "StatefulPartitionedCall/model_1/transformer_encoder_regressor_1/transformer_batch_norm_encoder_block_1/sequential_2/transformer_batch_norm_encoder_layer_14/multi_head_attention_14/key/einsum/Einsum/ReadVariableOp", "shape": [176, 4, 176], "dtype": "float32"}, {"name": "StatefulPartitionedCall/model_1/transformer_encoder_regressor_1/transformer_batch_norm_encoder_block_1/sequential_2/transformer_batch_norm_encoder_layer_14/multi_head_attention_14/key/add/ReadVariableOp", "shape": [4, 176], "dtype": "float32"}, {"name": "StatefulPartitionedCall/model_1/transformer_encoder_regressor_1/transformer_batch_norm_encoder_block_1/sequential_2/transformer_batch_norm_encoder_layer_14/multi_head_attention_14/query/einsum/Einsum/ReadVariableOp", "shape": [176, 4, 176], "dtype": "float32"}, {"name": "StatefulPartitionedCall/model_1/transformer_encoder_regressor_1/transformer_batch_norm_encoder_block_1/sequential_2/transformer_batch_norm_encoder_layer_14/multi_head_attention_14/query/add/ReadVariableOp", "shape": [4, 176], "dtype": "float32"}, {"name": "StatefulPartitionedCall/model_1/transformer_encoder_regressor_1/transformer_batch_norm_encoder_block_1/sequential_2/transformer_batch_norm_encoder_layer_14/multi_head_attention_14/Mul/y", "shape": [], "dtype": "float32"}, {"name": "StatefulPartitionedCall/model_1/transformer_encoder_regressor_1/transformer_batch_norm_encoder_block_1/sequential_2/transformer_batch_norm_encoder_layer_13/dense_38/Tensordot/Const", "shape": [1], "dtype": "int32"}, {"name": "StatefulPartitionedCall/model_1/transformer_encoder_regressor_1/transformer_batch_norm_encoder_block_1/sequential_2/transformer_batch_norm_encoder_layer_13/dense_38/Tensordot/axes", "shape": [1], "dtype": "int32"}, {"name": "StatefulPartitionedCall/model_1/transformer_encoder_regressor_1/transformer_batch_norm_encoder_block_1/sequential_2/transformer_batch_norm_encoder_layer_13/dense_38/Tensordot/GatherV2_1/axis", "shape": [], "dtype": "int32"}, {"name": "StatefulPartitionedCall/model_1/transformer_encoder_regressor_1/transformer_batch_norm_encoder_block_1/sequential_2/transformer_batch_norm_encoder_layer_13/dense_38/Tensordot/Const_1", "shape": [1], "dtype": "int32"}, {"name": "StatefulPartitionedCall/model_1/transformer_encoder_regressor_1/transformer_batch_norm_encoder_block_1/sequential_2/transformer_batch_norm_encoder_layer_13/dense_38/Tensordot/ReadVariableOp", "shape": [229, 176], "dtype": "float32"}, {"name": "StatefulPartitionedCall/model_1/transformer_encoder_regressor_1/transformer_batch_norm_encoder_block_1/sequential_2/transformer_batch_norm_encoder_layer_13/dense_37/Tensordot/Const", "shape": [1], "dtype": "int32"}, {"name": "StatefulPartitionedCall/model_1/transformer_encoder_regressor_1/transformer_batch_norm_encoder_block_1/sequential_2/transformer_batch_norm_encoder_layer_13/dense_37/Tensordot/axes", "shape": [1], "dtype": "int32"}, {"name": "StatefulPartitionedCall/model_1/transformer_encoder_regressor_1/transformer_batch_norm_encoder_block_1/sequential_2/transformer_batch_norm_encoder_layer_13/dense_37/Tensordot/GatherV2_1/axis", "shape": [], "dtype": "int32"}, {"name": "StatefulPartitionedCall/model_1/transformer_encoder_regressor_1/transformer_batch_norm_encoder_block_1/sequential_2/transformer_batch_norm_encoder_layer_13/dense_37/Tensordot/Const_1", "shape": [1], "dtype": "int32"}, {"name": "StatefulPartitionedCall/model_1/transformer_encoder_regressor_1/transformer_batch_norm_encoder_block_1/sequential_2/transformer_batch_norm_encoder_layer_13/dense_37/Tensordot/ReadVariableOp", "shape": [176, 229], "dtype": "float32"}, {"name": "StatefulPartitionedCall/model_1/transformer_encoder_regressor_1/transformer_batch_norm_encoder_block_1/sequential_2/transformer_batch_norm_encoder_layer_13/dense_37/Tensordot/free", "shape": [2], "dtype": "int32"}, {"name": "StatefulPartitionedCall/model_1/transformer_encoder_regressor_1/transformer_batch_norm_encoder_block_1/sequential_2/transformer_batch_norm_encoder_layer_13/dense_37/Tensordot/GatherV2/axis", "shape": [], "dtype": "int32"}, {"name": "StatefulPartitionedCall/model_1/transformer_encoder_regressor_1/transformer_batch_norm_encoder_block_1/sequential_2/transformer_batch_norm_encoder_layer_13/dense_37/Tensordot/Const_2", "shape": [1], "dtype": "int32"}, {"name": "StatefulPartitionedCall/model_1/transformer_encoder_regressor_1/transformer_batch_norm_encoder_block_1/sequential_2/transformer_batch_norm_encoder_layer_13/dense_37/Tensordot/concat_1/axis", "shape": [], "dtype": "int32"}, {"name": "StatefulPartitionedCall/model_1/transformer_encoder_regressor_1/transformer_batch_norm_encoder_block_1/sequential_2/transformer_batch_norm_encoder_layer_13/dense_37/BiasAdd/ReadVariableOp", "shape": [229], "dtype": "float32"}, {"name": "StatefulPartitionedCall/model_1/transformer_encoder_regressor_1/transformer_batch_norm_encoder_block_1/sequential_2/transformer_batch_norm_encoder_layer_13/dense_38/Tensordot/free", "shape": [2], "dtype": "int32"}, {"name": "StatefulPartitionedCall/model_1/transformer_encoder_regressor_1/transformer_batch_norm_encoder_block_1/sequential_2/transformer_batch_norm_encoder_layer_13/dense_38/Tensordot/GatherV2/axis", "shape": [], "dtype": "int32"}, {"name": "StatefulPartitionedCall/model_1/transformer_encoder_regressor_1/transformer_batch_norm_encoder_block_1/sequential_2/transformer_batch_norm_encoder_layer_13/dense_38/Tensordot/Const_2", "shape": [1], "dtype": "int32"}, {"name": "StatefulPartitionedCall/model_1/transformer_encoder_regressor_1/transformer_batch_norm_encoder_block_1/sequential_2/transformer_batch_norm_encoder_layer_13/dense_38/Tensordot/concat_1/axis", "shape": [], "dtype": "int32"}, {"name": "StatefulPartitionedCall/model_1/transformer_encoder_regressor_1/transformer_batch_norm_encoder_block_1/sequential_2/transformer_batch_norm_encoder_layer_13/dense_38/BiasAdd/ReadVariableOp", "shape": [176], "dtype": "float32"}, {"name": "StatefulPartitionedCall/model_1/transformer_encoder_regressor_1/transformer_batch_norm_encoder_block_1/sequential_2/transformer_batch_norm_encoder_layer_13/batch_normalization_27/batchnorm/mul", "shape": [176], "dtype": "float32"}, {"name": "StatefulPartitionedCall/model_1/transformer_encoder_regressor_1/transformer_batch_norm_encoder_block_1/sequential_2/transformer_batch_norm_encoder_layer_13/batch_normalization_27/batchnorm/sub", "shape": [176], "dtype": "float32"}, {"name": "StatefulPartitionedCall/model_1/transformer_encoder_regressor_1/transformer_batch_norm_encoder_block_1/sequential_2/transformer_batch_norm_encoder_layer_13/batch_normalization_26/batchnorm/sub", "shape": [176], "dtype": "float32"}, {"name": "StatefulPartitionedCall/model_1/transformer_encoder_regressor_1/transformer_batch_norm_encoder_block_1/sequential_2/transformer_batch_norm_encoder_layer_13/batch_normalization_26/batchnorm/mul", "shape": [176], "dtype": "float32"}, {"name": "StatefulPartitionedCall/model_1/transformer_encoder_regressor_1/transformer_batch_norm_encoder_block_1/sequential_2/transformer_batch_norm_encoder_layer_13/multi_head_attention_13/key/einsum/Einsum/ReadVariableOp", "shape": [176, 4, 176], "dtype": "float32"}, {"name": "StatefulPartitionedCall/model_1/transformer_encoder_regressor_1/transformer_batch_norm_encoder_block_1/sequential_2/transformer_batch_norm_encoder_layer_13/multi_head_attention_13/key/add/ReadVariableOp", "shape": [4, 176], "dtype": "float32"}, {"name": "StatefulPartitionedCall/model_1/transformer_encoder_regressor_1/transformer_batch_norm_encoder_block_1/sequential_2/transformer_batch_norm_encoder_layer_13/multi_head_attention_13/query/einsum/Einsum/ReadVariableOp", "shape": [176, 4, 176], "dtype": "float32"}, {"name": "StatefulPartitionedCall/model_1/transformer_encoder_regressor_1/transformer_batch_norm_encoder_block_1/sequential_2/transformer_batch_norm_encoder_layer_13/multi_head_attention_13/query/add/ReadVariableOp", "shape": [4, 176], "dtype": "float32"}, {"name": "StatefulPartitionedCall/model_1/transformer_encoder_regressor_1/transformer_batch_norm_encoder_block_1/sequential_2/transformer_batch_norm_encoder_layer_13/multi_head_attention_13/Mul/y", "shape": [], "dtype": "float32"}, {"name": "StatefulPartitionedCall/model_1/transformer_encoder_regressor_1/transformer_batch_norm_encoder_block_1/sequential_2/transformer_batch_norm_encoder_layer_12/dense_36/Tensordot/Const", "shape": [1], "dtype": "int32"}, {"name": "StatefulPartitionedCall/model_1/transformer_encoder_regressor_1/transformer_batch_norm_encoder_block_1/sequential_2/transformer_batch_norm_encoder_layer_12/dense_36/Tensordot/axes", "shape": [1], "dtype": "int32"}, {"name": "StatefulPartitionedCall/model_1/transformer_encoder_regressor_1/transformer_batch_norm_encoder_block_1/sequential_2/transformer_batch_norm_encoder_layer_12/dense_36/Tensordot/GatherV2_1/axis", "shape": [], "dtype": "int32"}, {"name": "StatefulPartitionedCall/model_1/transformer_encoder_regressor_1/transformer_batch_norm_encoder_block_1/sequential_2/transformer_batch_norm_encoder_layer_12/dense_36/Tensordot/Const_1", "shape": [1], "dtype": "int32"}, {"name": "StatefulPartitionedCall/model_1/transformer_encoder_regressor_1/transformer_batch_norm_encoder_block_1/sequential_2/transformer_batch_norm_encoder_layer_12/dense_36/Tensordot/ReadVariableOp", "shape": [229, 176], "dtype": "float32"}, {"name": "StatefulPartitionedCall/model_1/transformer_encoder_regressor_1/transformer_batch_norm_encoder_block_1/sequential_2/transformer_batch_norm_encoder_layer_12/dense_35/Tensordot/Const", "shape": [1], "dtype": "int32"}, {"name": "StatefulPartitionedCall/model_1/transformer_encoder_regressor_1/transformer_batch_norm_encoder_block_1/sequential_2/transformer_batch_norm_encoder_layer_12/dense_35/Tensordot/axes", "shape": [1], "dtype": "int32"}, {"name": "StatefulPartitionedCall/model_1/transformer_encoder_regressor_1/transformer_batch_norm_encoder_block_1/sequential_2/transformer_batch_norm_encoder_layer_12/dense_35/Tensordot/GatherV2_1/axis", "shape": [], "dtype": "int32"}, {"name": "StatefulPartitionedCall/model_1/transformer_encoder_regressor_1/transformer_batch_norm_encoder_block_1/sequential_2/transformer_batch_norm_encoder_layer_12/dense_35/Tensordot/Const_1", "shape": [1], "dtype": "int32"}, {"name": "StatefulPartitionedCall/model_1/transformer_encoder_regressor_1/transformer_batch_norm_encoder_block_1/sequential_2/transformer_batch_norm_encoder_layer_12/dense_35/Tensordot/ReadVariableOp", "shape": [176, 229], "dtype": "float32"}, {"name": "StatefulPartitionedCall/model_1/transformer_encoder_regressor_1/transformer_batch_norm_encoder_block_1/sequential_2/transformer_batch_norm_encoder_layer_12/dense_35/Tensordot/free", "shape": [2], "dtype": "int32"}, {"name": "StatefulPartitionedCall/model_1/transformer_encoder_regressor_1/transformer_batch_norm_encoder_block_1/sequential_2/transformer_batch_norm_encoder_layer_12/dense_35/Tensordot/GatherV2/axis", "shape": [], "dtype": "int32"}, {"name": "StatefulPartitionedCall/model_1/transformer_encoder_regressor_1/transformer_batch_norm_encoder_block_1/sequential_2/transformer_batch_norm_encoder_layer_12/dense_35/Tensordot/Const_2", "shape": [1], "dtype": "int32"}, {"name": "StatefulPartitionedCall/model_1/transformer_encoder_regressor_1/transformer_batch_norm_encoder_block_1/sequential_2/transformer_batch_norm_encoder_layer_12/dense_35/Tensordot/concat_1/axis", "shape": [], "dtype": "int32"}, {"name": "StatefulPartitionedCall/model_1/transformer_encoder_regressor_1/transformer_batch_norm_encoder_block_1/sequential_2/transformer_batch_norm_encoder_layer_12/dense_35/BiasAdd/ReadVariableOp", "shape": [229], "dtype": "float32"}, {"name": "StatefulPartitionedCall/model_1/transformer_encoder_regressor_1/transformer_batch_norm_encoder_block_1/sequential_2/transformer_batch_norm_encoder_layer_12/dense_36/Tensordot/free", "shape": [2], "dtype": "int32"}, {"name": "StatefulPartitionedCall/model_1/transformer_encoder_regressor_1/transformer_batch_norm_encoder_block_1/sequential_2/transformer_batch_norm_encoder_layer_12/dense_36/Tensordot/GatherV2/axis", "shape": [], "dtype": "int32"}, {"name": "StatefulPartitionedCall/model_1/transformer_encoder_regressor_1/transformer_batch_norm_encoder_block_1/sequential_2/transformer_batch_norm_encoder_layer_12/dense_36/Tensordot/Const_2", "shape": [1], "dtype": "int32"}, {"name": "StatefulPartitionedCall/model_1/transformer_encoder_regressor_1/transformer_batch_norm_encoder_block_1/sequential_2/transformer_batch_norm_encoder_layer_12/dense_36/Tensordot/concat_1/axis", "shape": [], "dtype": "int32"}, {"name": "StatefulPartitionedCall/model_1/transformer_encoder_regressor_1/transformer_batch_norm_encoder_block_1/sequential_2/transformer_batch_norm_encoder_layer_12/dense_36/BiasAdd/ReadVariableOp", "shape": [176], "dtype": "float32"}, {"name": "StatefulPartitionedCall/model_1/transformer_encoder_regressor_1/transformer_batch_norm_encoder_block_1/sequential_2/transformer_batch_norm_encoder_layer_12/batch_normalization_25/batchnorm/mul", "shape": [176], "dtype": "float32"}, {"name": "StatefulPartitionedCall/model_1/transformer_encoder_regressor_1/transformer_batch_norm_encoder_block_1/sequential_2/transformer_batch_norm_encoder_layer_12/batch_normalization_25/batchnorm/sub", "shape": [176], "dtype": "float32"}, {"name": "StatefulPartitionedCall/model_1/transformer_encoder_regressor_1/transformer_batch_norm_encoder_block_1/sequential_2/transformer_batch_norm_encoder_layer_12/batch_normalization_24/batchnorm/sub", "shape": [176], "dtype": "float32"}, {"name": "StatefulPartitionedCall/model_1/transformer_encoder_regressor_1/transformer_batch_norm_encoder_block_1/sequential_2/transformer_batch_norm_encoder_layer_12/batch_normalization_24/batchnorm/mul", "shape": [176], "dtype": "float32"}, {"name": "StatefulPartitionedCall/model_1/transformer_encoder_regressor_1/transformer_batch_norm_encoder_block_1/sequential_2/transformer_batch_norm_encoder_layer_12/multi_head_attention_12/key/einsum/Einsum/ReadVariableOp", "shape": [176, 4, 176], "dtype": "float32"}, {"name": "StatefulPartitionedCall/model_1/transformer_encoder_regressor_1/transformer_batch_norm_encoder_block_1/sequential_2/transformer_batch_norm_encoder_layer_12/multi_head_attention_12/key/add/ReadVariableOp", "shape": [4, 176], "dtype": "float32"}, {"name": "StatefulPartitionedCall/model_1/transformer_encoder_regressor_1/transformer_batch_norm_encoder_block_1/sequential_2/transformer_batch_norm_encoder_layer_12/multi_head_attention_12/query/einsum/Einsum/ReadVariableOp", "shape": [176, 4, 176], "dtype": "float32"}, {"name": "StatefulPartitionedCall/model_1/transformer_encoder_regressor_1/transformer_batch_norm_encoder_block_1/sequential_2/transformer_batch_norm_encoder_layer_12/multi_head_attention_12/query/add/ReadVariableOp", "shape": [4, 176], "dtype": "float32"}, {"name": "StatefulPartitionedCall/model_1/transformer_encoder_regressor_1/transformer_batch_norm_encoder_block_1/sequential_2/transformer_batch_norm_encoder_layer_12/multi_head_attention_12/Mul/y", "shape": [], "dtype": "float32"}, {"name": "StatefulPartitionedCall/model_1/transformer_encoder_regressor_1/transformer_batch_norm_encoder_block_1/sequential_2/transformer_batch_norm_encoder_layer_11/dense_34/Tensordot/Const", "shape": [1], "dtype": "int32"}, {"name": "StatefulPartitionedCall/model_1/transformer_encoder_regressor_1/transformer_batch_norm_encoder_block_1/sequential_2/transformer_batch_norm_encoder_layer_11/dense_34/Tensordot/axes", "shape": [1], "dtype": "int32"}, {"name": "StatefulPartitionedCall/model_1/transformer_encoder_regressor_1/transformer_batch_norm_encoder_block_1/sequential_2/transformer_batch_norm_encoder_layer_11/dense_34/Tensordot/GatherV2_1/axis", "shape": [], "dtype": "int32"}, {"name": "StatefulPartitionedCall/model_1/transformer_encoder_regressor_1/transformer_batch_norm_encoder_block_1/sequential_2/transformer_batch_norm_encoder_layer_11/dense_34/Tensordot/Const_1", "shape": [1], "dtype": "int32"}, {"name": "StatefulPartitionedCall/model_1/transformer_encoder_regressor_1/transformer_batch_norm_encoder_block_1/sequential_2/transformer_batch_norm_encoder_layer_11/dense_34/Tensordot/ReadVariableOp", "shape": [229, 176], "dtype": "float32"}, {"name": "StatefulPartitionedCall/model_1/transformer_encoder_regressor_1/transformer_batch_norm_encoder_block_1/sequential_2/transformer_batch_norm_encoder_layer_11/dense_33/Tensordot/Const", "shape": [1], "dtype": "int32"}, {"name": "StatefulPartitionedCall/model_1/transformer_encoder_regressor_1/transformer_batch_norm_encoder_block_1/sequential_2/transformer_batch_norm_encoder_layer_11/dense_33/Tensordot/axes", "shape": [1], "dtype": "int32"}, {"name": "StatefulPartitionedCall/model_1/transformer_encoder_regressor_1/transformer_batch_norm_encoder_block_1/sequential_2/transformer_batch_norm_encoder_layer_11/dense_33/Tensordot/GatherV2_1/axis", "shape": [], "dtype": "int32"}, {"name": "StatefulPartitionedCall/model_1/transformer_encoder_regressor_1/transformer_batch_norm_encoder_block_1/sequential_2/transformer_batch_norm_encoder_layer_11/dense_33/Tensordot/Const_1", "shape": [1], "dtype": "int32"}, {"name": "StatefulPartitionedCall/model_1/transformer_encoder_regressor_1/transformer_batch_norm_encoder_block_1/sequential_2/transformer_batch_norm_encoder_layer_11/dense_33/Tensordot/ReadVariableOp", "shape": [176, 229], "dtype": "float32"}, {"name": "StatefulPartitionedCall/model_1/transformer_encoder_regressor_1/transformer_batch_norm_encoder_block_1/sequential_2/transformer_batch_norm_encoder_layer_11/dense_33/Tensordot/free", "shape": [2], "dtype": "int32"}, {"name": "StatefulPartitionedCall/model_1/transformer_encoder_regressor_1/transformer_batch_norm_encoder_block_1/sequential_2/transformer_batch_norm_encoder_layer_11/dense_33/Tensordot/GatherV2/axis", "shape": [], "dtype": "int32"}, {"name": "StatefulPartitionedCall/model_1/transformer_encoder_regressor_1/transformer_batch_norm_encoder_block_1/sequential_2/transformer_batch_norm_encoder_layer_11/dense_33/Tensordot/Const_2", "shape": [1], "dtype": "int32"}, {"name": "StatefulPartitionedCall/model_1/transformer_encoder_regressor_1/transformer_batch_norm_encoder_block_1/sequential_2/transformer_batch_norm_encoder_layer_11/dense_33/Tensordot/concat_1/axis", "shape": [], "dtype": "int32"}, {"name": "StatefulPartitionedCall/model_1/transformer_encoder_regressor_1/transformer_batch_norm_encoder_block_1/sequential_2/transformer_batch_norm_encoder_layer_11/dense_33/BiasAdd/ReadVariableOp", "shape": [229], "dtype": "float32"}, {"name": "StatefulPartitionedCall/model_1/transformer_encoder_regressor_1/transformer_batch_norm_encoder_block_1/sequential_2/transformer_batch_norm_encoder_layer_11/dense_34/Tensordot/free", "shape": [2], "dtype": "int32"}, {"name": "StatefulPartitionedCall/model_1/transformer_encoder_regressor_1/transformer_batch_norm_encoder_block_1/sequential_2/transformer_batch_norm_encoder_layer_11/dense_34/Tensordot/GatherV2/axis", "shape": [], "dtype": "int32"}, {"name": "StatefulPartitionedCall/model_1/transformer_encoder_regressor_1/transformer_batch_norm_encoder_block_1/sequential_2/transformer_batch_norm_encoder_layer_11/dense_34/Tensordot/Const_2", "shape": [1], "dtype": "int32"}, {"name": "StatefulPartitionedCall/model_1/transformer_encoder_regressor_1/transformer_batch_norm_encoder_block_1/sequential_2/transformer_batch_norm_encoder_layer_11/dense_34/Tensordot/concat_1/axis", "shape": [], "dtype": "int32"}, {"name": "StatefulPartitionedCall/model_1/transformer_encoder_regressor_1/transformer_batch_norm_encoder_block_1/sequential_2/transformer_batch_norm_encoder_layer_11/dense_34/BiasAdd/ReadVariableOp", "shape": [176], "dtype": "float32"}, {"name": "StatefulPartitionedCall/model_1/transformer_encoder_regressor_1/transformer_batch_norm_encoder_block_1/sequential_2/transformer_batch_norm_encoder_layer_11/batch_normalization_23/batchnorm/mul", "shape": [176], "dtype": "float32"}, {"name": "StatefulPartitionedCall/model_1/transformer_encoder_regressor_1/transformer_batch_norm_encoder_block_1/sequential_2/transformer_batch_norm_encoder_layer_11/batch_normalization_23/batchnorm/sub", "shape": [176], "dtype": "float32"}, {"name": "StatefulPartitionedCall/model_1/transformer_encoder_regressor_1/transformer_batch_norm_encoder_block_1/sequential_2/transformer_batch_norm_encoder_layer_11/batch_normalization_22/batchnorm/sub", "shape": [176], "dtype": "float32"}, {"name": "StatefulPartitionedCall/model_1/transformer_encoder_regressor_1/transformer_batch_norm_encoder_block_1/sequential_2/transformer_batch_norm_encoder_layer_11/batch_normalization_22/batchnorm/mul", "shape": [176], "dtype": "float32"}, {"name": "StatefulPartitionedCall/model_1/transformer_encoder_regressor_1/transformer_batch_norm_encoder_block_1/sequential_2/transformer_batch_norm_encoder_layer_11/multi_head_attention_11/key/einsum/Einsum/ReadVariableOp", "shape": [176, 4, 176], "dtype": "float32"}, {"name": "StatefulPartitionedCall/model_1/transformer_encoder_regressor_1/transformer_batch_norm_encoder_block_1/sequential_2/transformer_batch_norm_encoder_layer_11/multi_head_attention_11/key/add/ReadVariableOp", "shape": [4, 176], "dtype": "float32"}, {"name": "StatefulPartitionedCall/model_1/transformer_encoder_regressor_1/transformer_batch_norm_encoder_block_1/sequential_2/transformer_batch_norm_encoder_layer_11/multi_head_attention_11/query/einsum/Einsum/ReadVariableOp", "shape": [176, 4, 176], "dtype": "float32"}, {"name": "StatefulPartitionedCall/model_1/transformer_encoder_regressor_1/transformer_batch_norm_encoder_block_1/sequential_2/transformer_batch_norm_encoder_layer_11/multi_head_attention_11/query/add/ReadVariableOp", "shape": [4, 176], "dtype": "float32"}, {"name": "StatefulPartitionedCall/model_1/transformer_encoder_regressor_1/transformer_batch_norm_encoder_block_1/sequential_2/transformer_batch_norm_encoder_layer_11/multi_head_attention_11/Mul/y", "shape": [], "dtype": "float32"}, {"name": "StatefulPartitionedCall/model_1/transformer_encoder_regressor_1/transformer_batch_norm_encoder_block_1/sequential_2/transformer_batch_norm_encoder_layer_10/dense_32/Tensordot/Const", "shape": [1], "dtype": "int32"}, {"name": "StatefulPartitionedCall/model_1/transformer_encoder_regressor_1/transformer_batch_norm_encoder_block_1/sequential_2/transformer_batch_norm_encoder_layer_10/dense_32/Tensordot/axes", "shape": [1], "dtype": "int32"}, {"name": "StatefulPartitionedCall/model_1/transformer_encoder_regressor_1/transformer_batch_norm_encoder_block_1/sequential_2/transformer_batch_norm_encoder_layer_10/dense_32/Tensordot/GatherV2_1/axis", "shape": [], "dtype": "int32"}, {"name": "StatefulPartitionedCall/model_1/transformer_encoder_regressor_1/transformer_batch_norm_encoder_block_1/sequential_2/transformer_batch_norm_encoder_layer_10/dense_32/Tensordot/Const_1", "shape": [1], "dtype": "int32"}, {"name": "StatefulPartitionedCall/model_1/transformer_encoder_regressor_1/transformer_batch_norm_encoder_block_1/sequential_2/transformer_batch_norm_encoder_layer_10/dense_32/Tensordot/ReadVariableOp", "shape": [229, 176], "dtype": "float32"}, {"name": "StatefulPartitionedCall/model_1/transformer_encoder_regressor_1/transformer_batch_norm_encoder_block_1/sequential_2/transformer_batch_norm_encoder_layer_10/dense_31/Tensordot/Const", "shape": [1], "dtype": "int32"}, {"name": "StatefulPartitionedCall/model_1/transformer_encoder_regressor_1/transformer_batch_norm_encoder_block_1/sequential_2/transformer_batch_norm_encoder_layer_10/dense_31/Tensordot/axes", "shape": [1], "dtype": "int32"}, {"name": "StatefulPartitionedCall/model_1/transformer_encoder_regressor_1/transformer_batch_norm_encoder_block_1/sequential_2/transformer_batch_norm_encoder_layer_10/dense_31/Tensordot/GatherV2_1/axis", "shape": [], "dtype": "int32"}, {"name": "StatefulPartitionedCall/model_1/transformer_encoder_regressor_1/transformer_batch_norm_encoder_block_1/sequential_2/transformer_batch_norm_encoder_layer_10/dense_31/Tensordot/Const_1", "shape": [1], "dtype": "int32"}, {"name": "StatefulPartitionedCall/model_1/transformer_encoder_regressor_1/transformer_batch_norm_encoder_block_1/sequential_2/transformer_batch_norm_encoder_layer_10/dense_31/Tensordot/ReadVariableOp", "shape": [176, 229], "dtype": "float32"}, {"name": "StatefulPartitionedCall/model_1/transformer_encoder_regressor_1/transformer_batch_norm_encoder_block_1/sequential_2/transformer_batch_norm_encoder_layer_10/dense_31/Tensordot/free", "shape": [2], "dtype": "int32"}, {"name": "StatefulPartitionedCall/model_1/transformer_encoder_regressor_1/transformer_batch_norm_encoder_block_1/sequential_2/transformer_batch_norm_encoder_layer_10/dense_31/Tensordot/GatherV2/axis", "shape": [], "dtype": "int32"}, {"name": "StatefulPartitionedCall/model_1/transformer_encoder_regressor_1/transformer_batch_norm_encoder_block_1/sequential_2/transformer_batch_norm_encoder_layer_10/dense_31/Tensordot/Const_2", "shape": [1], "dtype": "int32"}, {"name": "StatefulPartitionedCall/model_1/transformer_encoder_regressor_1/transformer_batch_norm_encoder_block_1/sequential_2/transformer_batch_norm_encoder_layer_10/dense_31/Tensordot/concat_1/axis", "shape": [], "dtype": "int32"}, {"name": "StatefulPartitionedCall/model_1/transformer_encoder_regressor_1/transformer_batch_norm_encoder_block_1/sequential_2/transformer_batch_norm_encoder_layer_10/dense_31/BiasAdd/ReadVariableOp", "shape": [229], "dtype": "float32"}, {"name": "StatefulPartitionedCall/model_1/transformer_encoder_regressor_1/transformer_batch_norm_encoder_block_1/sequential_2/transformer_batch_norm_encoder_layer_10/dense_32/Tensordot/free", "shape": [2], "dtype": "int32"}, {"name": "StatefulPartitionedCall/model_1/transformer_encoder_regressor_1/transformer_batch_norm_encoder_block_1/sequential_2/transformer_batch_norm_encoder_layer_10/dense_32/Tensordot/GatherV2/axis", "shape": [], "dtype": "int32"}, {"name": "StatefulPartitionedCall/model_1/transformer_encoder_regressor_1/transformer_batch_norm_encoder_block_1/sequential_2/transformer_batch_norm_encoder_layer_10/dense_32/Tensordot/Const_2", "shape": [1], "dtype": "int32"}, {"name": "StatefulPartitionedCall/model_1/transformer_encoder_regressor_1/transformer_batch_norm_encoder_block_1/sequential_2/transformer_batch_norm_encoder_layer_10/dense_32/Tensordot/concat_1/axis", "shape": [], "dtype": "int32"}, {"name": "StatefulPartitionedCall/model_1/transformer_encoder_regressor_1/transformer_batch_norm_encoder_block_1/sequential_2/transformer_batch_norm_encoder_layer_10/dense_32/BiasAdd/ReadVariableOp", "shape": [176], "dtype": "float32"}, {"name": "StatefulPartitionedCall/model_1/transformer_encoder_regressor_1/transformer_batch_norm_encoder_block_1/sequential_2/transformer_batch_norm_encoder_layer_10/batch_normalization_21/batchnorm/mul", "shape": [176], "dtype": "float32"}, {"name": "StatefulPartitionedCall/model_1/transformer_encoder_regressor_1/transformer_batch_norm_encoder_block_1/sequential_2/transformer_batch_norm_encoder_layer_10/batch_normalization_21/batchnorm/sub", "shape": [176], "dtype": "float32"}, {"name": "StatefulPartitionedCall/model_1/transformer_encoder_regressor_1/transformer_batch_norm_encoder_block_1/sequential_2/transformer_batch_norm_encoder_layer_10/batch_normalization_20/batchnorm/sub", "shape": [176], "dtype": "float32"}, {"name": "StatefulPartitionedCall/model_1/transformer_encoder_regressor_1/transformer_batch_norm_encoder_block_1/sequential_2/transformer_batch_norm_encoder_layer_10/batch_normalization_20/batchnorm/mul", "shape": [176], "dtype": "float32"}, {"name": "StatefulPartitionedCall/model_1/transformer_encoder_regressor_1/transformer_batch_norm_encoder_block_1/sequential_2/transformer_batch_norm_encoder_layer_10/multi_head_attention_10/key/einsum/Einsum/ReadVariableOp", "shape": [176, 4, 176], "dtype": "float32"}, {"name": "StatefulPartitionedCall/model_1/transformer_encoder_regressor_1/transformer_batch_norm_encoder_block_1/sequential_2/transformer_batch_norm_encoder_layer_10/multi_head_attention_10/key/add/ReadVariableOp", "shape": [4, 176], "dtype": "float32"}, {"name": "StatefulPartitionedCall/model_1/transformer_encoder_regressor_1/transformer_batch_norm_encoder_block_1/sequential_2/transformer_batch_norm_encoder_layer_10/multi_head_attention_10/query/einsum/Einsum/ReadVariableOp", "shape": [176, 4, 176], "dtype": "float32"}, {"name": "StatefulPartitionedCall/model_1/transformer_encoder_regressor_1/transformer_batch_norm_encoder_block_1/sequential_2/transformer_batch_norm_encoder_layer_10/multi_head_attention_10/query/add/ReadVariableOp", "shape": [4, 176], "dtype": "float32"}, {"name": "StatefulPartitionedCall/model_1/transformer_encoder_regressor_1/transformer_batch_norm_encoder_block_1/sequential_2/transformer_batch_norm_encoder_layer_10/multi_head_attention_10/Mul/y", "shape": [], "dtype": "float32"}, {"name": "StatefulPartitionedCall/model_1/transformer_encoder_regressor_1/dense_30/Tensordot/Const", "shape": [1], "dtype": "int32"}, {"name": "StatefulPartitionedCall/model_1/transformer_encoder_regressor_1/dense_30/Tensordot/axes", "shape": [1], "dtype": "int32"}, {"name": "StatefulPartitionedCall/model_1/transformer_encoder_regressor_1/dense_30/Tensordot/GatherV2_1/axis", "shape": [], "dtype": "int32"}, {"name": "StatefulPartitionedCall/model_1/transformer_encoder_regressor_1/dense_30/Tensordot/Const_1", "shape": [1], "dtype": "int32"}, {"name": "StatefulPartitionedCall/model_1/transformer_encoder_regressor_1/dense_30/Tensordot/ReadVariableOp", "shape": [9, 176], "dtype": "float32"}, {"name": "StatefulPartitionedCall/model_1/transformer_encoder_regressor_1/dense_30/Tensordot/free", "shape": [2], "dtype": "int32"}, {"name": "StatefulPartitionedCall/model_1/transformer_encoder_regressor_1/dense_30/Tensordot/GatherV2/axis", "shape": [], "dtype": "int32"}, {"name": "StatefulPartitionedCall/model_1/transformer_encoder_regressor_1/dense_30/Tensordot/Const_2", "shape": [1], "dtype": "int32"}, {"name": "StatefulPartitionedCall/model_1/transformer_encoder_regressor_1/dense_30/Tensordot/concat_1/axis", "shape": [], "dtype": "int32"}, {"name": "StatefulPartitionedCall/model_1/transformer_encoder_regressor_1/dense_30/BiasAdd/ReadVariableOp", "shape": [176], "dtype": "float32"}, {"name": "StatefulPartitionedCall/model_1/transformer_encoder_regressor_1/mul/y", "shape": [], "dtype": "float32"}, {"name": "StatefulPartitionedCall/model_1/transformer_encoder_regressor_1/learnable_position_encoding_1/strided_slice", "shape": [13, 176], "dtype": "float32"}, {"name": "StatefulPartitionedCall/model_1/transformer_encoder_regressor_1/transformer_batch_norm_encoder_block_1/sequential_2/transformer_batch_norm_encoder_layer_10/multi_head_attention_10/value/einsum/Einsum/ReadVariableOp", "shape": [176, 4, 176], "dtype": "float32"}, {"name": "StatefulPartitionedCall/model_1/transformer_encoder_regressor_1/transformer_batch_norm_encoder_block_1/sequential_2/transformer_batch_norm_encoder_layer_10/multi_head_attention_10/value/add/ReadVariableOp", "shape": [4, 176], "dtype": "float32"}, {"name": "StatefulPartitionedCall/model_1/transformer_encoder_regressor_1/transformer_batch_norm_encoder_block_1/sequential_2/transformer_batch_norm_encoder_layer_10/multi_head_attention_10/attention_output/einsum/Einsum/ReadVariableOp", "shape": [4, 176, 176], "dtype": "float32"}, {"name": "StatefulPartitionedCall/model_1/transformer_encoder_regressor_1/transformer_batch_norm_encoder_block_1/sequential_2/transformer_batch_norm_encoder_layer_10/multi_head_attention_10/attention_output/add/ReadVariableOp", "shape": [176], "dtype": "float32"}, {"name": "StatefulPartitionedCall/model_1/transformer_encoder_regressor_1/transformer_batch_norm_encoder_block_1/sequential_2/transformer_batch_norm_encoder_layer_11/multi_head_attention_11/value/einsum/Einsum/ReadVariableOp", "shape": [176, 4, 176], "dtype": "float32"}, {"name": "StatefulPartitionedCall/model_1/transformer_encoder_regressor_1/transformer_batch_norm_encoder_block_1/sequential_2/transformer_batch_norm_encoder_layer_11/multi_head_attention_11/value/add/ReadVariableOp", "shape": [4, 176], "dtype": "float32"}, {"name": "StatefulPartitionedCall/model_1/transformer_encoder_regressor_1/transformer_batch_norm_encoder_block_1/sequential_2/transformer_batch_norm_encoder_layer_11/multi_head_attention_11/attention_output/einsum/Einsum/ReadVariableOp", "shape": [4, 176, 176], "dtype": "float32"}, {"name": "StatefulPartitionedCall/model_1/transformer_encoder_regressor_1/transformer_batch_norm_encoder_block_1/sequential_2/transformer_batch_norm_encoder_layer_11/multi_head_attention_11/attention_output/add/ReadVariableOp", "shape": [176], "dtype": "float32"}, {"name": "StatefulPartitionedCall/model_1/transformer_encoder_regressor_1/transformer_batch_norm_encoder_block_1/sequential_2/transformer_batch_norm_encoder_layer_12/multi_head_attention_12/value/einsum/Einsum/ReadVariableOp", "shape": [176, 4, 176], "dtype": "float32"}, {"name": "StatefulPartitionedCall/model_1/transformer_encoder_regressor_1/transformer_batch_norm_encoder_block_1/sequential_2/transformer_batch_norm_encoder_layer_12/multi_head_attention_12/value/add/ReadVariableOp", "shape": [4, 176], "dtype": "float32"}, {"name": "StatefulPartitionedCall/model_1/transformer_encoder_regressor_1/transformer_batch_norm_encoder_block_1/sequential_2/transformer_batch_norm_encoder_layer_12/multi_head_attention_12/attention_output/einsum/Einsum/ReadVariableOp", "shape": [4, 176, 176], "dtype": "float32"}, {"name": "StatefulPartitionedCall/model_1/transformer_encoder_regressor_1/transformer_batch_norm_encoder_block_1/sequential_2/transformer_batch_norm_encoder_layer_12/multi_head_attention_12/attention_output/add/ReadVariableOp", "shape": [176], "dtype": "float32"}, {"name": "StatefulPartitionedCall/model_1/transformer_encoder_regressor_1/transformer_batch_norm_encoder_block_1/sequential_2/transformer_batch_norm_encoder_layer_13/multi_head_attention_13/value/einsum/Einsum/ReadVariableOp", "shape": [176, 4, 176], "dtype": "float32"}, {"name": "StatefulPartitionedCall/model_1/transformer_encoder_regressor_1/transformer_batch_norm_encoder_block_1/sequential_2/transformer_batch_norm_encoder_layer_13/multi_head_attention_13/value/add/ReadVariableOp", "shape": [4, 176], "dtype": "float32"}, {"name": "StatefulPartitionedCall/model_1/transformer_encoder_regressor_1/transformer_batch_norm_encoder_block_1/sequential_2/transformer_batch_norm_encoder_layer_13/multi_head_attention_13/attention_output/einsum/Einsum/ReadVariableOp", "shape": [4, 176, 176], "dtype": "float32"}, {"name": "StatefulPartitionedCall/model_1/transformer_encoder_regressor_1/transformer_batch_norm_encoder_block_1/sequential_2/transformer_batch_norm_encoder_layer_13/multi_head_attention_13/attention_output/add/ReadVariableOp", "shape": [176], "dtype": "float32"}, {"name": "StatefulPartitionedCall/model_1/transformer_encoder_regressor_1/transformer_batch_norm_encoder_block_1/sequential_2/transformer_batch_norm_encoder_layer_14/multi_head_attention_14/value/einsum/Einsum/ReadVariableOp", "shape": [176, 4, 176], "dtype": "float32"}, {"name": "StatefulPartitionedCall/model_1/transformer_encoder_regressor_1/transformer_batch_norm_encoder_block_1/sequential_2/transformer_batch_norm_encoder_layer_14/multi_head_attention_14/value/add/ReadVariableOp", "shape": [4, 176], "dtype": "float32"}, {"name": "StatefulPartitionedCall/model_1/transformer_encoder_regressor_1/transformer_batch_norm_encoder_block_1/sequential_2/transformer_batch_norm_encoder_layer_14/multi_head_attention_14/attention_output/einsum/Einsum/ReadVariableOp", "shape": [4, 176, 176], "dtype": "float32"}, {"name": "StatefulPartitionedCall/model_1/transformer_encoder_regressor_1/transformer_batch_norm_encoder_block_1/sequential_2/transformer_batch_norm_encoder_layer_14/multi_head_attention_14/attention_output/add/ReadVariableOp", "shape": [176], "dtype": "float32"}, {"name": "StatefulPartitionedCall/model_1/transformer_encoder_regressor_1/transformer_batch_norm_encoder_block_1/sequential_2/transformer_batch_norm_encoder_layer_15/multi_head_attention_15/value/einsum/Einsum/ReadVariableOp", "shape": [176, 4, 176], "dtype": "float32"}, {"name": "StatefulPartitionedCall/model_1/transformer_encoder_regressor_1/transformer_batch_norm_encoder_block_1/sequential_2/transformer_batch_norm_encoder_layer_15/multi_head_attention_15/value/add/ReadVariableOp", "shape": [4, 176], "dtype": "float32"}, {"name": "StatefulPartitionedCall/model_1/transformer_encoder_regressor_1/transformer_batch_norm_encoder_block_1/sequential_2/transformer_batch_norm_encoder_layer_15/multi_head_attention_15/attention_output/einsum/Einsum/ReadVariableOp", "shape": [4, 176, 176], "dtype": "float32"}, {"name": "StatefulPartitionedCall/model_1/transformer_encoder_regressor_1/transformer_batch_norm_encoder_block_1/sequential_2/transformer_batch_norm_encoder_layer_15/multi_head_attention_15/attention_output/add/ReadVariableOp", "shape": [176], "dtype": "float32"}, {"name": "StatefulPartitionedCall/model_1/transformer_encoder_regressor_1/transformer_batch_norm_encoder_block_1/sequential_2/transformer_batch_norm_encoder_layer_16/multi_head_attention_16/value/einsum/Einsum/ReadVariableOp", "shape": [176, 4, 176], "dtype": "float32"}, {"name": "StatefulPartitionedCall/model_1/transformer_encoder_regressor_1/transformer_batch_norm_encoder_block_1/sequential_2/transformer_batch_norm_encoder_layer_16/multi_head_attention_16/value/add/ReadVariableOp", "shape": [4, 176], "dtype": "float32"}, {"name": "StatefulPartitionedCall/model_1/transformer_encoder_regressor_1/transformer_batch_norm_encoder_block_1/sequential_2/transformer_batch_norm_encoder_layer_16/multi_head_attention_16/attention_output/einsum/Einsum/ReadVariableOp", "shape": [4, 176, 176], "dtype": "float32"}, {"name": "StatefulPartitionedCall/model_1/transformer_encoder_regressor_1/transformer_batch_norm_encoder_block_1/sequential_2/transformer_batch_norm_encoder_layer_16/multi_head_attention_16/attention_output/add/ReadVariableOp", "shape": [176], "dtype": "float32"}, {"name": "StatefulPartitionedCall/model_1/transformer_encoder_regressor_1/transformer_batch_norm_encoder_block_1/sequential_2/transformer_batch_norm_encoder_layer_17/multi_head_attention_17/value/einsum/Einsum/ReadVariableOp", "shape": [176, 4, 176], "dtype": "float32"}, {"name": "StatefulPartitionedCall/model_1/transformer_encoder_regressor_1/transformer_batch_norm_encoder_block_1/sequential_2/transformer_batch_norm_encoder_layer_17/multi_head_attention_17/value/add/ReadVariableOp", "shape": [4, 176], "dtype": "float32"}, {"name": "StatefulPartitionedCall/model_1/transformer_encoder_regressor_1/transformer_batch_norm_encoder_block_1/sequential_2/transformer_batch_norm_encoder_layer_17/multi_head_attention_17/attention_output/einsum/Einsum/ReadVariableOp", "shape": [4, 176, 176], "dtype": "float32"}, {"name": "StatefulPartitionedCall/model_1/transformer_encoder_regressor_1/transformer_batch_norm_encoder_block_1/sequential_2/transformer_batch_norm_encoder_layer_17/multi_head_attention_17/attention_output/add/ReadVariableOp", "shape": [176], "dtype": "float32"}, {"name": "StatefulPartitionedCall/model_1/transformer_encoder_regressor_1/transformer_batch_norm_encoder_block_1/sequential_2/transformer_batch_norm_encoder_layer_18/multi_head_attention_18/value/einsum/Einsum/ReadVariableOp", "shape": [176, 4, 176], "dtype": "float32"}, {"name": "StatefulPartitionedCall/model_1/transformer_encoder_regressor_1/transformer_batch_norm_encoder_block_1/sequential_2/transformer_batch_norm_encoder_layer_18/multi_head_attention_18/value/add/ReadVariableOp", "shape": [4, 176], "dtype": "float32"}, {"name": "StatefulPartitionedCall/model_1/transformer_encoder_regressor_1/transformer_batch_norm_encoder_block_1/sequential_2/transformer_batch_norm_encoder_layer_18/multi_head_attention_18/attention_output/einsum/Einsum/ReadVariableOp", "shape": [4, 176, 176], "dtype": "float32"}, {"name": "StatefulPartitionedCall/model_1/transformer_encoder_regressor_1/transformer_batch_norm_encoder_block_1/sequential_2/transformer_batch_norm_encoder_layer_18/multi_head_attention_18/attention_output/add/ReadVariableOp", "shape": [176], "dtype": "float32"}, {"name": "StatefulPartitionedCall/model_1/transformer_encoder_regressor_1/transformer_batch_norm_encoder_block_1/sequential_2/transformer_batch_norm_encoder_layer_19/multi_head_attention_19/value/einsum/Einsum/ReadVariableOp", "shape": [176, 4, 176], "dtype": "float32"}, {"name": "StatefulPartitionedCall/model_1/transformer_encoder_regressor_1/transformer_batch_norm_encoder_block_1/sequential_2/transformer_batch_norm_encoder_layer_19/multi_head_attention_19/value/add/ReadVariableOp", "shape": [4, 176], "dtype": "float32"}, {"name": "StatefulPartitionedCall/model_1/transformer_encoder_regressor_1/transformer_batch_norm_encoder_block_1/sequential_2/transformer_batch_norm_encoder_layer_19/multi_head_attention_19/attention_output/einsum/Einsum/ReadVariableOp", "shape": [4, 176, 176], "dtype": "float32"}, {"name": "StatefulPartitionedCall/model_1/transformer_encoder_regressor_1/transformer_batch_norm_encoder_block_1/sequential_2/transformer_batch_norm_encoder_layer_19/multi_head_attention_19/attention_output/add/ReadVariableOp", "shape": [176], "dtype": "float32"}, {"name": "StatefulPartitionedCall/model_1/transformer_encoder_regressor_1/flatten_1/Const", "shape": [2], "dtype": "int32"}, {"name": "StatefulPartitionedCall/model_1/transformer_encoder_regressor_1/sequential_3/dense_51/MatMul/ReadVariableOp", "shape": [2288, 176], "dtype": "float32"}, {"name": "StatefulPartitionedCall/model_1/transformer_encoder_regressor_1/sequential_3/dense_51/BiasAdd/ReadVariableOp", "shape": [176], "dtype": "float32"}, {"name": "StatefulPartitionedCall/model_1/transformer_encoder_regressor_1/sequential_3/dense_52/MatMul/ReadVariableOp", "shape": [176, 176], "dtype": "float32"}, {"name": "StatefulPartitionedCall/model_1/transformer_encoder_regressor_1/sequential_3/dense_52/BiasAdd/ReadVariableOp", "shape": [176], "dtype": "float32"}, {"name": "StatefulPartitionedCall/model_1/transformer_encoder_regressor_1/sequential_3/dense_53/MatMul/ReadVariableOp", "shape": [176, 176], "dtype": "float32"}, {"name": "StatefulPartitionedCall/model_1/transformer_encoder_regressor_1/sequential_3/dense_53/BiasAdd/ReadVariableOp", "shape": [176], "dtype": "float32"}, {"name": "StatefulPartitionedCall/model_1/transformer_encoder_regressor_1/sequential_3/dense_54/MatMul/ReadVariableOp", "shape": [176, 176], "dtype": "float32"}, {"name": "StatefulPartitionedCall/model_1/transformer_encoder_regressor_1/sequential_3/dense_54/BiasAdd/ReadVariableOp", "shape": [176], "dtype": "float32"}, {"name": "StatefulPartitionedCall/model_1/transformer_encoder_regressor_1/sequential_3/dense_55/MatMul/ReadVariableOp", "shape": [176, 176], "dtype": "float32"}, {"name": "StatefulPartitionedCall/model_1/transformer_encoder_regressor_1/sequential_3/dense_55/BiasAdd/ReadVariableOp", "shape": [176], "dtype": "float32"}, {"name": "StatefulPartitionedCall/model_1/transformer_encoder_regressor_1/sequential_3/dense_56/MatMul/ReadVariableOp", "shape": [176, 176], "dtype": "float32"}, {"name": "StatefulPartitionedCall/model_1/transformer_encoder_regressor_1/sequential_3/dense_56/BiasAdd/ReadVariableOp", "shape": [176], "dtype": "float32"}, {"name": "StatefulPartitionedCall/model_1/transformer_encoder_regressor_1/sequential_3/dense_57/MatMul/ReadVariableOp", "shape": [176, 176], "dtype": "float32"}, {"name": "StatefulPartitionedCall/model_1/transformer_encoder_regressor_1/sequential_3/dense_57/BiasAdd/ReadVariableOp", "shape": [176], "dtype": "float32"}, {"name": "StatefulPartitionedCall/model_1/transformer_encoder_regressor_1/sequential_3/dense_58/MatMul/ReadVariableOp", "shape": [176, 176], "dtype": "float32"}, {"name": "StatefulPartitionedCall/model_1/transformer_encoder_regressor_1/sequential_3/dense_58/BiasAdd/ReadVariableOp", "shape": [176], "dtype": "float32"}, {"name": "StatefulPartitionedCall/model_1/transformer_encoder_regressor_1/sequential_3/dense_59/MatMul/ReadVariableOp", "shape": [176, 2], "dtype": "float32"}, {"name": "StatefulPartitionedCall/model_1/transformer_encoder_regressor_1/sequential_3/dense_59/BiasAdd/ReadVariableOp", "shape": [2], "dtype": "float32"}]}]}