{"format": "graph-model", "generatedBy": "2.8.2", "convertedBy": "TensorFlow.js Converter v3.18.0", "signature": {"inputs": {"input_3": {"name": "input_3:0", "dtype": "DT_FLOAT", "tensorShape": {"dim": [{"size": "-1"}, {"size": "54"}]}}}, "outputs": {"dense_53": {"name": "Identity:0", "dtype": "DT_FLOAT", "tensorShape": {"dim": [{"size": "-1"}, {"size": "2"}]}}}}, "modelTopology": {"node": [{"name": "StatefulPartitionedCall/sequential_2/dense_36/MatMul/ReadVariableOp", "op": "Const", "attr": {"value": {"tensor": {"dtype": "DT_FLOAT", "tensorShape": {"dim": [{"size": "54"}, {"size": "118"}]}}}, "dtype": {"type": "DT_FLOAT"}}}, {"name": "StatefulPartitionedCall/sequential_2/dense_36/BiasAdd/ReadVariableOp", "op": "Const", "attr": {"value": {"tensor": {"dtype": "DT_FLOAT", "tensorShape": {"dim": [{"size": "118"}]}}}, "dtype": {"type": "DT_FLOAT"}}}, {"name": "StatefulPartitionedCall/sequential_2/dense_37/MatMul/ReadVariableOp", "op": "Const", "attr": {"dtype": {"type": "DT_FLOAT"}, "value": {"tensor": {"dtype": "DT_FLOAT", "tensorShape": {"dim": [{"size": "118"}, {"size": "233"}]}}}}}, {"name": "StatefulPartitionedCall/sequential_2/dense_37/BiasAdd/ReadVariableOp", "op": "Const", "attr": {"dtype": {"type": "DT_FLOAT"}, "value": {"tensor": {"dtype": "DT_FLOAT", "tensorShape": {"dim": [{"size": "233"}]}}}}}, {"name": "StatefulPartitionedCall/sequential_2/dense_38/MatMul/ReadVariableOp", "op": "Const", "attr": {"value": {"tensor": {"dtype": "DT_FLOAT", "tensorShape": {"dim": [{"size": "233"}, {"size": "108"}]}}}, "dtype": {"type": "DT_FLOAT"}}}, {"name": "StatefulPartitionedCall/sequential_2/dense_38/BiasAdd/ReadVariableOp", "op": "Const", "attr": {"value": {"tensor": {"dtype": "DT_FLOAT", "tensorShape": {"dim": [{"size": "108"}]}}}, "dtype": {"type": "DT_FLOAT"}}}, {"name": "StatefulPartitionedCall/sequential_2/dense_39/MatMul/ReadVariableOp", "op": "Const", "attr": {"value": {"tensor": {"dtype": "DT_FLOAT", "tensorShape": {"dim": [{"size": "108"}, {"size": "225"}]}}}, "dtype": {"type": "DT_FLOAT"}}}, {"name": "StatefulPartitionedCall/sequential_2/dense_39/BiasAdd/ReadVariableOp", "op": "Const", "attr": {"dtype": {"type": "DT_FLOAT"}, "value": {"tensor": {"dtype": "DT_FLOAT", "tensorShape": {"dim": [{"size": "225"}]}}}}}, {"name": "StatefulPartitionedCall/sequential_2/dense_40/MatMul/ReadVariableOp", "op": "Const", "attr": {"value": {"tensor": {"dtype": "DT_FLOAT", "tensorShape": {"dim": [{"size": "225"}, {"size": "188"}]}}}, "dtype": {"type": "DT_FLOAT"}}}, {"name": "StatefulPartitionedCall/sequential_2/dense_40/BiasAdd/ReadVariableOp", "op": "Const", "attr": {"dtype": {"type": "DT_FLOAT"}, "value": {"tensor": {"dtype": "DT_FLOAT", "tensorShape": {"dim": [{"size": "188"}]}}}}}, {"name": "StatefulPartitionedCall/sequential_2/dense_41/MatMul/ReadVariableOp", "op": "Const", "attr": {"value": {"tensor": {"dtype": "DT_FLOAT", "tensorShape": {"dim": [{"size": "188"}, {"size": "205"}]}}}, "dtype": {"type": "DT_FLOAT"}}}, {"name": "StatefulPartitionedCall/sequential_2/dense_41/BiasAdd/ReadVariableOp", "op": "Const", "attr": {"value": {"tensor": {"dtype": "DT_FLOAT", "tensorShape": {"dim": [{"size": "205"}]}}}, "dtype": {"type": "DT_FLOAT"}}}, {"name": "StatefulPartitionedCall/sequential_2/dense_42/MatMul/ReadVariableOp", "op": "Const", "attr": {"dtype": {"type": "DT_FLOAT"}, "value": {"tensor": {"dtype": "DT_FLOAT", "tensorShape": {"dim": [{"size": "205"}, {"size": "151"}]}}}}}, {"name": "StatefulPartitionedCall/sequential_2/dense_42/BiasAdd/ReadVariableOp", "op": "Const", "attr": {"dtype": {"type": "DT_FLOAT"}, "value": {"tensor": {"dtype": "DT_FLOAT", "tensorShape": {"dim": [{"size": "151"}]}}}}}, {"name": "StatefulPartitionedCall/sequential_2/dense_43/MatMul/ReadVariableOp", "op": "Const", "attr": {"value": {"tensor": {"dtype": "DT_FLOAT", "tensorShape": {"dim": [{"size": "151"}, {"size": "185"}]}}}, "dtype": {"type": "DT_FLOAT"}}}, {"name": "StatefulPartitionedCall/sequential_2/dense_43/BiasAdd/ReadVariableOp", "op": "Const", "attr": {"value": {"tensor": {"dtype": "DT_FLOAT", "tensorShape": {"dim": [{"size": "185"}]}}}, "dtype": {"type": "DT_FLOAT"}}}, {"name": "StatefulPartitionedCall/sequential_2/dense_44/MatMul/ReadVariableOp", "op": "Const", "attr": {"dtype": {"type": "DT_FLOAT"}, "value": {"tensor": {"dtype": "DT_FLOAT", "tensorShape": {"dim": [{"size": "185"}, {"size": "243"}]}}}}}, {"name": "StatefulPartitionedCall/sequential_2/dense_44/BiasAdd/ReadVariableOp", "op": "Const", "attr": {"value": {"tensor": {"dtype": "DT_FLOAT", "tensorShape": {"dim": [{"size": "243"}]}}}, "dtype": {"type": "DT_FLOAT"}}}, {"name": "StatefulPartitionedCall/sequential_2/dense_45/MatMul/ReadVariableOp", "op": "Const", "attr": {"dtype": {"type": "DT_FLOAT"}, "value": {"tensor": {"dtype": "DT_FLOAT", "tensorShape": {"dim": [{"size": "243"}, {"size": "174"}]}}}}}, {"name": "StatefulPartitionedCall/sequential_2/dense_45/BiasAdd/ReadVariableOp", "op": "Const", "attr": {"value": {"tensor": {"dtype": "DT_FLOAT", "tensorShape": {"dim": [{"size": "174"}]}}}, "dtype": {"type": "DT_FLOAT"}}}, {"name": "StatefulPartitionedCall/sequential_2/dense_46/MatMul/ReadVariableOp", "op": "Const", "attr": {"dtype": {"type": "DT_FLOAT"}, "value": {"tensor": {"dtype": "DT_FLOAT", "tensorShape": {"dim": [{"size": "174"}, {"size": "89"}]}}}}}, {"name": "StatefulPartitionedCall/sequential_2/dense_46/BiasAdd/ReadVariableOp", "op": "Const", "attr": {"dtype": {"type": "DT_FLOAT"}, "value": {"tensor": {"dtype": "DT_FLOAT", "tensorShape": {"dim": [{"size": "89"}]}}}}}, {"name": "StatefulPartitionedCall/sequential_2/dense_47/MatMul/ReadVariableOp", "op": "Const", "attr": {"value": {"tensor": {"dtype": "DT_FLOAT", "tensorShape": {"dim": [{"size": "89"}, {"size": "88"}]}}}, "dtype": {"type": "DT_FLOAT"}}}, {"name": "StatefulPartitionedCall/sequential_2/dense_47/BiasAdd/ReadVariableOp", "op": "Const", "attr": {"value": {"tensor": {"dtype": "DT_FLOAT", "tensorShape": {"dim": [{"size": "88"}]}}}, "dtype": {"type": "DT_FLOAT"}}}, {"name": "StatefulPartitionedCall/sequential_2/dense_48/MatMul/ReadVariableOp", "op": "Const", "attr": {"value": {"tensor": {"dtype": "DT_FLOAT", "tensorShape": {"dim": [{"size": "88"}, {"size": "227"}]}}}, "dtype": {"type": "DT_FLOAT"}}}, {"name": "StatefulPartitionedCall/sequential_2/dense_48/BiasAdd/ReadVariableOp", "op": "Const", "attr": {"value": {"tensor": {"dtype": "DT_FLOAT", "tensorShape": {"dim": [{"size": "227"}]}}}, "dtype": {"type": "DT_FLOAT"}}}, {"name": "StatefulPartitionedCall/sequential_2/dense_49/MatMul/ReadVariableOp", "op": "Const", "attr": {"dtype": {"type": "DT_FLOAT"}, "value": {"tensor": {"dtype": "DT_FLOAT", "tensorShape": {"dim": [{"size": "227"}, {"size": "241"}]}}}}}, {"name": "StatefulPartitionedCall/sequential_2/dense_49/BiasAdd/ReadVariableOp", "op": "Const", "attr": {"dtype": {"type": "DT_FLOAT"}, "value": {"tensor": {"dtype": "DT_FLOAT", "tensorShape": {"dim": [{"size": "241"}]}}}}}, {"name": "StatefulPartitionedCall/sequential_2/dense_50/MatMul/ReadVariableOp", "op": "Const", "attr": {"value": {"tensor": {"dtype": "DT_FLOAT", "tensorShape": {"dim": [{"size": "241"}, {"size": "140"}]}}}, "dtype": {"type": "DT_FLOAT"}}}, {"name": "StatefulPartitionedCall/sequential_2/dense_50/BiasAdd/ReadVariableOp", "op": "Const", "attr": {"value": {"tensor": {"dtype": "DT_FLOAT", "tensorShape": {"dim": [{"size": "140"}]}}}, "dtype": {"type": "DT_FLOAT"}}}, {"name": "StatefulPartitionedCall/sequential_2/dense_51/MatMul/ReadVariableOp", "op": "Const", "attr": {"value": {"tensor": {"dtype": "DT_FLOAT", "tensorShape": {"dim": [{"size": "140"}, {"size": "173"}]}}}, "dtype": {"type": "DT_FLOAT"}}}, {"name": "StatefulPartitionedCall/sequential_2/dense_51/BiasAdd/ReadVariableOp", "op": "Const", "attr": {"value": {"tensor": {"dtype": "DT_FLOAT", "tensorShape": {"dim": [{"size": "173"}]}}}, "dtype": {"type": "DT_FLOAT"}}}, {"name": "StatefulPartitionedCall/sequential_2/dense_52/MatMul/ReadVariableOp", "op": "Const", "attr": {"value": {"tensor": {"dtype": "DT_FLOAT", "tensorShape": {"dim": [{"size": "173"}, {"size": "105"}]}}}, "dtype": {"type": "DT_FLOAT"}}}, {"name": "StatefulPartitionedCall/sequential_2/dense_52/BiasAdd/ReadVariableOp", "op": "Const", "attr": {"dtype": {"type": "DT_FLOAT"}, "value": {"tensor": {"dtype": "DT_FLOAT", "tensorShape": {"dim": [{"size": "105"}]}}}}}, {"name": "StatefulPartitionedCall/sequential_2/dense_53/MatMul/ReadVariableOp", "op": "Const", "attr": {"dtype": {"type": "DT_FLOAT"}, "value": {"tensor": {"dtype": "DT_FLOAT", "tensorShape": {"dim": [{"size": "105"}, {"size": "2"}]}}}}}, {"name": "StatefulPartitionedCall/sequential_2/dense_53/BiasAdd/ReadVariableOp", "op": "Const", "attr": {"dtype": {"type": "DT_FLOAT"}, "value": {"tensor": {"dtype": "DT_FLOAT", "tensorShape": {"dim": [{"size": "2"}]}}}}}, {"name": "input_3", "op": "Placeholder", "attr": {"shape": {"shape": {"dim": [{"size": "-1"}, {"size": "54"}]}}, "dtype": {"type": "DT_FLOAT"}}}, {"name": "StatefulPartitionedCall/sequential_2/dense_36/BiasAdd", "op": "_FusedMatMul", "input": ["input_3", "StatefulPartitionedCall/sequential_2/dense_36/MatMul/ReadVariableOp", "StatefulPartitionedCall/sequential_2/dense_36/BiasAdd/ReadVariableOp"], "device": "/device:CPU:0", "attr": {"transpose_b": {"b": false}, "fused_ops": {"list": {"s": ["Qmlhc0FkZA=="]}}, "epsilon": {"f": 0.0}, "T": {"type": "DT_FLOAT"}, "transpose_a": {"b": false}, "num_args": {"i": "1"}}}, {"name": "StatefulPartitionedCall/sequential_2/dense_36/Tanh", "op": "Tanh", "input": ["StatefulPartitionedCall/sequential_2/dense_36/BiasAdd"], "attr": {"T": {"type": "DT_FLOAT"}}}, {"name": "StatefulPartitionedCall/sequential_2/dense_37/BiasAdd", "op": "_FusedMatMul", "input": ["StatefulPartitionedCall/sequential_2/dense_36/Tanh", "StatefulPartitionedCall/sequential_2/dense_37/MatMul/ReadVariableOp", "StatefulPartitionedCall/sequential_2/dense_37/BiasAdd/ReadVariableOp"], "device": "/device:CPU:0", "attr": {"transpose_b": {"b": false}, "epsilon": {"f": 0.0}, "num_args": {"i": "1"}, "transpose_a": {"b": false}, "T": {"type": "DT_FLOAT"}, "fused_ops": {"list": {"s": ["Qmlhc0FkZA=="]}}}}, {"name": "StatefulPartitionedCall/sequential_2/dense_37/Tanh", "op": "Tanh", "input": ["StatefulPartitionedCall/sequential_2/dense_37/BiasAdd"], "attr": {"T": {"type": "DT_FLOAT"}}}, {"name": "StatefulPartitionedCall/sequential_2/dense_38/BiasAdd", "op": "_FusedMatMul", "input": ["StatefulPartitionedCall/sequential_2/dense_37/Tanh", "StatefulPartitionedCall/sequential_2/dense_38/MatMul/ReadVariableOp", "StatefulPartitionedCall/sequential_2/dense_38/BiasAdd/ReadVariableOp"], "device": "/device:CPU:0", "attr": {"epsilon": {"f": 0.0}, "transpose_b": {"b": false}, "num_args": {"i": "1"}, "T": {"type": "DT_FLOAT"}, "transpose_a": {"b": false}, "fused_ops": {"list": {"s": ["Qmlhc0FkZA=="]}}}}, {"name": "StatefulPartitionedCall/sequential_2/dense_38/Tanh", "op": "Tanh", "input": ["StatefulPartitionedCall/sequential_2/dense_38/BiasAdd"], "attr": {"T": {"type": "DT_FLOAT"}}}, {"name": "StatefulPartitionedCall/sequential_2/dense_39/BiasAdd", "op": "_FusedMatMul", "input": ["StatefulPartitionedCall/sequential_2/dense_38/Tanh", "StatefulPartitionedCall/sequential_2/dense_39/MatMul/ReadVariableOp", "StatefulPartitionedCall/sequential_2/dense_39/BiasAdd/ReadVariableOp"], "device": "/device:CPU:0", "attr": {"fused_ops": {"list": {"s": ["Qmlhc0FkZA=="]}}, "transpose_a": {"b": false}, "T": {"type": "DT_FLOAT"}, "epsilon": {"f": 0.0}, "num_args": {"i": "1"}, "transpose_b": {"b": false}}}, {"name": "StatefulPartitionedCall/sequential_2/dense_39/Tanh", "op": "Tanh", "input": ["StatefulPartitionedCall/sequential_2/dense_39/BiasAdd"], "attr": {"T": {"type": "DT_FLOAT"}}}, {"name": "StatefulPartitionedCall/sequential_2/dense_40/BiasAdd", "op": "_FusedMatMul", "input": ["StatefulPartitionedCall/sequential_2/dense_39/Tanh", "StatefulPartitionedCall/sequential_2/dense_40/MatMul/ReadVariableOp", "StatefulPartitionedCall/sequential_2/dense_40/BiasAdd/ReadVariableOp"], "device": "/device:CPU:0", "attr": {"fused_ops": {"list": {"s": ["Qmlhc0FkZA=="]}}, "transpose_b": {"b": false}, "T": {"type": "DT_FLOAT"}, "epsilon": {"f": 0.0}, "transpose_a": {"b": false}, "num_args": {"i": "1"}}}, {"name": "StatefulPartitionedCall/sequential_2/dense_40/Tanh", "op": "Tanh", "input": ["StatefulPartitionedCall/sequential_2/dense_40/BiasAdd"], "attr": {"T": {"type": "DT_FLOAT"}}}, {"name": "StatefulPartitionedCall/sequential_2/dense_41/BiasAdd", "op": "_FusedMatMul", "input": ["StatefulPartitionedCall/sequential_2/dense_40/Tanh", "StatefulPartitionedCall/sequential_2/dense_41/MatMul/ReadVariableOp", "StatefulPartitionedCall/sequential_2/dense_41/BiasAdd/ReadVariableOp"], "device": "/device:CPU:0", "attr": {"transpose_b": {"b": false}, "T": {"type": "DT_FLOAT"}, "fused_ops": {"list": {"s": ["Qmlhc0FkZA=="]}}, "epsilon": {"f": 0.0}, "transpose_a": {"b": false}, "num_args": {"i": "1"}}}, {"name": "StatefulPartitionedCall/sequential_2/dense_41/Tanh", "op": "Tanh", "input": ["StatefulPartitionedCall/sequential_2/dense_41/BiasAdd"], "attr": {"T": {"type": "DT_FLOAT"}}}, {"name": "StatefulPartitionedCall/sequential_2/dense_42/BiasAdd", "op": "_FusedMatMul", "input": ["StatefulPartitionedCall/sequential_2/dense_41/Tanh", "StatefulPartitionedCall/sequential_2/dense_42/MatMul/ReadVariableOp", "StatefulPartitionedCall/sequential_2/dense_42/BiasAdd/ReadVariableOp"], "device": "/device:CPU:0", "attr": {"epsilon": {"f": 0.0}, "fused_ops": {"list": {"s": ["Qmlhc0FkZA=="]}}, "transpose_a": {"b": false}, "num_args": {"i": "1"}, "transpose_b": {"b": false}, "T": {"type": "DT_FLOAT"}}}, {"name": "StatefulPartitionedCall/sequential_2/dense_42/Tanh", "op": "Tanh", "input": ["StatefulPartitionedCall/sequential_2/dense_42/BiasAdd"], "attr": {"T": {"type": "DT_FLOAT"}}}, {"name": "StatefulPartitionedCall/sequential_2/dense_43/BiasAdd", "op": "_FusedMatMul", "input": ["StatefulPartitionedCall/sequential_2/dense_42/Tanh", "StatefulPartitionedCall/sequential_2/dense_43/MatMul/ReadVariableOp", "StatefulPartitionedCall/sequential_2/dense_43/BiasAdd/ReadVariableOp"], "device": "/device:CPU:0", "attr": {"transpose_a": {"b": false}, "fused_ops": {"list": {"s": ["Qmlhc0FkZA=="]}}, "epsilon": {"f": 0.0}, "T": {"type": "DT_FLOAT"}, "transpose_b": {"b": false}, "num_args": {"i": "1"}}}, {"name": "StatefulPartitionedCall/sequential_2/dense_43/Tanh", "op": "Tanh", "input": ["StatefulPartitionedCall/sequential_2/dense_43/BiasAdd"], "attr": {"T": {"type": "DT_FLOAT"}}}, {"name": "StatefulPartitionedCall/sequential_2/dense_44/BiasAdd", "op": "_FusedMatMul", "input": ["StatefulPartitionedCall/sequential_2/dense_43/Tanh", "StatefulPartitionedCall/sequential_2/dense_44/MatMul/ReadVariableOp", "StatefulPartitionedCall/sequential_2/dense_44/BiasAdd/ReadVariableOp"], "device": "/device:CPU:0", "attr": {"transpose_b": {"b": false}, "num_args": {"i": "1"}, "T": {"type": "DT_FLOAT"}, "epsilon": {"f": 0.0}, "transpose_a": {"b": false}, "fused_ops": {"list": {"s": ["Qmlhc0FkZA=="]}}}}, {"name": "StatefulPartitionedCall/sequential_2/dense_44/Tanh", "op": "Tanh", "input": ["StatefulPartitionedCall/sequential_2/dense_44/BiasAdd"], "attr": {"T": {"type": "DT_FLOAT"}}}, {"name": "StatefulPartitionedCall/sequential_2/dense_45/BiasAdd", "op": "_FusedMatMul", "input": ["StatefulPartitionedCall/sequential_2/dense_44/Tanh", "StatefulPartitionedCall/sequential_2/dense_45/MatMul/ReadVariableOp", "StatefulPartitionedCall/sequential_2/dense_45/BiasAdd/ReadVariableOp"], "device": "/device:CPU:0", "attr": {"transpose_b": {"b": false}, "transpose_a": {"b": false}, "epsilon": {"f": 0.0}, "T": {"type": "DT_FLOAT"}, "fused_ops": {"list": {"s": ["Qmlhc0FkZA=="]}}, "num_args": {"i": "1"}}}, {"name": "StatefulPartitionedCall/sequential_2/dense_45/Tanh", "op": "Tanh", "input": ["StatefulPartitionedCall/sequential_2/dense_45/BiasAdd"], "attr": {"T": {"type": "DT_FLOAT"}}}, {"name": "StatefulPartitionedCall/sequential_2/dense_46/BiasAdd", "op": "_FusedMatMul", "input": ["StatefulPartitionedCall/sequential_2/dense_45/Tanh", "StatefulPartitionedCall/sequential_2/dense_46/MatMul/ReadVariableOp", "StatefulPartitionedCall/sequential_2/dense_46/BiasAdd/ReadVariableOp"], "device": "/device:CPU:0", "attr": {"transpose_a": {"b": false}, "epsilon": {"f": 0.0}, "fused_ops": {"list": {"s": ["Qmlhc0FkZA=="]}}, "T": {"type": "DT_FLOAT"}, "num_args": {"i": "1"}, "transpose_b": {"b": false}}}, {"name": "StatefulPartitionedCall/sequential_2/dense_46/Tanh", "op": "Tanh", "input": ["StatefulPartitionedCall/sequential_2/dense_46/BiasAdd"], "attr": {"T": {"type": "DT_FLOAT"}}}, {"name": "StatefulPartitionedCall/sequential_2/dense_47/BiasAdd", "op": "_FusedMatMul", "input": ["StatefulPartitionedCall/sequential_2/dense_46/Tanh", "StatefulPartitionedCall/sequential_2/dense_47/MatMul/ReadVariableOp", "StatefulPartitionedCall/sequential_2/dense_47/BiasAdd/ReadVariableOp"], "device": "/device:CPU:0", "attr": {"T": {"type": "DT_FLOAT"}, "fused_ops": {"list": {"s": ["Qmlhc0FkZA=="]}}, "transpose_b": {"b": false}, "epsilon": {"f": 0.0}, "transpose_a": {"b": false}, "num_args": {"i": "1"}}}, {"name": "StatefulPartitionedCall/sequential_2/dense_47/Tanh", "op": "Tanh", "input": ["StatefulPartitionedCall/sequential_2/dense_47/BiasAdd"], "attr": {"T": {"type": "DT_FLOAT"}}}, {"name": "StatefulPartitionedCall/sequential_2/dense_48/BiasAdd", "op": "_FusedMatMul", "input": ["StatefulPartitionedCall/sequential_2/dense_47/Tanh", "StatefulPartitionedCall/sequential_2/dense_48/MatMul/ReadVariableOp", "StatefulPartitionedCall/sequential_2/dense_48/BiasAdd/ReadVariableOp"], "device": "/device:CPU:0", "attr": {"transpose_b": {"b": false}, "T": {"type": "DT_FLOAT"}, "epsilon": {"f": 0.0}, "fused_ops": {"list": {"s": ["Qmlhc0FkZA=="]}}, "transpose_a": {"b": false}, "num_args": {"i": "1"}}}, {"name": "StatefulPartitionedCall/sequential_2/dense_48/Tanh", "op": "Tanh", "input": ["StatefulPartitionedCall/sequential_2/dense_48/BiasAdd"], "attr": {"T": {"type": "DT_FLOAT"}}}, {"name": "StatefulPartitionedCall/sequential_2/dense_49/BiasAdd", "op": "_FusedMatMul", "input": ["StatefulPartitionedCall/sequential_2/dense_48/Tanh", "StatefulPartitionedCall/sequential_2/dense_49/MatMul/ReadVariableOp", "StatefulPartitionedCall/sequential_2/dense_49/BiasAdd/ReadVariableOp"], "device": "/device:CPU:0", "attr": {"epsilon": {"f": 0.0}, "num_args": {"i": "1"}, "transpose_b": {"b": false}, "fused_ops": {"list": {"s": ["Qmlhc0FkZA=="]}}, "T": {"type": "DT_FLOAT"}, "transpose_a": {"b": false}}}, {"name": "StatefulPartitionedCall/sequential_2/dense_49/Tanh", "op": "Tanh", "input": ["StatefulPartitionedCall/sequential_2/dense_49/BiasAdd"], "attr": {"T": {"type": "DT_FLOAT"}}}, {"name": "StatefulPartitionedCall/sequential_2/dense_50/BiasAdd", "op": "_FusedMatMul", "input": ["StatefulPartitionedCall/sequential_2/dense_49/Tanh", "StatefulPartitionedCall/sequential_2/dense_50/MatMul/ReadVariableOp", "StatefulPartitionedCall/sequential_2/dense_50/BiasAdd/ReadVariableOp"], "device": "/device:CPU:0", "attr": {"fused_ops": {"list": {"s": ["Qmlhc0FkZA=="]}}, "epsilon": {"f": 0.0}, "T": {"type": "DT_FLOAT"}, "transpose_b": {"b": false}, "transpose_a": {"b": false}, "num_args": {"i": "1"}}}, {"name": "StatefulPartitionedCall/sequential_2/dense_50/Tanh", "op": "Tanh", "input": ["StatefulPartitionedCall/sequential_2/dense_50/BiasAdd"], "attr": {"T": {"type": "DT_FLOAT"}}}, {"name": "StatefulPartitionedCall/sequential_2/dense_51/BiasAdd", "op": "_FusedMatMul", "input": ["StatefulPartitionedCall/sequential_2/dense_50/Tanh", "StatefulPartitionedCall/sequential_2/dense_51/MatMul/ReadVariableOp", "StatefulPartitionedCall/sequential_2/dense_51/BiasAdd/ReadVariableOp"], "device": "/device:CPU:0", "attr": {"num_args": {"i": "1"}, "fused_ops": {"list": {"s": ["Qmlhc0FkZA=="]}}, "T": {"type": "DT_FLOAT"}, "epsilon": {"f": 0.0}, "transpose_a": {"b": false}, "transpose_b": {"b": false}}}, {"name": "StatefulPartitionedCall/sequential_2/dense_51/Tanh", "op": "Tanh", "input": ["StatefulPartitionedCall/sequential_2/dense_51/BiasAdd"], "attr": {"T": {"type": "DT_FLOAT"}}}, {"name": "StatefulPartitionedCall/sequential_2/dense_52/BiasAdd", "op": "_FusedMatMul", "input": ["StatefulPartitionedCall/sequential_2/dense_51/Tanh", "StatefulPartitionedCall/sequential_2/dense_52/MatMul/ReadVariableOp", "StatefulPartitionedCall/sequential_2/dense_52/BiasAdd/ReadVariableOp"], "device": "/device:CPU:0", "attr": {"T": {"type": "DT_FLOAT"}, "fused_ops": {"list": {"s": ["Qmlhc0FkZA=="]}}, "num_args": {"i": "1"}, "transpose_b": {"b": false}, "epsilon": {"f": 0.0}, "transpose_a": {"b": false}}}, {"name": "StatefulPartitionedCall/sequential_2/dense_52/Tanh", "op": "Tanh", "input": ["StatefulPartitionedCall/sequential_2/dense_52/BiasAdd"], "attr": {"T": {"type": "DT_FLOAT"}}}, {"name": "StatefulPartitionedCall/sequential_2/dense_53/BiasAdd", "op": "_FusedMatMul", "input": ["StatefulPartitionedCall/sequential_2/dense_52/Tanh", "StatefulPartitionedCall/sequential_2/dense_53/MatMul/ReadVariableOp", "StatefulPartitionedCall/sequential_2/dense_53/BiasAdd/ReadVariableOp"], "device": "/device:CPU:0", "attr": {"transpose_a": {"b": false}, "num_args": {"i": "1"}, "epsilon": {"f": 0.0}, "fused_ops": {"list": {"s": ["Qmlhc0FkZA=="]}}, "transpose_b": {"b": false}, "T": {"type": "DT_FLOAT"}}}, {"name": "Identity", "op": "Identity", "input": ["StatefulPartitionedCall/sequential_2/dense_53/BiasAdd"], "attr": {"T": {"type": "DT_FLOAT"}}}], "library": {}, "versions": {"producer": 987}}, "weightsManifest": [{"paths": ["group1-shard1of1.bin"], "weights": [{"name": "StatefulPartitionedCall/sequential_2/dense_36/MatMul/ReadVariableOp", "shape": [54, 118], "dtype": "float32"}, {"name": "StatefulPartitionedCall/sequential_2/dense_36/BiasAdd/ReadVariableOp", "shape": [118], "dtype": "float32"}, {"name": "StatefulPartitionedCall/sequential_2/dense_37/MatMul/ReadVariableOp", "shape": [118, 233], "dtype": "float32"}, {"name": "StatefulPartitionedCall/sequential_2/dense_37/BiasAdd/ReadVariableOp", "shape": [233], "dtype": "float32"}, {"name": "StatefulPartitionedCall/sequential_2/dense_38/MatMul/ReadVariableOp", "shape": [233, 108], "dtype": "float32"}, {"name": "StatefulPartitionedCall/sequential_2/dense_38/BiasAdd/ReadVariableOp", "shape": [108], "dtype": "float32"}, {"name": "StatefulPartitionedCall/sequential_2/dense_39/MatMul/ReadVariableOp", "shape": [108, 225], "dtype": "float32"}, {"name": "StatefulPartitionedCall/sequential_2/dense_39/BiasAdd/ReadVariableOp", "shape": [225], "dtype": "float32"}, {"name": "StatefulPartitionedCall/sequential_2/dense_40/MatMul/ReadVariableOp", "shape": [225, 188], "dtype": "float32"}, {"name": "StatefulPartitionedCall/sequential_2/dense_40/BiasAdd/ReadVariableOp", "shape": [188], "dtype": "float32"}, {"name": "StatefulPartitionedCall/sequential_2/dense_41/MatMul/ReadVariableOp", "shape": [188, 205], "dtype": "float32"}, {"name": "StatefulPartitionedCall/sequential_2/dense_41/BiasAdd/ReadVariableOp", "shape": [205], "dtype": "float32"}, {"name": "StatefulPartitionedCall/sequential_2/dense_42/MatMul/ReadVariableOp", "shape": [205, 151], "dtype": "float32"}, {"name": "StatefulPartitionedCall/sequential_2/dense_42/BiasAdd/ReadVariableOp", "shape": [151], "dtype": "float32"}, {"name": "StatefulPartitionedCall/sequential_2/dense_43/MatMul/ReadVariableOp", "shape": [151, 185], "dtype": "float32"}, {"name": "StatefulPartitionedCall/sequential_2/dense_43/BiasAdd/ReadVariableOp", "shape": [185], "dtype": "float32"}, {"name": "StatefulPartitionedCall/sequential_2/dense_44/MatMul/ReadVariableOp", "shape": [185, 243], "dtype": "float32"}, {"name": "StatefulPartitionedCall/sequential_2/dense_44/BiasAdd/ReadVariableOp", "shape": [243], "dtype": "float32"}, {"name": "StatefulPartitionedCall/sequential_2/dense_45/MatMul/ReadVariableOp", "shape": [243, 174], "dtype": "float32"}, {"name": "StatefulPartitionedCall/sequential_2/dense_45/BiasAdd/ReadVariableOp", "shape": [174], "dtype": "float32"}, {"name": "StatefulPartitionedCall/sequential_2/dense_46/MatMul/ReadVariableOp", "shape": [174, 89], "dtype": "float32"}, {"name": "StatefulPartitionedCall/sequential_2/dense_46/BiasAdd/ReadVariableOp", "shape": [89], "dtype": "float32"}, {"name": "StatefulPartitionedCall/sequential_2/dense_47/MatMul/ReadVariableOp", "shape": [89, 88], "dtype": "float32"}, {"name": "StatefulPartitionedCall/sequential_2/dense_47/BiasAdd/ReadVariableOp", "shape": [88], "dtype": "float32"}, {"name": "StatefulPartitionedCall/sequential_2/dense_48/MatMul/ReadVariableOp", "shape": [88, 227], "dtype": "float32"}, {"name": "StatefulPartitionedCall/sequential_2/dense_48/BiasAdd/ReadVariableOp", "shape": [227], "dtype": "float32"}, {"name": "StatefulPartitionedCall/sequential_2/dense_49/MatMul/ReadVariableOp", "shape": [227, 241], "dtype": "float32"}, {"name": "StatefulPartitionedCall/sequential_2/dense_49/BiasAdd/ReadVariableOp", "shape": [241], "dtype": "float32"}, {"name": "StatefulPartitionedCall/sequential_2/dense_50/MatMul/ReadVariableOp", "shape": [241, 140], "dtype": "float32"}, {"name": "StatefulPartitionedCall/sequential_2/dense_50/BiasAdd/ReadVariableOp", "shape": [140], "dtype": "float32"}, {"name": "StatefulPartitionedCall/sequential_2/dense_51/MatMul/ReadVariableOp", "shape": [140, 173], "dtype": "float32"}, {"name": "StatefulPartitionedCall/sequential_2/dense_51/BiasAdd/ReadVariableOp", "shape": [173], "dtype": "float32"}, {"name": "StatefulPartitionedCall/sequential_2/dense_52/MatMul/ReadVariableOp", "shape": [173, 105], "dtype": "float32"}, {"name": "StatefulPartitionedCall/sequential_2/dense_52/BiasAdd/ReadVariableOp", "shape": [105], "dtype": "float32"}, {"name": "StatefulPartitionedCall/sequential_2/dense_53/MatMul/ReadVariableOp", "shape": [105, 2], "dtype": "float32"}, {"name": "StatefulPartitionedCall/sequential_2/dense_53/BiasAdd/ReadVariableOp", "shape": [2], "dtype": "float32"}]}]}