{"format": "graph-model", "generatedBy": "2.8.2", "convertedBy": "TensorFlow.js Converter v3.18.0", "signature": {"inputs": {"input_1": {"name": "input_1:0", "dtype": "DT_FLOAT", "tensorShape": {"dim": [{"size": "-1"}, {"size": "13"}, {"size": "9"}]}}}, "outputs": {"transformer_encoder_regressor": {"name": "Identity:0", "dtype": "DT_FLOAT", "tensorShape": {"dim": [{"size": "-1"}, {"size": "2"}]}}}}, "modelTopology": {"node": [{"name": "StatefulPartitionedCall/model/transformer_encoder_regressor/transformer_batch_norm_encoder_block/sequential/transformer_batch_norm_encoder_layer_9/dense_20/Tensordot/Const", "op": "Const", "attr": {"dtype": {"type": "DT_INT32"}, "value": {"tensor": {"dtype": "DT_INT32", "tensorShape": {"dim": [{"size": "1"}]}}}}}, {"name": "StatefulPartitionedCall/model/transformer_encoder_regressor/transformer_batch_norm_encoder_block/sequential/transformer_batch_norm_encoder_layer_9/dense_20/Tensordot/axes", "op": "Const", "attr": {"value": {"tensor": {"dtype": "DT_INT32", "tensorShape": {"dim": [{"size": "1"}]}}}, "dtype": {"type": "DT_INT32"}}}, {"name": "StatefulPartitionedCall/model/transformer_encoder_regressor/transformer_batch_norm_encoder_block/sequential/transformer_batch_norm_encoder_layer_9/dense_20/Tensordot/GatherV2_1/axis", "op": "Const", "attr": {"dtype": {"type": "DT_INT32"}, "value": {"tensor": {"dtype": "DT_INT32", "tensorShape": {}}}}}, {"name": "StatefulPartitionedCall/model/transformer_encoder_regressor/transformer_batch_norm_encoder_block/sequential/transformer_batch_norm_encoder_layer_9/dense_20/Tensordot/Const_1", "op": "Const", "attr": {"dtype": {"type": "DT_INT32"}, "value": {"tensor": {"dtype": "DT_INT32", "tensorShape": {"dim": [{"size": "1"}]}}}}}, {"name": "StatefulPartitionedCall/model/transformer_encoder_regressor/transformer_batch_norm_encoder_block/sequential/transformer_batch_norm_encoder_layer_9/dense_20/Tensordot/ReadVariableOp", "op": "Const", "attr": {"value": {"tensor": {"dtype": "DT_FLOAT", "tensorShape": {"dim": [{"size": "229"}, {"size": "176"}]}}}, "dtype": {"type": "DT_FLOAT"}}}, {"name": "StatefulPartitionedCall/model/transformer_encoder_regressor/transformer_batch_norm_encoder_block/sequential/transformer_batch_norm_encoder_layer_9/dense_19/Tensordot/Const", "op": "Const", "attr": {"value": {"tensor": {"dtype": "DT_INT32", "tensorShape": {"dim": [{"size": "1"}]}}}, "dtype": {"type": "DT_INT32"}}}, {"name": "StatefulPartitionedCall/model/transformer_encoder_regressor/transformer_batch_norm_encoder_block/sequential/transformer_batch_norm_encoder_layer_9/dense_19/Tensordot/axes", "op": "Const", "attr": {"value": {"tensor": {"dtype": "DT_INT32", "tensorShape": {"dim": [{"size": "1"}]}}}, "dtype": {"type": "DT_INT32"}}}, {"name": "StatefulPartitionedCall/model/transformer_encoder_regressor/transformer_batch_norm_encoder_block/sequential/transformer_batch_norm_encoder_layer_9/dense_19/Tensordot/GatherV2_1/axis", "op": "Const", "attr": {"value": {"tensor": {"dtype": "DT_INT32", "tensorShape": {}}}, "dtype": {"type": "DT_INT32"}}}, {"name": "StatefulPartitionedCall/model/transformer_encoder_regressor/transformer_batch_norm_encoder_block/sequential/transformer_batch_norm_encoder_layer_9/dense_19/Tensordot/Const_1", "op": "Const", "attr": {"dtype": {"type": "DT_INT32"}, "value": {"tensor": {"dtype": "DT_INT32", "tensorShape": {"dim": [{"size": "1"}]}}}}}, {"name": "StatefulPartitionedCall/model/transformer_encoder_regressor/transformer_batch_norm_encoder_block/sequential/transformer_batch_norm_encoder_layer_9/dense_19/Tensordot/ReadVariableOp", "op": "Const", "attr": {"dtype": {"type": "DT_FLOAT"}, "value": {"tensor": {"dtype": "DT_FLOAT", "tensorShape": {"dim": [{"size": "176"}, {"size": "229"}]}}}}}, {"name": "StatefulPartitionedCall/model/transformer_encoder_regressor/transformer_batch_norm_encoder_block/sequential/transformer_batch_norm_encoder_layer_9/dense_19/Tensordot/free", "op": "Const", "attr": {"value": {"tensor": {"dtype": "DT_INT32", "tensorShape": {"dim": [{"size": "2"}]}}}, "dtype": {"type": "DT_INT32"}}}, {"name": "StatefulPartitionedCall/model/transformer_encoder_regressor/transformer_batch_norm_encoder_block/sequential/transformer_batch_norm_encoder_layer_9/dense_19/Tensordot/GatherV2/axis", "op": "Const", "attr": {"value": {"tensor": {"dtype": "DT_INT32", "tensorShape": {}}}, "dtype": {"type": "DT_INT32"}}}, {"name": "StatefulPartitionedCall/model/transformer_encoder_regressor/transformer_batch_norm_encoder_block/sequential/transformer_batch_norm_encoder_layer_9/dense_19/Tensordot/Const_2", "op": "Const", "attr": {"dtype": {"type": "DT_INT32"}, "value": {"tensor": {"dtype": "DT_INT32", "tensorShape": {"dim": [{"size": "1"}]}}}}}, {"name": "StatefulPartitionedCall/model/transformer_encoder_regressor/transformer_batch_norm_encoder_block/sequential/transformer_batch_norm_encoder_layer_9/dense_19/Tensordot/concat_1/axis", "op": "Const", "attr": {"dtype": {"type": "DT_INT32"}, "value": {"tensor": {"dtype": "DT_INT32", "tensorShape": {}}}}}, {"name": "StatefulPartitionedCall/model/transformer_encoder_regressor/transformer_batch_norm_encoder_block/sequential/transformer_batch_norm_encoder_layer_9/dense_19/BiasAdd/ReadVariableOp", "op": "Const", "attr": {"value": {"tensor": {"dtype": "DT_FLOAT", "tensorShape": {"dim": [{"size": "229"}]}}}, "dtype": {"type": "DT_FLOAT"}}}, {"name": "StatefulPartitionedCall/model/transformer_encoder_regressor/transformer_batch_norm_encoder_block/sequential/transformer_batch_norm_encoder_layer_9/dense_20/Tensordot/free", "op": "Const", "attr": {"value": {"tensor": {"dtype": "DT_INT32", "tensorShape": {"dim": [{"size": "2"}]}}}, "dtype": {"type": "DT_INT32"}}}, {"name": "StatefulPartitionedCall/model/transformer_encoder_regressor/transformer_batch_norm_encoder_block/sequential/transformer_batch_norm_encoder_layer_9/dense_20/Tensordot/GatherV2/axis", "op": "Const", "attr": {"dtype": {"type": "DT_INT32"}, "value": {"tensor": {"dtype": "DT_INT32", "tensorShape": {}}}}}, {"name": "StatefulPartitionedCall/model/transformer_encoder_regressor/transformer_batch_norm_encoder_block/sequential/transformer_batch_norm_encoder_layer_9/dense_20/Tensordot/Const_2", "op": "Const", "attr": {"dtype": {"type": "DT_INT32"}, "value": {"tensor": {"dtype": "DT_INT32", "tensorShape": {"dim": [{"size": "1"}]}}}}}, {"name": "StatefulPartitionedCall/model/transformer_encoder_regressor/transformer_batch_norm_encoder_block/sequential/transformer_batch_norm_encoder_layer_9/dense_20/Tensordot/concat_1/axis", "op": "Const", "attr": {"dtype": {"type": "DT_INT32"}, "value": {"tensor": {"dtype": "DT_INT32", "tensorShape": {}}}}}, {"name": "StatefulPartitionedCall/model/transformer_encoder_regressor/transformer_batch_norm_encoder_block/sequential/transformer_batch_norm_encoder_layer_9/dense_20/BiasAdd/ReadVariableOp", "op": "Const", "attr": {"value": {"tensor": {"dtype": "DT_FLOAT", "tensorShape": {"dim": [{"size": "176"}]}}}, "dtype": {"type": "DT_FLOAT"}}}, {"name": "StatefulPartitionedCall/model/transformer_encoder_regressor/transformer_batch_norm_encoder_block/sequential/transformer_batch_norm_encoder_layer_9/batch_normalization_19/batchnorm/mul", "op": "Const", "attr": {"value": {"tensor": {"dtype": "DT_FLOAT", "tensorShape": {"dim": [{"size": "176"}]}}}, "dtype": {"type": "DT_FLOAT"}}}, {"name": "StatefulPartitionedCall/model/transformer_encoder_regressor/transformer_batch_norm_encoder_block/sequential/transformer_batch_norm_encoder_layer_9/batch_normalization_19/batchnorm/sub", "op": "Const", "attr": {"value": {"tensor": {"dtype": "DT_FLOAT", "tensorShape": {"dim": [{"size": "176"}]}}}, "dtype": {"type": "DT_FLOAT"}}}, {"name": "StatefulPartitionedCall/model/transformer_encoder_regressor/transformer_batch_norm_encoder_block/sequential/transformer_batch_norm_encoder_layer_9/batch_normalization_18/batchnorm/sub", "op": "Const", "attr": {"dtype": {"type": "DT_FLOAT"}, "value": {"tensor": {"dtype": "DT_FLOAT", "tensorShape": {"dim": [{"size": "176"}]}}}}}, {"name": "StatefulPartitionedCall/model/transformer_encoder_regressor/transformer_batch_norm_encoder_block/sequential/transformer_batch_norm_encoder_layer_9/batch_normalization_18/batchnorm/mul", "op": "Const", "attr": {"value": {"tensor": {"dtype": "DT_FLOAT", "tensorShape": {"dim": [{"size": "176"}]}}}, "dtype": {"type": "DT_FLOAT"}}}, {"name": "StatefulPartitionedCall/model/transformer_encoder_regressor/transformer_batch_norm_encoder_block/sequential/transformer_batch_norm_encoder_layer_9/multi_head_attention_9/key/einsum/Einsum/ReadVariableOp", "op": "Const", "attr": {"value": {"tensor": {"dtype": "DT_FLOAT", "tensorShape": {"dim": [{"size": "176"}, {"size": "4"}, {"size": "176"}]}}}, "dtype": {"type": "DT_FLOAT"}}}, {"name": "StatefulPartitionedCall/model/transformer_encoder_regressor/transformer_batch_norm_encoder_block/sequential/transformer_batch_norm_encoder_layer_9/multi_head_attention_9/key/add/ReadVariableOp", "op": "Const", "attr": {"dtype": {"type": "DT_FLOAT"}, "value": {"tensor": {"dtype": "DT_FLOAT", "tensorShape": {"dim": [{"size": "4"}, {"size": "176"}]}}}}}, {"name": "StatefulPartitionedCall/model/transformer_encoder_regressor/transformer_batch_norm_encoder_block/sequential/transformer_batch_norm_encoder_layer_9/multi_head_attention_9/query/einsum/Einsum/ReadVariableOp", "op": "Const", "attr": {"dtype": {"type": "DT_FLOAT"}, "value": {"tensor": {"dtype": "DT_FLOAT", "tensorShape": {"dim": [{"size": "176"}, {"size": "4"}, {"size": "176"}]}}}}}, {"name": "StatefulPartitionedCall/model/transformer_encoder_regressor/transformer_batch_norm_encoder_block/sequential/transformer_batch_norm_encoder_layer_9/multi_head_attention_9/query/add/ReadVariableOp", "op": "Const", "attr": {"dtype": {"type": "DT_FLOAT"}, "value": {"tensor": {"dtype": "DT_FLOAT", "tensorShape": {"dim": [{"size": "4"}, {"size": "176"}]}}}}}, {"name": "StatefulPartitionedCall/model/transformer_encoder_regressor/transformer_batch_norm_encoder_block/sequential/transformer_batch_norm_encoder_layer_9/multi_head_attention_9/Mul/y", "op": "Const", "attr": {"dtype": {"type": "DT_FLOAT"}, "value": {"tensor": {"dtype": "DT_FLOAT", "tensorShape": {}}}}}, {"name": "StatefulPartitionedCall/model/transformer_encoder_regressor/transformer_batch_norm_encoder_block/sequential/transformer_batch_norm_encoder_layer_8/dense_18/Tensordot/Const", "op": "Const", "attr": {"value": {"tensor": {"dtype": "DT_INT32", "tensorShape": {"dim": [{"size": "1"}]}}}, "dtype": {"type": "DT_INT32"}}}, {"name": "StatefulPartitionedCall/model/transformer_encoder_regressor/transformer_batch_norm_encoder_block/sequential/transformer_batch_norm_encoder_layer_8/dense_18/Tensordot/axes", "op": "Const", "attr": {"value": {"tensor": {"dtype": "DT_INT32", "tensorShape": {"dim": [{"size": "1"}]}}}, "dtype": {"type": "DT_INT32"}}}, {"name": "StatefulPartitionedCall/model/transformer_encoder_regressor/transformer_batch_norm_encoder_block/sequential/transformer_batch_norm_encoder_layer_8/dense_18/Tensordot/GatherV2_1/axis", "op": "Const", "attr": {"value": {"tensor": {"dtype": "DT_INT32", "tensorShape": {}}}, "dtype": {"type": "DT_INT32"}}}, {"name": "StatefulPartitionedCall/model/transformer_encoder_regressor/transformer_batch_norm_encoder_block/sequential/transformer_batch_norm_encoder_layer_8/dense_18/Tensordot/Const_1", "op": "Const", "attr": {"value": {"tensor": {"dtype": "DT_INT32", "tensorShape": {"dim": [{"size": "1"}]}}}, "dtype": {"type": "DT_INT32"}}}, {"name": "StatefulPartitionedCall/model/transformer_encoder_regressor/transformer_batch_norm_encoder_block/sequential/transformer_batch_norm_encoder_layer_8/dense_18/Tensordot/ReadVariableOp", "op": "Const", "attr": {"dtype": {"type": "DT_FLOAT"}, "value": {"tensor": {"dtype": "DT_FLOAT", "tensorShape": {"dim": [{"size": "229"}, {"size": "176"}]}}}}}, {"name": "StatefulPartitionedCall/model/transformer_encoder_regressor/transformer_batch_norm_encoder_block/sequential/transformer_batch_norm_encoder_layer_8/dense_17/Tensordot/Const", "op": "Const", "attr": {"value": {"tensor": {"dtype": "DT_INT32", "tensorShape": {"dim": [{"size": "1"}]}}}, "dtype": {"type": "DT_INT32"}}}, {"name": "StatefulPartitionedCall/model/transformer_encoder_regressor/transformer_batch_norm_encoder_block/sequential/transformer_batch_norm_encoder_layer_8/dense_17/Tensordot/axes", "op": "Const", "attr": {"value": {"tensor": {"dtype": "DT_INT32", "tensorShape": {"dim": [{"size": "1"}]}}}, "dtype": {"type": "DT_INT32"}}}, {"name": "StatefulPartitionedCall/model/transformer_encoder_regressor/transformer_batch_norm_encoder_block/sequential/transformer_batch_norm_encoder_layer_8/dense_17/Tensordot/GatherV2_1/axis", "op": "Const", "attr": {"dtype": {"type": "DT_INT32"}, "value": {"tensor": {"dtype": "DT_INT32", "tensorShape": {}}}}}, {"name": "StatefulPartitionedCall/model/transformer_encoder_regressor/transformer_batch_norm_encoder_block/sequential/transformer_batch_norm_encoder_layer_8/dense_17/Tensordot/Const_1", "op": "Const", "attr": {"dtype": {"type": "DT_INT32"}, "value": {"tensor": {"dtype": "DT_INT32", "tensorShape": {"dim": [{"size": "1"}]}}}}}, {"name": "StatefulPartitionedCall/model/transformer_encoder_regressor/transformer_batch_norm_encoder_block/sequential/transformer_batch_norm_encoder_layer_8/dense_17/Tensordot/ReadVariableOp", "op": "Const", "attr": {"value": {"tensor": {"dtype": "DT_FLOAT", "tensorShape": {"dim": [{"size": "176"}, {"size": "229"}]}}}, "dtype": {"type": "DT_FLOAT"}}}, {"name": "StatefulPartitionedCall/model/transformer_encoder_regressor/transformer_batch_norm_encoder_block/sequential/transformer_batch_norm_encoder_layer_8/dense_17/Tensordot/free", "op": "Const", "attr": {"value": {"tensor": {"dtype": "DT_INT32", "tensorShape": {"dim": [{"size": "2"}]}}}, "dtype": {"type": "DT_INT32"}}}, {"name": "StatefulPartitionedCall/model/transformer_encoder_regressor/transformer_batch_norm_encoder_block/sequential/transformer_batch_norm_encoder_layer_8/dense_17/Tensordot/GatherV2/axis", "op": "Const", "attr": {"dtype": {"type": "DT_INT32"}, "value": {"tensor": {"dtype": "DT_INT32", "tensorShape": {}}}}}, {"name": "StatefulPartitionedCall/model/transformer_encoder_regressor/transformer_batch_norm_encoder_block/sequential/transformer_batch_norm_encoder_layer_8/dense_17/Tensordot/Const_2", "op": "Const", "attr": {"dtype": {"type": "DT_INT32"}, "value": {"tensor": {"dtype": "DT_INT32", "tensorShape": {"dim": [{"size": "1"}]}}}}}, {"name": "StatefulPartitionedCall/model/transformer_encoder_regressor/transformer_batch_norm_encoder_block/sequential/transformer_batch_norm_encoder_layer_8/dense_17/Tensordot/concat_1/axis", "op": "Const", "attr": {"dtype": {"type": "DT_INT32"}, "value": {"tensor": {"dtype": "DT_INT32", "tensorShape": {}}}}}, {"name": "StatefulPartitionedCall/model/transformer_encoder_regressor/transformer_batch_norm_encoder_block/sequential/transformer_batch_norm_encoder_layer_8/dense_17/BiasAdd/ReadVariableOp", "op": "Const", "attr": {"value": {"tensor": {"dtype": "DT_FLOAT", "tensorShape": {"dim": [{"size": "229"}]}}}, "dtype": {"type": "DT_FLOAT"}}}, {"name": "StatefulPartitionedCall/model/transformer_encoder_regressor/transformer_batch_norm_encoder_block/sequential/transformer_batch_norm_encoder_layer_8/dense_18/Tensordot/free", "op": "Const", "attr": {"dtype": {"type": "DT_INT32"}, "value": {"tensor": {"dtype": "DT_INT32", "tensorShape": {"dim": [{"size": "2"}]}}}}}, {"name": "StatefulPartitionedCall/model/transformer_encoder_regressor/transformer_batch_norm_encoder_block/sequential/transformer_batch_norm_encoder_layer_8/dense_18/Tensordot/GatherV2/axis", "op": "Const", "attr": {"value": {"tensor": {"dtype": "DT_INT32", "tensorShape": {}}}, "dtype": {"type": "DT_INT32"}}}, {"name": "StatefulPartitionedCall/model/transformer_encoder_regressor/transformer_batch_norm_encoder_block/sequential/transformer_batch_norm_encoder_layer_8/dense_18/Tensordot/Const_2", "op": "Const", "attr": {"dtype": {"type": "DT_INT32"}, "value": {"tensor": {"dtype": "DT_INT32", "tensorShape": {"dim": [{"size": "1"}]}}}}}, {"name": "StatefulPartitionedCall/model/transformer_encoder_regressor/transformer_batch_norm_encoder_block/sequential/transformer_batch_norm_encoder_layer_8/dense_18/Tensordot/concat_1/axis", "op": "Const", "attr": {"dtype": {"type": "DT_INT32"}, "value": {"tensor": {"dtype": "DT_INT32", "tensorShape": {}}}}}, {"name": "StatefulPartitionedCall/model/transformer_encoder_regressor/transformer_batch_norm_encoder_block/sequential/transformer_batch_norm_encoder_layer_8/dense_18/BiasAdd/ReadVariableOp", "op": "Const", "attr": {"dtype": {"type": "DT_FLOAT"}, "value": {"tensor": {"dtype": "DT_FLOAT", "tensorShape": {"dim": [{"size": "176"}]}}}}}, {"name": "StatefulPartitionedCall/model/transformer_encoder_regressor/transformer_batch_norm_encoder_block/sequential/transformer_batch_norm_encoder_layer_8/batch_normalization_17/batchnorm/mul", "op": "Const", "attr": {"dtype": {"type": "DT_FLOAT"}, "value": {"tensor": {"dtype": "DT_FLOAT", "tensorShape": {"dim": [{"size": "176"}]}}}}}, {"name": "StatefulPartitionedCall/model/transformer_encoder_regressor/transformer_batch_norm_encoder_block/sequential/transformer_batch_norm_encoder_layer_8/batch_normalization_17/batchnorm/sub", "op": "Const", "attr": {"value": {"tensor": {"dtype": "DT_FLOAT", "tensorShape": {"dim": [{"size": "176"}]}}}, "dtype": {"type": "DT_FLOAT"}}}, {"name": "StatefulPartitionedCall/model/transformer_encoder_regressor/transformer_batch_norm_encoder_block/sequential/transformer_batch_norm_encoder_layer_8/batch_normalization_16/batchnorm/sub", "op": "Const", "attr": {"value": {"tensor": {"dtype": "DT_FLOAT", "tensorShape": {"dim": [{"size": "176"}]}}}, "dtype": {"type": "DT_FLOAT"}}}, {"name": "StatefulPartitionedCall/model/transformer_encoder_regressor/transformer_batch_norm_encoder_block/sequential/transformer_batch_norm_encoder_layer_8/batch_normalization_16/batchnorm/mul", "op": "Const", "attr": {"value": {"tensor": {"dtype": "DT_FLOAT", "tensorShape": {"dim": [{"size": "176"}]}}}, "dtype": {"type": "DT_FLOAT"}}}, {"name": "StatefulPartitionedCall/model/transformer_encoder_regressor/transformer_batch_norm_encoder_block/sequential/transformer_batch_norm_encoder_layer_8/multi_head_attention_8/key/einsum/Einsum/ReadVariableOp", "op": "Const", "attr": {"dtype": {"type": "DT_FLOAT"}, "value": {"tensor": {"dtype": "DT_FLOAT", "tensorShape": {"dim": [{"size": "176"}, {"size": "4"}, {"size": "176"}]}}}}}, {"name": "StatefulPartitionedCall/model/transformer_encoder_regressor/transformer_batch_norm_encoder_block/sequential/transformer_batch_norm_encoder_layer_8/multi_head_attention_8/key/add/ReadVariableOp", "op": "Const", "attr": {"dtype": {"type": "DT_FLOAT"}, "value": {"tensor": {"dtype": "DT_FLOAT", "tensorShape": {"dim": [{"size": "4"}, {"size": "176"}]}}}}}, {"name": "StatefulPartitionedCall/model/transformer_encoder_regressor/transformer_batch_norm_encoder_block/sequential/transformer_batch_norm_encoder_layer_8/multi_head_attention_8/query/einsum/Einsum/ReadVariableOp", "op": "Const", "attr": {"value": {"tensor": {"dtype": "DT_FLOAT", "tensorShape": {"dim": [{"size": "176"}, {"size": "4"}, {"size": "176"}]}}}, "dtype": {"type": "DT_FLOAT"}}}, {"name": "StatefulPartitionedCall/model/transformer_encoder_regressor/transformer_batch_norm_encoder_block/sequential/transformer_batch_norm_encoder_layer_8/multi_head_attention_8/query/add/ReadVariableOp", "op": "Const", "attr": {"dtype": {"type": "DT_FLOAT"}, "value": {"tensor": {"dtype": "DT_FLOAT", "tensorShape": {"dim": [{"size": "4"}, {"size": "176"}]}}}}}, {"name": "StatefulPartitionedCall/model/transformer_encoder_regressor/transformer_batch_norm_encoder_block/sequential/transformer_batch_norm_encoder_layer_8/multi_head_attention_8/Mul/y", "op": "Const", "attr": {"dtype": {"type": "DT_FLOAT"}, "value": {"tensor": {"dtype": "DT_FLOAT", "tensorShape": {}}}}}, {"name": "StatefulPartitionedCall/model/transformer_encoder_regressor/transformer_batch_norm_encoder_block/sequential/transformer_batch_norm_encoder_layer_7/dense_16/Tensordot/Const", "op": "Const", "attr": {"dtype": {"type": "DT_INT32"}, "value": {"tensor": {"dtype": "DT_INT32", "tensorShape": {"dim": [{"size": "1"}]}}}}}, {"name": "StatefulPartitionedCall/model/transformer_encoder_regressor/transformer_batch_norm_encoder_block/sequential/transformer_batch_norm_encoder_layer_7/dense_16/Tensordot/axes", "op": "Const", "attr": {"value": {"tensor": {"dtype": "DT_INT32", "tensorShape": {"dim": [{"size": "1"}]}}}, "dtype": {"type": "DT_INT32"}}}, {"name": "StatefulPartitionedCall/model/transformer_encoder_regressor/transformer_batch_norm_encoder_block/sequential/transformer_batch_norm_encoder_layer_7/dense_16/Tensordot/GatherV2_1/axis", "op": "Const", "attr": {"dtype": {"type": "DT_INT32"}, "value": {"tensor": {"dtype": "DT_INT32", "tensorShape": {}}}}}, {"name": "StatefulPartitionedCall/model/transformer_encoder_regressor/transformer_batch_norm_encoder_block/sequential/transformer_batch_norm_encoder_layer_7/dense_16/Tensordot/Const_1", "op": "Const", "attr": {"dtype": {"type": "DT_INT32"}, "value": {"tensor": {"dtype": "DT_INT32", "tensorShape": {"dim": [{"size": "1"}]}}}}}, {"name": "StatefulPartitionedCall/model/transformer_encoder_regressor/transformer_batch_norm_encoder_block/sequential/transformer_batch_norm_encoder_layer_7/dense_16/Tensordot/ReadVariableOp", "op": "Const", "attr": {"value": {"tensor": {"dtype": "DT_FLOAT", "tensorShape": {"dim": [{"size": "229"}, {"size": "176"}]}}}, "dtype": {"type": "DT_FLOAT"}}}, {"name": "StatefulPartitionedCall/model/transformer_encoder_regressor/transformer_batch_norm_encoder_block/sequential/transformer_batch_norm_encoder_layer_7/dense_15/Tensordot/Const", "op": "Const", "attr": {"dtype": {"type": "DT_INT32"}, "value": {"tensor": {"dtype": "DT_INT32", "tensorShape": {"dim": [{"size": "1"}]}}}}}, {"name": "StatefulPartitionedCall/model/transformer_encoder_regressor/transformer_batch_norm_encoder_block/sequential/transformer_batch_norm_encoder_layer_7/dense_15/Tensordot/axes", "op": "Const", "attr": {"value": {"tensor": {"dtype": "DT_INT32", "tensorShape": {"dim": [{"size": "1"}]}}}, "dtype": {"type": "DT_INT32"}}}, {"name": "StatefulPartitionedCall/model/transformer_encoder_regressor/transformer_batch_norm_encoder_block/sequential/transformer_batch_norm_encoder_layer_7/dense_15/Tensordot/GatherV2_1/axis", "op": "Const", "attr": {"value": {"tensor": {"dtype": "DT_INT32", "tensorShape": {}}}, "dtype": {"type": "DT_INT32"}}}, {"name": "StatefulPartitionedCall/model/transformer_encoder_regressor/transformer_batch_norm_encoder_block/sequential/transformer_batch_norm_encoder_layer_7/dense_15/Tensordot/Const_1", "op": "Const", "attr": {"value": {"tensor": {"dtype": "DT_INT32", "tensorShape": {"dim": [{"size": "1"}]}}}, "dtype": {"type": "DT_INT32"}}}, {"name": "StatefulPartitionedCall/model/transformer_encoder_regressor/transformer_batch_norm_encoder_block/sequential/transformer_batch_norm_encoder_layer_7/dense_15/Tensordot/ReadVariableOp", "op": "Const", "attr": {"dtype": {"type": "DT_FLOAT"}, "value": {"tensor": {"dtype": "DT_FLOAT", "tensorShape": {"dim": [{"size": "176"}, {"size": "229"}]}}}}}, {"name": "StatefulPartitionedCall/model/transformer_encoder_regressor/transformer_batch_norm_encoder_block/sequential/transformer_batch_norm_encoder_layer_7/dense_15/Tensordot/free", "op": "Const", "attr": {"dtype": {"type": "DT_INT32"}, "value": {"tensor": {"dtype": "DT_INT32", "tensorShape": {"dim": [{"size": "2"}]}}}}}, {"name": "StatefulPartitionedCall/model/transformer_encoder_regressor/transformer_batch_norm_encoder_block/sequential/transformer_batch_norm_encoder_layer_7/dense_15/Tensordot/GatherV2/axis", "op": "Const", "attr": {"value": {"tensor": {"dtype": "DT_INT32", "tensorShape": {}}}, "dtype": {"type": "DT_INT32"}}}, {"name": "StatefulPartitionedCall/model/transformer_encoder_regressor/transformer_batch_norm_encoder_block/sequential/transformer_batch_norm_encoder_layer_7/dense_15/Tensordot/Const_2", "op": "Const", "attr": {"dtype": {"type": "DT_INT32"}, "value": {"tensor": {"dtype": "DT_INT32", "tensorShape": {"dim": [{"size": "1"}]}}}}}, {"name": "StatefulPartitionedCall/model/transformer_encoder_regressor/transformer_batch_norm_encoder_block/sequential/transformer_batch_norm_encoder_layer_7/dense_15/Tensordot/concat_1/axis", "op": "Const", "attr": {"dtype": {"type": "DT_INT32"}, "value": {"tensor": {"dtype": "DT_INT32", "tensorShape": {}}}}}, {"name": "StatefulPartitionedCall/model/transformer_encoder_regressor/transformer_batch_norm_encoder_block/sequential/transformer_batch_norm_encoder_layer_7/dense_15/BiasAdd/ReadVariableOp", "op": "Const", "attr": {"dtype": {"type": "DT_FLOAT"}, "value": {"tensor": {"dtype": "DT_FLOAT", "tensorShape": {"dim": [{"size": "229"}]}}}}}, {"name": "StatefulPartitionedCall/model/transformer_encoder_regressor/transformer_batch_norm_encoder_block/sequential/transformer_batch_norm_encoder_layer_7/dense_16/Tensordot/free", "op": "Const", "attr": {"dtype": {"type": "DT_INT32"}, "value": {"tensor": {"dtype": "DT_INT32", "tensorShape": {"dim": [{"size": "2"}]}}}}}, {"name": "StatefulPartitionedCall/model/transformer_encoder_regressor/transformer_batch_norm_encoder_block/sequential/transformer_batch_norm_encoder_layer_7/dense_16/Tensordot/GatherV2/axis", "op": "Const", "attr": {"value": {"tensor": {"dtype": "DT_INT32", "tensorShape": {}}}, "dtype": {"type": "DT_INT32"}}}, {"name": "StatefulPartitionedCall/model/transformer_encoder_regressor/transformer_batch_norm_encoder_block/sequential/transformer_batch_norm_encoder_layer_7/dense_16/Tensordot/Const_2", "op": "Const", "attr": {"dtype": {"type": "DT_INT32"}, "value": {"tensor": {"dtype": "DT_INT32", "tensorShape": {"dim": [{"size": "1"}]}}}}}, {"name": "StatefulPartitionedCall/model/transformer_encoder_regressor/transformer_batch_norm_encoder_block/sequential/transformer_batch_norm_encoder_layer_7/dense_16/Tensordot/concat_1/axis", "op": "Const", "attr": {"value": {"tensor": {"dtype": "DT_INT32", "tensorShape": {}}}, "dtype": {"type": "DT_INT32"}}}, {"name": "StatefulPartitionedCall/model/transformer_encoder_regressor/transformer_batch_norm_encoder_block/sequential/transformer_batch_norm_encoder_layer_7/dense_16/BiasAdd/ReadVariableOp", "op": "Const", "attr": {"dtype": {"type": "DT_FLOAT"}, "value": {"tensor": {"dtype": "DT_FLOAT", "tensorShape": {"dim": [{"size": "176"}]}}}}}, {"name": "StatefulPartitionedCall/model/transformer_encoder_regressor/transformer_batch_norm_encoder_block/sequential/transformer_batch_norm_encoder_layer_7/batch_normalization_15/batchnorm/mul", "op": "Const", "attr": {"value": {"tensor": {"dtype": "DT_FLOAT", "tensorShape": {"dim": [{"size": "176"}]}}}, "dtype": {"type": "DT_FLOAT"}}}, {"name": "StatefulPartitionedCall/model/transformer_encoder_regressor/transformer_batch_norm_encoder_block/sequential/transformer_batch_norm_encoder_layer_7/batch_normalization_15/batchnorm/sub", "op": "Const", "attr": {"dtype": {"type": "DT_FLOAT"}, "value": {"tensor": {"dtype": "DT_FLOAT", "tensorShape": {"dim": [{"size": "176"}]}}}}}, {"name": "StatefulPartitionedCall/model/transformer_encoder_regressor/transformer_batch_norm_encoder_block/sequential/transformer_batch_norm_encoder_layer_7/batch_normalization_14/batchnorm/sub", "op": "Const", "attr": {"dtype": {"type": "DT_FLOAT"}, "value": {"tensor": {"dtype": "DT_FLOAT", "tensorShape": {"dim": [{"size": "176"}]}}}}}, {"name": "StatefulPartitionedCall/model/transformer_encoder_regressor/transformer_batch_norm_encoder_block/sequential/transformer_batch_norm_encoder_layer_7/batch_normalization_14/batchnorm/mul", "op": "Const", "attr": {"value": {"tensor": {"dtype": "DT_FLOAT", "tensorShape": {"dim": [{"size": "176"}]}}}, "dtype": {"type": "DT_FLOAT"}}}, {"name": "StatefulPartitionedCall/model/transformer_encoder_regressor/transformer_batch_norm_encoder_block/sequential/transformer_batch_norm_encoder_layer_7/multi_head_attention_7/key/einsum/Einsum/ReadVariableOp", "op": "Const", "attr": {"value": {"tensor": {"dtype": "DT_FLOAT", "tensorShape": {"dim": [{"size": "176"}, {"size": "4"}, {"size": "176"}]}}}, "dtype": {"type": "DT_FLOAT"}}}, {"name": "StatefulPartitionedCall/model/transformer_encoder_regressor/transformer_batch_norm_encoder_block/sequential/transformer_batch_norm_encoder_layer_7/multi_head_attention_7/key/add/ReadVariableOp", "op": "Const", "attr": {"value": {"tensor": {"dtype": "DT_FLOAT", "tensorShape": {"dim": [{"size": "4"}, {"size": "176"}]}}}, "dtype": {"type": "DT_FLOAT"}}}, {"name": "StatefulPartitionedCall/model/transformer_encoder_regressor/transformer_batch_norm_encoder_block/sequential/transformer_batch_norm_encoder_layer_7/multi_head_attention_7/query/einsum/Einsum/ReadVariableOp", "op": "Const", "attr": {"dtype": {"type": "DT_FLOAT"}, "value": {"tensor": {"dtype": "DT_FLOAT", "tensorShape": {"dim": [{"size": "176"}, {"size": "4"}, {"size": "176"}]}}}}}, {"name": "StatefulPartitionedCall/model/transformer_encoder_regressor/transformer_batch_norm_encoder_block/sequential/transformer_batch_norm_encoder_layer_7/multi_head_attention_7/query/add/ReadVariableOp", "op": "Const", "attr": {"value": {"tensor": {"dtype": "DT_FLOAT", "tensorShape": {"dim": [{"size": "4"}, {"size": "176"}]}}}, "dtype": {"type": "DT_FLOAT"}}}, {"name": "StatefulPartitionedCall/model/transformer_encoder_regressor/transformer_batch_norm_encoder_block/sequential/transformer_batch_norm_encoder_layer_7/multi_head_attention_7/Mul/y", "op": "Const", "attr": {"value": {"tensor": {"dtype": "DT_FLOAT", "tensorShape": {}}}, "dtype": {"type": "DT_FLOAT"}}}, {"name": "StatefulPartitionedCall/model/transformer_encoder_regressor/transformer_batch_norm_encoder_block/sequential/transformer_batch_norm_encoder_layer_6/dense_14/Tensordot/Const", "op": "Const", "attr": {"dtype": {"type": "DT_INT32"}, "value": {"tensor": {"dtype": "DT_INT32", "tensorShape": {"dim": [{"size": "1"}]}}}}}, {"name": "StatefulPartitionedCall/model/transformer_encoder_regressor/transformer_batch_norm_encoder_block/sequential/transformer_batch_norm_encoder_layer_6/dense_14/Tensordot/axes", "op": "Const", "attr": {"dtype": {"type": "DT_INT32"}, "value": {"tensor": {"dtype": "DT_INT32", "tensorShape": {"dim": [{"size": "1"}]}}}}}, {"name": "StatefulPartitionedCall/model/transformer_encoder_regressor/transformer_batch_norm_encoder_block/sequential/transformer_batch_norm_encoder_layer_6/dense_14/Tensordot/GatherV2_1/axis", "op": "Const", "attr": {"value": {"tensor": {"dtype": "DT_INT32", "tensorShape": {}}}, "dtype": {"type": "DT_INT32"}}}, {"name": "StatefulPartitionedCall/model/transformer_encoder_regressor/transformer_batch_norm_encoder_block/sequential/transformer_batch_norm_encoder_layer_6/dense_14/Tensordot/Const_1", "op": "Const", "attr": {"value": {"tensor": {"dtype": "DT_INT32", "tensorShape": {"dim": [{"size": "1"}]}}}, "dtype": {"type": "DT_INT32"}}}, {"name": "StatefulPartitionedCall/model/transformer_encoder_regressor/transformer_batch_norm_encoder_block/sequential/transformer_batch_norm_encoder_layer_6/dense_14/Tensordot/ReadVariableOp", "op": "Const", "attr": {"dtype": {"type": "DT_FLOAT"}, "value": {"tensor": {"dtype": "DT_FLOAT", "tensorShape": {"dim": [{"size": "229"}, {"size": "176"}]}}}}}, {"name": "StatefulPartitionedCall/model/transformer_encoder_regressor/transformer_batch_norm_encoder_block/sequential/transformer_batch_norm_encoder_layer_6/dense_13/Tensordot/Const", "op": "Const", "attr": {"dtype": {"type": "DT_INT32"}, "value": {"tensor": {"dtype": "DT_INT32", "tensorShape": {"dim": [{"size": "1"}]}}}}}, {"name": "StatefulPartitionedCall/model/transformer_encoder_regressor/transformer_batch_norm_encoder_block/sequential/transformer_batch_norm_encoder_layer_6/dense_13/Tensordot/axes", "op": "Const", "attr": {"dtype": {"type": "DT_INT32"}, "value": {"tensor": {"dtype": "DT_INT32", "tensorShape": {"dim": [{"size": "1"}]}}}}}, {"name": "StatefulPartitionedCall/model/transformer_encoder_regressor/transformer_batch_norm_encoder_block/sequential/transformer_batch_norm_encoder_layer_6/dense_13/Tensordot/GatherV2_1/axis", "op": "Const", "attr": {"value": {"tensor": {"dtype": "DT_INT32", "tensorShape": {}}}, "dtype": {"type": "DT_INT32"}}}, {"name": "StatefulPartitionedCall/model/transformer_encoder_regressor/transformer_batch_norm_encoder_block/sequential/transformer_batch_norm_encoder_layer_6/dense_13/Tensordot/Const_1", "op": "Const", "attr": {"value": {"tensor": {"dtype": "DT_INT32", "tensorShape": {"dim": [{"size": "1"}]}}}, "dtype": {"type": "DT_INT32"}}}, {"name": "StatefulPartitionedCall/model/transformer_encoder_regressor/transformer_batch_norm_encoder_block/sequential/transformer_batch_norm_encoder_layer_6/dense_13/Tensordot/ReadVariableOp", "op": "Const", "attr": {"dtype": {"type": "DT_FLOAT"}, "value": {"tensor": {"dtype": "DT_FLOAT", "tensorShape": {"dim": [{"size": "176"}, {"size": "229"}]}}}}}, {"name": "StatefulPartitionedCall/model/transformer_encoder_regressor/transformer_batch_norm_encoder_block/sequential/transformer_batch_norm_encoder_layer_6/dense_13/Tensordot/free", "op": "Const", "attr": {"dtype": {"type": "DT_INT32"}, "value": {"tensor": {"dtype": "DT_INT32", "tensorShape": {"dim": [{"size": "2"}]}}}}}, {"name": "StatefulPartitionedCall/model/transformer_encoder_regressor/transformer_batch_norm_encoder_block/sequential/transformer_batch_norm_encoder_layer_6/dense_13/Tensordot/GatherV2/axis", "op": "Const", "attr": {"dtype": {"type": "DT_INT32"}, "value": {"tensor": {"dtype": "DT_INT32", "tensorShape": {}}}}}, {"name": "StatefulPartitionedCall/model/transformer_encoder_regressor/transformer_batch_norm_encoder_block/sequential/transformer_batch_norm_encoder_layer_6/dense_13/Tensordot/Const_2", "op": "Const", "attr": {"dtype": {"type": "DT_INT32"}, "value": {"tensor": {"dtype": "DT_INT32", "tensorShape": {"dim": [{"size": "1"}]}}}}}, {"name": "StatefulPartitionedCall/model/transformer_encoder_regressor/transformer_batch_norm_encoder_block/sequential/transformer_batch_norm_encoder_layer_6/dense_13/Tensordot/concat_1/axis", "op": "Const", "attr": {"value": {"tensor": {"dtype": "DT_INT32", "tensorShape": {}}}, "dtype": {"type": "DT_INT32"}}}, {"name": "StatefulPartitionedCall/model/transformer_encoder_regressor/transformer_batch_norm_encoder_block/sequential/transformer_batch_norm_encoder_layer_6/dense_13/BiasAdd/ReadVariableOp", "op": "Const", "attr": {"value": {"tensor": {"dtype": "DT_FLOAT", "tensorShape": {"dim": [{"size": "229"}]}}}, "dtype": {"type": "DT_FLOAT"}}}, {"name": "StatefulPartitionedCall/model/transformer_encoder_regressor/transformer_batch_norm_encoder_block/sequential/transformer_batch_norm_encoder_layer_6/dense_14/Tensordot/free", "op": "Const", "attr": {"value": {"tensor": {"dtype": "DT_INT32", "tensorShape": {"dim": [{"size": "2"}]}}}, "dtype": {"type": "DT_INT32"}}}, {"name": "StatefulPartitionedCall/model/transformer_encoder_regressor/transformer_batch_norm_encoder_block/sequential/transformer_batch_norm_encoder_layer_6/dense_14/Tensordot/GatherV2/axis", "op": "Const", "attr": {"value": {"tensor": {"dtype": "DT_INT32", "tensorShape": {}}}, "dtype": {"type": "DT_INT32"}}}, {"name": "StatefulPartitionedCall/model/transformer_encoder_regressor/transformer_batch_norm_encoder_block/sequential/transformer_batch_norm_encoder_layer_6/dense_14/Tensordot/Const_2", "op": "Const", "attr": {"value": {"tensor": {"dtype": "DT_INT32", "tensorShape": {"dim": [{"size": "1"}]}}}, "dtype": {"type": "DT_INT32"}}}, {"name": "StatefulPartitionedCall/model/transformer_encoder_regressor/transformer_batch_norm_encoder_block/sequential/transformer_batch_norm_encoder_layer_6/dense_14/Tensordot/concat_1/axis", "op": "Const", "attr": {"dtype": {"type": "DT_INT32"}, "value": {"tensor": {"dtype": "DT_INT32", "tensorShape": {}}}}}, {"name": "StatefulPartitionedCall/model/transformer_encoder_regressor/transformer_batch_norm_encoder_block/sequential/transformer_batch_norm_encoder_layer_6/dense_14/BiasAdd/ReadVariableOp", "op": "Const", "attr": {"dtype": {"type": "DT_FLOAT"}, "value": {"tensor": {"dtype": "DT_FLOAT", "tensorShape": {"dim": [{"size": "176"}]}}}}}, {"name": "StatefulPartitionedCall/model/transformer_encoder_regressor/transformer_batch_norm_encoder_block/sequential/transformer_batch_norm_encoder_layer_6/batch_normalization_13/batchnorm/mul", "op": "Const", "attr": {"dtype": {"type": "DT_FLOAT"}, "value": {"tensor": {"dtype": "DT_FLOAT", "tensorShape": {"dim": [{"size": "176"}]}}}}}, {"name": "StatefulPartitionedCall/model/transformer_encoder_regressor/transformer_batch_norm_encoder_block/sequential/transformer_batch_norm_encoder_layer_6/batch_normalization_13/batchnorm/sub", "op": "Const", "attr": {"value": {"tensor": {"dtype": "DT_FLOAT", "tensorShape": {"dim": [{"size": "176"}]}}}, "dtype": {"type": "DT_FLOAT"}}}, {"name": "StatefulPartitionedCall/model/transformer_encoder_regressor/transformer_batch_norm_encoder_block/sequential/transformer_batch_norm_encoder_layer_6/batch_normalization_12/batchnorm/sub", "op": "Const", "attr": {"value": {"tensor": {"dtype": "DT_FLOAT", "tensorShape": {"dim": [{"size": "176"}]}}}, "dtype": {"type": "DT_FLOAT"}}}, {"name": "StatefulPartitionedCall/model/transformer_encoder_regressor/transformer_batch_norm_encoder_block/sequential/transformer_batch_norm_encoder_layer_6/batch_normalization_12/batchnorm/mul", "op": "Const", "attr": {"dtype": {"type": "DT_FLOAT"}, "value": {"tensor": {"dtype": "DT_FLOAT", "tensorShape": {"dim": [{"size": "176"}]}}}}}, {"name": "StatefulPartitionedCall/model/transformer_encoder_regressor/transformer_batch_norm_encoder_block/sequential/transformer_batch_norm_encoder_layer_6/multi_head_attention_6/key/einsum/Einsum/ReadVariableOp", "op": "Const", "attr": {"value": {"tensor": {"dtype": "DT_FLOAT", "tensorShape": {"dim": [{"size": "176"}, {"size": "4"}, {"size": "176"}]}}}, "dtype": {"type": "DT_FLOAT"}}}, {"name": "StatefulPartitionedCall/model/transformer_encoder_regressor/transformer_batch_norm_encoder_block/sequential/transformer_batch_norm_encoder_layer_6/multi_head_attention_6/key/add/ReadVariableOp", "op": "Const", "attr": {"value": {"tensor": {"dtype": "DT_FLOAT", "tensorShape": {"dim": [{"size": "4"}, {"size": "176"}]}}}, "dtype": {"type": "DT_FLOAT"}}}, {"name": "StatefulPartitionedCall/model/transformer_encoder_regressor/transformer_batch_norm_encoder_block/sequential/transformer_batch_norm_encoder_layer_6/multi_head_attention_6/query/einsum/Einsum/ReadVariableOp", "op": "Const", "attr": {"value": {"tensor": {"dtype": "DT_FLOAT", "tensorShape": {"dim": [{"size": "176"}, {"size": "4"}, {"size": "176"}]}}}, "dtype": {"type": "DT_FLOAT"}}}, {"name": "StatefulPartitionedCall/model/transformer_encoder_regressor/transformer_batch_norm_encoder_block/sequential/transformer_batch_norm_encoder_layer_6/multi_head_attention_6/query/add/ReadVariableOp", "op": "Const", "attr": {"dtype": {"type": "DT_FLOAT"}, "value": {"tensor": {"dtype": "DT_FLOAT", "tensorShape": {"dim": [{"size": "4"}, {"size": "176"}]}}}}}, {"name": "StatefulPartitionedCall/model/transformer_encoder_regressor/transformer_batch_norm_encoder_block/sequential/transformer_batch_norm_encoder_layer_6/multi_head_attention_6/Mul/y", "op": "Const", "attr": {"value": {"tensor": {"dtype": "DT_FLOAT", "tensorShape": {}}}, "dtype": {"type": "DT_FLOAT"}}}, {"name": "StatefulPartitionedCall/model/transformer_encoder_regressor/transformer_batch_norm_encoder_block/sequential/transformer_batch_norm_encoder_layer_5/dense_12/Tensordot/Const", "op": "Const", "attr": {"dtype": {"type": "DT_INT32"}, "value": {"tensor": {"dtype": "DT_INT32", "tensorShape": {"dim": [{"size": "1"}]}}}}}, {"name": "StatefulPartitionedCall/model/transformer_encoder_regressor/transformer_batch_norm_encoder_block/sequential/transformer_batch_norm_encoder_layer_5/dense_12/Tensordot/axes", "op": "Const", "attr": {"value": {"tensor": {"dtype": "DT_INT32", "tensorShape": {"dim": [{"size": "1"}]}}}, "dtype": {"type": "DT_INT32"}}}, {"name": "StatefulPartitionedCall/model/transformer_encoder_regressor/transformer_batch_norm_encoder_block/sequential/transformer_batch_norm_encoder_layer_5/dense_12/Tensordot/GatherV2_1/axis", "op": "Const", "attr": {"dtype": {"type": "DT_INT32"}, "value": {"tensor": {"dtype": "DT_INT32", "tensorShape": {}}}}}, {"name": "StatefulPartitionedCall/model/transformer_encoder_regressor/transformer_batch_norm_encoder_block/sequential/transformer_batch_norm_encoder_layer_5/dense_12/Tensordot/Const_1", "op": "Const", "attr": {"value": {"tensor": {"dtype": "DT_INT32", "tensorShape": {"dim": [{"size": "1"}]}}}, "dtype": {"type": "DT_INT32"}}}, {"name": "StatefulPartitionedCall/model/transformer_encoder_regressor/transformer_batch_norm_encoder_block/sequential/transformer_batch_norm_encoder_layer_5/dense_12/Tensordot/ReadVariableOp", "op": "Const", "attr": {"dtype": {"type": "DT_FLOAT"}, "value": {"tensor": {"dtype": "DT_FLOAT", "tensorShape": {"dim": [{"size": "229"}, {"size": "176"}]}}}}}, {"name": "StatefulPartitionedCall/model/transformer_encoder_regressor/transformer_batch_norm_encoder_block/sequential/transformer_batch_norm_encoder_layer_5/dense_11/Tensordot/Const", "op": "Const", "attr": {"dtype": {"type": "DT_INT32"}, "value": {"tensor": {"dtype": "DT_INT32", "tensorShape": {"dim": [{"size": "1"}]}}}}}, {"name": "StatefulPartitionedCall/model/transformer_encoder_regressor/transformer_batch_norm_encoder_block/sequential/transformer_batch_norm_encoder_layer_5/dense_11/Tensordot/axes", "op": "Const", "attr": {"dtype": {"type": "DT_INT32"}, "value": {"tensor": {"dtype": "DT_INT32", "tensorShape": {"dim": [{"size": "1"}]}}}}}, {"name": "StatefulPartitionedCall/model/transformer_encoder_regressor/transformer_batch_norm_encoder_block/sequential/transformer_batch_norm_encoder_layer_5/dense_11/Tensordot/GatherV2_1/axis", "op": "Const", "attr": {"dtype": {"type": "DT_INT32"}, "value": {"tensor": {"dtype": "DT_INT32", "tensorShape": {}}}}}, {"name": "StatefulPartitionedCall/model/transformer_encoder_regressor/transformer_batch_norm_encoder_block/sequential/transformer_batch_norm_encoder_layer_5/dense_11/Tensordot/Const_1", "op": "Const", "attr": {"dtype": {"type": "DT_INT32"}, "value": {"tensor": {"dtype": "DT_INT32", "tensorShape": {"dim": [{"size": "1"}]}}}}}, {"name": "StatefulPartitionedCall/model/transformer_encoder_regressor/transformer_batch_norm_encoder_block/sequential/transformer_batch_norm_encoder_layer_5/dense_11/Tensordot/ReadVariableOp", "op": "Const", "attr": {"dtype": {"type": "DT_FLOAT"}, "value": {"tensor": {"dtype": "DT_FLOAT", "tensorShape": {"dim": [{"size": "176"}, {"size": "229"}]}}}}}, {"name": "StatefulPartitionedCall/model/transformer_encoder_regressor/transformer_batch_norm_encoder_block/sequential/transformer_batch_norm_encoder_layer_5/dense_11/Tensordot/free", "op": "Const", "attr": {"dtype": {"type": "DT_INT32"}, "value": {"tensor": {"dtype": "DT_INT32", "tensorShape": {"dim": [{"size": "2"}]}}}}}, {"name": "StatefulPartitionedCall/model/transformer_encoder_regressor/transformer_batch_norm_encoder_block/sequential/transformer_batch_norm_encoder_layer_5/dense_11/Tensordot/GatherV2/axis", "op": "Const", "attr": {"value": {"tensor": {"dtype": "DT_INT32", "tensorShape": {}}}, "dtype": {"type": "DT_INT32"}}}, {"name": "StatefulPartitionedCall/model/transformer_encoder_regressor/transformer_batch_norm_encoder_block/sequential/transformer_batch_norm_encoder_layer_5/dense_11/Tensordot/Const_2", "op": "Const", "attr": {"dtype": {"type": "DT_INT32"}, "value": {"tensor": {"dtype": "DT_INT32", "tensorShape": {"dim": [{"size": "1"}]}}}}}, {"name": "StatefulPartitionedCall/model/transformer_encoder_regressor/transformer_batch_norm_encoder_block/sequential/transformer_batch_norm_encoder_layer_5/dense_11/Tensordot/concat_1/axis", "op": "Const", "attr": {"dtype": {"type": "DT_INT32"}, "value": {"tensor": {"dtype": "DT_INT32", "tensorShape": {}}}}}, {"name": "StatefulPartitionedCall/model/transformer_encoder_regressor/transformer_batch_norm_encoder_block/sequential/transformer_batch_norm_encoder_layer_5/dense_11/BiasAdd/ReadVariableOp", "op": "Const", "attr": {"value": {"tensor": {"dtype": "DT_FLOAT", "tensorShape": {"dim": [{"size": "229"}]}}}, "dtype": {"type": "DT_FLOAT"}}}, {"name": "StatefulPartitionedCall/model/transformer_encoder_regressor/transformer_batch_norm_encoder_block/sequential/transformer_batch_norm_encoder_layer_5/dense_12/Tensordot/free", "op": "Const", "attr": {"dtype": {"type": "DT_INT32"}, "value": {"tensor": {"dtype": "DT_INT32", "tensorShape": {"dim": [{"size": "2"}]}}}}}, {"name": "StatefulPartitionedCall/model/transformer_encoder_regressor/transformer_batch_norm_encoder_block/sequential/transformer_batch_norm_encoder_layer_5/dense_12/Tensordot/GatherV2/axis", "op": "Const", "attr": {"dtype": {"type": "DT_INT32"}, "value": {"tensor": {"dtype": "DT_INT32", "tensorShape": {}}}}}, {"name": "StatefulPartitionedCall/model/transformer_encoder_regressor/transformer_batch_norm_encoder_block/sequential/transformer_batch_norm_encoder_layer_5/dense_12/Tensordot/Const_2", "op": "Const", "attr": {"dtype": {"type": "DT_INT32"}, "value": {"tensor": {"dtype": "DT_INT32", "tensorShape": {"dim": [{"size": "1"}]}}}}}, {"name": "StatefulPartitionedCall/model/transformer_encoder_regressor/transformer_batch_norm_encoder_block/sequential/transformer_batch_norm_encoder_layer_5/dense_12/Tensordot/concat_1/axis", "op": "Const", "attr": {"value": {"tensor": {"dtype": "DT_INT32", "tensorShape": {}}}, "dtype": {"type": "DT_INT32"}}}, {"name": "StatefulPartitionedCall/model/transformer_encoder_regressor/transformer_batch_norm_encoder_block/sequential/transformer_batch_norm_encoder_layer_5/dense_12/BiasAdd/ReadVariableOp", "op": "Const", "attr": {"value": {"tensor": {"dtype": "DT_FLOAT", "tensorShape": {"dim": [{"size": "176"}]}}}, "dtype": {"type": "DT_FLOAT"}}}, {"name": "StatefulPartitionedCall/model/transformer_encoder_regressor/transformer_batch_norm_encoder_block/sequential/transformer_batch_norm_encoder_layer_5/batch_normalization_11/batchnorm/mul", "op": "Const", "attr": {"dtype": {"type": "DT_FLOAT"}, "value": {"tensor": {"dtype": "DT_FLOAT", "tensorShape": {"dim": [{"size": "176"}]}}}}}, {"name": "StatefulPartitionedCall/model/transformer_encoder_regressor/transformer_batch_norm_encoder_block/sequential/transformer_batch_norm_encoder_layer_5/batch_normalization_11/batchnorm/sub", "op": "Const", "attr": {"dtype": {"type": "DT_FLOAT"}, "value": {"tensor": {"dtype": "DT_FLOAT", "tensorShape": {"dim": [{"size": "176"}]}}}}}, {"name": "StatefulPartitionedCall/model/transformer_encoder_regressor/transformer_batch_norm_encoder_block/sequential/transformer_batch_norm_encoder_layer_5/batch_normalization_10/batchnorm/sub", "op": "Const", "attr": {"value": {"tensor": {"dtype": "DT_FLOAT", "tensorShape": {"dim": [{"size": "176"}]}}}, "dtype": {"type": "DT_FLOAT"}}}, {"name": "StatefulPartitionedCall/model/transformer_encoder_regressor/transformer_batch_norm_encoder_block/sequential/transformer_batch_norm_encoder_layer_5/batch_normalization_10/batchnorm/mul", "op": "Const", "attr": {"dtype": {"type": "DT_FLOAT"}, "value": {"tensor": {"dtype": "DT_FLOAT", "tensorShape": {"dim": [{"size": "176"}]}}}}}, {"name": "StatefulPartitionedCall/model/transformer_encoder_regressor/transformer_batch_norm_encoder_block/sequential/transformer_batch_norm_encoder_layer_5/multi_head_attention_5/key/einsum/Einsum/ReadVariableOp", "op": "Const", "attr": {"dtype": {"type": "DT_FLOAT"}, "value": {"tensor": {"dtype": "DT_FLOAT", "tensorShape": {"dim": [{"size": "176"}, {"size": "4"}, {"size": "176"}]}}}}}, {"name": "StatefulPartitionedCall/model/transformer_encoder_regressor/transformer_batch_norm_encoder_block/sequential/transformer_batch_norm_encoder_layer_5/multi_head_attention_5/key/add/ReadVariableOp", "op": "Const", "attr": {"dtype": {"type": "DT_FLOAT"}, "value": {"tensor": {"dtype": "DT_FLOAT", "tensorShape": {"dim": [{"size": "4"}, {"size": "176"}]}}}}}, {"name": "StatefulPartitionedCall/model/transformer_encoder_regressor/transformer_batch_norm_encoder_block/sequential/transformer_batch_norm_encoder_layer_5/multi_head_attention_5/query/einsum/Einsum/ReadVariableOp", "op": "Const", "attr": {"dtype": {"type": "DT_FLOAT"}, "value": {"tensor": {"dtype": "DT_FLOAT", "tensorShape": {"dim": [{"size": "176"}, {"size": "4"}, {"size": "176"}]}}}}}, {"name": "StatefulPartitionedCall/model/transformer_encoder_regressor/transformer_batch_norm_encoder_block/sequential/transformer_batch_norm_encoder_layer_5/multi_head_attention_5/query/add/ReadVariableOp", "op": "Const", "attr": {"value": {"tensor": {"dtype": "DT_FLOAT", "tensorShape": {"dim": [{"size": "4"}, {"size": "176"}]}}}, "dtype": {"type": "DT_FLOAT"}}}, {"name": "StatefulPartitionedCall/model/transformer_encoder_regressor/transformer_batch_norm_encoder_block/sequential/transformer_batch_norm_encoder_layer_5/multi_head_attention_5/Mul/y", "op": "Const", "attr": {"dtype": {"type": "DT_FLOAT"}, "value": {"tensor": {"dtype": "DT_FLOAT", "tensorShape": {}}}}}, {"name": "StatefulPartitionedCall/model/transformer_encoder_regressor/transformer_batch_norm_encoder_block/sequential/transformer_batch_norm_encoder_layer_4/dense_10/Tensordot/Const", "op": "Const", "attr": {"value": {"tensor": {"dtype": "DT_INT32", "tensorShape": {"dim": [{"size": "1"}]}}}, "dtype": {"type": "DT_INT32"}}}, {"name": "StatefulPartitionedCall/model/transformer_encoder_regressor/transformer_batch_norm_encoder_block/sequential/transformer_batch_norm_encoder_layer_4/dense_10/Tensordot/axes", "op": "Const", "attr": {"value": {"tensor": {"dtype": "DT_INT32", "tensorShape": {"dim": [{"size": "1"}]}}}, "dtype": {"type": "DT_INT32"}}}, {"name": "StatefulPartitionedCall/model/transformer_encoder_regressor/transformer_batch_norm_encoder_block/sequential/transformer_batch_norm_encoder_layer_4/dense_10/Tensordot/GatherV2_1/axis", "op": "Const", "attr": {"dtype": {"type": "DT_INT32"}, "value": {"tensor": {"dtype": "DT_INT32", "tensorShape": {}}}}}, {"name": "StatefulPartitionedCall/model/transformer_encoder_regressor/transformer_batch_norm_encoder_block/sequential/transformer_batch_norm_encoder_layer_4/dense_10/Tensordot/Const_1", "op": "Const", "attr": {"value": {"tensor": {"dtype": "DT_INT32", "tensorShape": {"dim": [{"size": "1"}]}}}, "dtype": {"type": "DT_INT32"}}}, {"name": "StatefulPartitionedCall/model/transformer_encoder_regressor/transformer_batch_norm_encoder_block/sequential/transformer_batch_norm_encoder_layer_4/dense_10/Tensordot/ReadVariableOp", "op": "Const", "attr": {"dtype": {"type": "DT_FLOAT"}, "value": {"tensor": {"dtype": "DT_FLOAT", "tensorShape": {"dim": [{"size": "229"}, {"size": "176"}]}}}}}, {"name": "StatefulPartitionedCall/model/transformer_encoder_regressor/transformer_batch_norm_encoder_block/sequential/transformer_batch_norm_encoder_layer_4/dense_9/Tensordot/Const", "op": "Const", "attr": {"value": {"tensor": {"dtype": "DT_INT32", "tensorShape": {"dim": [{"size": "1"}]}}}, "dtype": {"type": "DT_INT32"}}}, {"name": "StatefulPartitionedCall/model/transformer_encoder_regressor/transformer_batch_norm_encoder_block/sequential/transformer_batch_norm_encoder_layer_4/dense_9/Tensordot/axes", "op": "Const", "attr": {"value": {"tensor": {"dtype": "DT_INT32", "tensorShape": {"dim": [{"size": "1"}]}}}, "dtype": {"type": "DT_INT32"}}}, {"name": "StatefulPartitionedCall/model/transformer_encoder_regressor/transformer_batch_norm_encoder_block/sequential/transformer_batch_norm_encoder_layer_4/dense_9/Tensordot/GatherV2_1/axis", "op": "Const", "attr": {"dtype": {"type": "DT_INT32"}, "value": {"tensor": {"dtype": "DT_INT32", "tensorShape": {}}}}}, {"name": "StatefulPartitionedCall/model/transformer_encoder_regressor/transformer_batch_norm_encoder_block/sequential/transformer_batch_norm_encoder_layer_4/dense_9/Tensordot/Const_1", "op": "Const", "attr": {"value": {"tensor": {"dtype": "DT_INT32", "tensorShape": {"dim": [{"size": "1"}]}}}, "dtype": {"type": "DT_INT32"}}}, {"name": "StatefulPartitionedCall/model/transformer_encoder_regressor/transformer_batch_norm_encoder_block/sequential/transformer_batch_norm_encoder_layer_4/dense_9/Tensordot/ReadVariableOp", "op": "Const", "attr": {"value": {"tensor": {"dtype": "DT_FLOAT", "tensorShape": {"dim": [{"size": "176"}, {"size": "229"}]}}}, "dtype": {"type": "DT_FLOAT"}}}, {"name": "StatefulPartitionedCall/model/transformer_encoder_regressor/transformer_batch_norm_encoder_block/sequential/transformer_batch_norm_encoder_layer_4/dense_9/Tensordot/free", "op": "Const", "attr": {"value": {"tensor": {"dtype": "DT_INT32", "tensorShape": {"dim": [{"size": "2"}]}}}, "dtype": {"type": "DT_INT32"}}}, {"name": "StatefulPartitionedCall/model/transformer_encoder_regressor/transformer_batch_norm_encoder_block/sequential/transformer_batch_norm_encoder_layer_4/dense_9/Tensordot/GatherV2/axis", "op": "Const", "attr": {"dtype": {"type": "DT_INT32"}, "value": {"tensor": {"dtype": "DT_INT32", "tensorShape": {}}}}}, {"name": "StatefulPartitionedCall/model/transformer_encoder_regressor/transformer_batch_norm_encoder_block/sequential/transformer_batch_norm_encoder_layer_4/dense_9/Tensordot/Const_2", "op": "Const", "attr": {"dtype": {"type": "DT_INT32"}, "value": {"tensor": {"dtype": "DT_INT32", "tensorShape": {"dim": [{"size": "1"}]}}}}}, {"name": "StatefulPartitionedCall/model/transformer_encoder_regressor/transformer_batch_norm_encoder_block/sequential/transformer_batch_norm_encoder_layer_4/dense_9/Tensordot/concat_1/axis", "op": "Const", "attr": {"value": {"tensor": {"dtype": "DT_INT32", "tensorShape": {}}}, "dtype": {"type": "DT_INT32"}}}, {"name": "StatefulPartitionedCall/model/transformer_encoder_regressor/transformer_batch_norm_encoder_block/sequential/transformer_batch_norm_encoder_layer_4/dense_9/BiasAdd/ReadVariableOp", "op": "Const", "attr": {"value": {"tensor": {"dtype": "DT_FLOAT", "tensorShape": {"dim": [{"size": "229"}]}}}, "dtype": {"type": "DT_FLOAT"}}}, {"name": "StatefulPartitionedCall/model/transformer_encoder_regressor/transformer_batch_norm_encoder_block/sequential/transformer_batch_norm_encoder_layer_4/dense_10/Tensordot/free", "op": "Const", "attr": {"dtype": {"type": "DT_INT32"}, "value": {"tensor": {"dtype": "DT_INT32", "tensorShape": {"dim": [{"size": "2"}]}}}}}, {"name": "StatefulPartitionedCall/model/transformer_encoder_regressor/transformer_batch_norm_encoder_block/sequential/transformer_batch_norm_encoder_layer_4/dense_10/Tensordot/GatherV2/axis", "op": "Const", "attr": {"value": {"tensor": {"dtype": "DT_INT32", "tensorShape": {}}}, "dtype": {"type": "DT_INT32"}}}, {"name": "StatefulPartitionedCall/model/transformer_encoder_regressor/transformer_batch_norm_encoder_block/sequential/transformer_batch_norm_encoder_layer_4/dense_10/Tensordot/Const_2", "op": "Const", "attr": {"value": {"tensor": {"dtype": "DT_INT32", "tensorShape": {"dim": [{"size": "1"}]}}}, "dtype": {"type": "DT_INT32"}}}, {"name": "StatefulPartitionedCall/model/transformer_encoder_regressor/transformer_batch_norm_encoder_block/sequential/transformer_batch_norm_encoder_layer_4/dense_10/Tensordot/concat_1/axis", "op": "Const", "attr": {"dtype": {"type": "DT_INT32"}, "value": {"tensor": {"dtype": "DT_INT32", "tensorShape": {}}}}}, {"name": "StatefulPartitionedCall/model/transformer_encoder_regressor/transformer_batch_norm_encoder_block/sequential/transformer_batch_norm_encoder_layer_4/dense_10/BiasAdd/ReadVariableOp", "op": "Const", "attr": {"value": {"tensor": {"dtype": "DT_FLOAT", "tensorShape": {"dim": [{"size": "176"}]}}}, "dtype": {"type": "DT_FLOAT"}}}, {"name": "StatefulPartitionedCall/model/transformer_encoder_regressor/transformer_batch_norm_encoder_block/sequential/transformer_batch_norm_encoder_layer_4/batch_normalization_9/batchnorm/mul", "op": "Const", "attr": {"value": {"tensor": {"dtype": "DT_FLOAT", "tensorShape": {"dim": [{"size": "176"}]}}}, "dtype": {"type": "DT_FLOAT"}}}, {"name": "StatefulPartitionedCall/model/transformer_encoder_regressor/transformer_batch_norm_encoder_block/sequential/transformer_batch_norm_encoder_layer_4/batch_normalization_9/batchnorm/sub", "op": "Const", "attr": {"value": {"tensor": {"dtype": "DT_FLOAT", "tensorShape": {"dim": [{"size": "176"}]}}}, "dtype": {"type": "DT_FLOAT"}}}, {"name": "StatefulPartitionedCall/model/transformer_encoder_regressor/transformer_batch_norm_encoder_block/sequential/transformer_batch_norm_encoder_layer_4/batch_normalization_8/batchnorm/sub", "op": "Const", "attr": {"dtype": {"type": "DT_FLOAT"}, "value": {"tensor": {"dtype": "DT_FLOAT", "tensorShape": {"dim": [{"size": "176"}]}}}}}, {"name": "StatefulPartitionedCall/model/transformer_encoder_regressor/transformer_batch_norm_encoder_block/sequential/transformer_batch_norm_encoder_layer_4/batch_normalization_8/batchnorm/mul", "op": "Const", "attr": {"value": {"tensor": {"dtype": "DT_FLOAT", "tensorShape": {"dim": [{"size": "176"}]}}}, "dtype": {"type": "DT_FLOAT"}}}, {"name": "StatefulPartitionedCall/model/transformer_encoder_regressor/transformer_batch_norm_encoder_block/sequential/transformer_batch_norm_encoder_layer_4/multi_head_attention_4/key/einsum/Einsum/ReadVariableOp", "op": "Const", "attr": {"value": {"tensor": {"dtype": "DT_FLOAT", "tensorShape": {"dim": [{"size": "176"}, {"size": "4"}, {"size": "176"}]}}}, "dtype": {"type": "DT_FLOAT"}}}, {"name": "StatefulPartitionedCall/model/transformer_encoder_regressor/transformer_batch_norm_encoder_block/sequential/transformer_batch_norm_encoder_layer_4/multi_head_attention_4/key/add/ReadVariableOp", "op": "Const", "attr": {"value": {"tensor": {"dtype": "DT_FLOAT", "tensorShape": {"dim": [{"size": "4"}, {"size": "176"}]}}}, "dtype": {"type": "DT_FLOAT"}}}, {"name": "StatefulPartitionedCall/model/transformer_encoder_regressor/transformer_batch_norm_encoder_block/sequential/transformer_batch_norm_encoder_layer_4/multi_head_attention_4/query/einsum/Einsum/ReadVariableOp", "op": "Const", "attr": {"value": {"tensor": {"dtype": "DT_FLOAT", "tensorShape": {"dim": [{"size": "176"}, {"size": "4"}, {"size": "176"}]}}}, "dtype": {"type": "DT_FLOAT"}}}, {"name": "StatefulPartitionedCall/model/transformer_encoder_regressor/transformer_batch_norm_encoder_block/sequential/transformer_batch_norm_encoder_layer_4/multi_head_attention_4/query/add/ReadVariableOp", "op": "Const", "attr": {"value": {"tensor": {"dtype": "DT_FLOAT", "tensorShape": {"dim": [{"size": "4"}, {"size": "176"}]}}}, "dtype": {"type": "DT_FLOAT"}}}, {"name": "StatefulPartitionedCall/model/transformer_encoder_regressor/transformer_batch_norm_encoder_block/sequential/transformer_batch_norm_encoder_layer_4/multi_head_attention_4/Mul/y", "op": "Const", "attr": {"value": {"tensor": {"dtype": "DT_FLOAT", "tensorShape": {}}}, "dtype": {"type": "DT_FLOAT"}}}, {"name": "StatefulPartitionedCall/model/transformer_encoder_regressor/transformer_batch_norm_encoder_block/sequential/transformer_batch_norm_encoder_layer_3/dense_8/Tensordot/Const", "op": "Const", "attr": {"dtype": {"type": "DT_INT32"}, "value": {"tensor": {"dtype": "DT_INT32", "tensorShape": {"dim": [{"size": "1"}]}}}}}, {"name": "StatefulPartitionedCall/model/transformer_encoder_regressor/transformer_batch_norm_encoder_block/sequential/transformer_batch_norm_encoder_layer_3/dense_8/Tensordot/axes", "op": "Const", "attr": {"dtype": {"type": "DT_INT32"}, "value": {"tensor": {"dtype": "DT_INT32", "tensorShape": {"dim": [{"size": "1"}]}}}}}, {"name": "StatefulPartitionedCall/model/transformer_encoder_regressor/transformer_batch_norm_encoder_block/sequential/transformer_batch_norm_encoder_layer_3/dense_8/Tensordot/GatherV2_1/axis", "op": "Const", "attr": {"dtype": {"type": "DT_INT32"}, "value": {"tensor": {"dtype": "DT_INT32", "tensorShape": {}}}}}, {"name": "StatefulPartitionedCall/model/transformer_encoder_regressor/transformer_batch_norm_encoder_block/sequential/transformer_batch_norm_encoder_layer_3/dense_8/Tensordot/Const_1", "op": "Const", "attr": {"value": {"tensor": {"dtype": "DT_INT32", "tensorShape": {"dim": [{"size": "1"}]}}}, "dtype": {"type": "DT_INT32"}}}, {"name": "StatefulPartitionedCall/model/transformer_encoder_regressor/transformer_batch_norm_encoder_block/sequential/transformer_batch_norm_encoder_layer_3/dense_8/Tensordot/ReadVariableOp", "op": "Const", "attr": {"dtype": {"type": "DT_FLOAT"}, "value": {"tensor": {"dtype": "DT_FLOAT", "tensorShape": {"dim": [{"size": "229"}, {"size": "176"}]}}}}}, {"name": "StatefulPartitionedCall/model/transformer_encoder_regressor/transformer_batch_norm_encoder_block/sequential/transformer_batch_norm_encoder_layer_3/dense_7/Tensordot/Const", "op": "Const", "attr": {"value": {"tensor": {"dtype": "DT_INT32", "tensorShape": {"dim": [{"size": "1"}]}}}, "dtype": {"type": "DT_INT32"}}}, {"name": "StatefulPartitionedCall/model/transformer_encoder_regressor/transformer_batch_norm_encoder_block/sequential/transformer_batch_norm_encoder_layer_3/dense_7/Tensordot/axes", "op": "Const", "attr": {"dtype": {"type": "DT_INT32"}, "value": {"tensor": {"dtype": "DT_INT32", "tensorShape": {"dim": [{"size": "1"}]}}}}}, {"name": "StatefulPartitionedCall/model/transformer_encoder_regressor/transformer_batch_norm_encoder_block/sequential/transformer_batch_norm_encoder_layer_3/dense_7/Tensordot/GatherV2_1/axis", "op": "Const", "attr": {"dtype": {"type": "DT_INT32"}, "value": {"tensor": {"dtype": "DT_INT32", "tensorShape": {}}}}}, {"name": "StatefulPartitionedCall/model/transformer_encoder_regressor/transformer_batch_norm_encoder_block/sequential/transformer_batch_norm_encoder_layer_3/dense_7/Tensordot/Const_1", "op": "Const", "attr": {"dtype": {"type": "DT_INT32"}, "value": {"tensor": {"dtype": "DT_INT32", "tensorShape": {"dim": [{"size": "1"}]}}}}}, {"name": "StatefulPartitionedCall/model/transformer_encoder_regressor/transformer_batch_norm_encoder_block/sequential/transformer_batch_norm_encoder_layer_3/dense_7/Tensordot/ReadVariableOp", "op": "Const", "attr": {"dtype": {"type": "DT_FLOAT"}, "value": {"tensor": {"dtype": "DT_FLOAT", "tensorShape": {"dim": [{"size": "176"}, {"size": "229"}]}}}}}, {"name": "StatefulPartitionedCall/model/transformer_encoder_regressor/transformer_batch_norm_encoder_block/sequential/transformer_batch_norm_encoder_layer_3/dense_7/Tensordot/free", "op": "Const", "attr": {"dtype": {"type": "DT_INT32"}, "value": {"tensor": {"dtype": "DT_INT32", "tensorShape": {"dim": [{"size": "2"}]}}}}}, {"name": "StatefulPartitionedCall/model/transformer_encoder_regressor/transformer_batch_norm_encoder_block/sequential/transformer_batch_norm_encoder_layer_3/dense_7/Tensordot/GatherV2/axis", "op": "Const", "attr": {"value": {"tensor": {"dtype": "DT_INT32", "tensorShape": {}}}, "dtype": {"type": "DT_INT32"}}}, {"name": "StatefulPartitionedCall/model/transformer_encoder_regressor/transformer_batch_norm_encoder_block/sequential/transformer_batch_norm_encoder_layer_3/dense_7/Tensordot/Const_2", "op": "Const", "attr": {"value": {"tensor": {"dtype": "DT_INT32", "tensorShape": {"dim": [{"size": "1"}]}}}, "dtype": {"type": "DT_INT32"}}}, {"name": "StatefulPartitionedCall/model/transformer_encoder_regressor/transformer_batch_norm_encoder_block/sequential/transformer_batch_norm_encoder_layer_3/dense_7/Tensordot/concat_1/axis", "op": "Const", "attr": {"value": {"tensor": {"dtype": "DT_INT32", "tensorShape": {}}}, "dtype": {"type": "DT_INT32"}}}, {"name": "StatefulPartitionedCall/model/transformer_encoder_regressor/transformer_batch_norm_encoder_block/sequential/transformer_batch_norm_encoder_layer_3/dense_7/BiasAdd/ReadVariableOp", "op": "Const", "attr": {"value": {"tensor": {"dtype": "DT_FLOAT", "tensorShape": {"dim": [{"size": "229"}]}}}, "dtype": {"type": "DT_FLOAT"}}}, {"name": "StatefulPartitionedCall/model/transformer_encoder_regressor/transformer_batch_norm_encoder_block/sequential/transformer_batch_norm_encoder_layer_3/dense_8/Tensordot/free", "op": "Const", "attr": {"dtype": {"type": "DT_INT32"}, "value": {"tensor": {"dtype": "DT_INT32", "tensorShape": {"dim": [{"size": "2"}]}}}}}, {"name": "StatefulPartitionedCall/model/transformer_encoder_regressor/transformer_batch_norm_encoder_block/sequential/transformer_batch_norm_encoder_layer_3/dense_8/Tensordot/GatherV2/axis", "op": "Const", "attr": {"dtype": {"type": "DT_INT32"}, "value": {"tensor": {"dtype": "DT_INT32", "tensorShape": {}}}}}, {"name": "StatefulPartitionedCall/model/transformer_encoder_regressor/transformer_batch_norm_encoder_block/sequential/transformer_batch_norm_encoder_layer_3/dense_8/Tensordot/Const_2", "op": "Const", "attr": {"value": {"tensor": {"dtype": "DT_INT32", "tensorShape": {"dim": [{"size": "1"}]}}}, "dtype": {"type": "DT_INT32"}}}, {"name": "StatefulPartitionedCall/model/transformer_encoder_regressor/transformer_batch_norm_encoder_block/sequential/transformer_batch_norm_encoder_layer_3/dense_8/Tensordot/concat_1/axis", "op": "Const", "attr": {"value": {"tensor": {"dtype": "DT_INT32", "tensorShape": {}}}, "dtype": {"type": "DT_INT32"}}}, {"name": "StatefulPartitionedCall/model/transformer_encoder_regressor/transformer_batch_norm_encoder_block/sequential/transformer_batch_norm_encoder_layer_3/dense_8/BiasAdd/ReadVariableOp", "op": "Const", "attr": {"value": {"tensor": {"dtype": "DT_FLOAT", "tensorShape": {"dim": [{"size": "176"}]}}}, "dtype": {"type": "DT_FLOAT"}}}, {"name": "StatefulPartitionedCall/model/transformer_encoder_regressor/transformer_batch_norm_encoder_block/sequential/transformer_batch_norm_encoder_layer_3/batch_normalization_7/batchnorm/mul", "op": "Const", "attr": {"dtype": {"type": "DT_FLOAT"}, "value": {"tensor": {"dtype": "DT_FLOAT", "tensorShape": {"dim": [{"size": "176"}]}}}}}, {"name": "StatefulPartitionedCall/model/transformer_encoder_regressor/transformer_batch_norm_encoder_block/sequential/transformer_batch_norm_encoder_layer_3/batch_normalization_7/batchnorm/sub", "op": "Const", "attr": {"value": {"tensor": {"dtype": "DT_FLOAT", "tensorShape": {"dim": [{"size": "176"}]}}}, "dtype": {"type": "DT_FLOAT"}}}, {"name": "StatefulPartitionedCall/model/transformer_encoder_regressor/transformer_batch_norm_encoder_block/sequential/transformer_batch_norm_encoder_layer_3/batch_normalization_6/batchnorm/sub", "op": "Const", "attr": {"dtype": {"type": "DT_FLOAT"}, "value": {"tensor": {"dtype": "DT_FLOAT", "tensorShape": {"dim": [{"size": "176"}]}}}}}, {"name": "StatefulPartitionedCall/model/transformer_encoder_regressor/transformer_batch_norm_encoder_block/sequential/transformer_batch_norm_encoder_layer_3/batch_normalization_6/batchnorm/mul", "op": "Const", "attr": {"value": {"tensor": {"dtype": "DT_FLOAT", "tensorShape": {"dim": [{"size": "176"}]}}}, "dtype": {"type": "DT_FLOAT"}}}, {"name": "StatefulPartitionedCall/model/transformer_encoder_regressor/transformer_batch_norm_encoder_block/sequential/transformer_batch_norm_encoder_layer_3/multi_head_attention_3/key/einsum/Einsum/ReadVariableOp", "op": "Const", "attr": {"value": {"tensor": {"dtype": "DT_FLOAT", "tensorShape": {"dim": [{"size": "176"}, {"size": "4"}, {"size": "176"}]}}}, "dtype": {"type": "DT_FLOAT"}}}, {"name": "StatefulPartitionedCall/model/transformer_encoder_regressor/transformer_batch_norm_encoder_block/sequential/transformer_batch_norm_encoder_layer_3/multi_head_attention_3/key/add/ReadVariableOp", "op": "Const", "attr": {"dtype": {"type": "DT_FLOAT"}, "value": {"tensor": {"dtype": "DT_FLOAT", "tensorShape": {"dim": [{"size": "4"}, {"size": "176"}]}}}}}, {"name": "StatefulPartitionedCall/model/transformer_encoder_regressor/transformer_batch_norm_encoder_block/sequential/transformer_batch_norm_encoder_layer_3/multi_head_attention_3/query/einsum/Einsum/ReadVariableOp", "op": "Const", "attr": {"value": {"tensor": {"dtype": "DT_FLOAT", "tensorShape": {"dim": [{"size": "176"}, {"size": "4"}, {"size": "176"}]}}}, "dtype": {"type": "DT_FLOAT"}}}, {"name": "StatefulPartitionedCall/model/transformer_encoder_regressor/transformer_batch_norm_encoder_block/sequential/transformer_batch_norm_encoder_layer_3/multi_head_attention_3/query/add/ReadVariableOp", "op": "Const", "attr": {"dtype": {"type": "DT_FLOAT"}, "value": {"tensor": {"dtype": "DT_FLOAT", "tensorShape": {"dim": [{"size": "4"}, {"size": "176"}]}}}}}, {"name": "StatefulPartitionedCall/model/transformer_encoder_regressor/transformer_batch_norm_encoder_block/sequential/transformer_batch_norm_encoder_layer_3/multi_head_attention_3/Mul/y", "op": "Const", "attr": {"value": {"tensor": {"dtype": "DT_FLOAT", "tensorShape": {}}}, "dtype": {"type": "DT_FLOAT"}}}, {"name": "StatefulPartitionedCall/model/transformer_encoder_regressor/transformer_batch_norm_encoder_block/sequential/transformer_batch_norm_encoder_layer_2/dense_6/Tensordot/Const", "op": "Const", "attr": {"value": {"tensor": {"dtype": "DT_INT32", "tensorShape": {"dim": [{"size": "1"}]}}}, "dtype": {"type": "DT_INT32"}}}, {"name": "StatefulPartitionedCall/model/transformer_encoder_regressor/transformer_batch_norm_encoder_block/sequential/transformer_batch_norm_encoder_layer_2/dense_6/Tensordot/axes", "op": "Const", "attr": {"dtype": {"type": "DT_INT32"}, "value": {"tensor": {"dtype": "DT_INT32", "tensorShape": {"dim": [{"size": "1"}]}}}}}, {"name": "StatefulPartitionedCall/model/transformer_encoder_regressor/transformer_batch_norm_encoder_block/sequential/transformer_batch_norm_encoder_layer_2/dense_6/Tensordot/GatherV2_1/axis", "op": "Const", "attr": {"dtype": {"type": "DT_INT32"}, "value": {"tensor": {"dtype": "DT_INT32", "tensorShape": {}}}}}, {"name": "StatefulPartitionedCall/model/transformer_encoder_regressor/transformer_batch_norm_encoder_block/sequential/transformer_batch_norm_encoder_layer_2/dense_6/Tensordot/Const_1", "op": "Const", "attr": {"dtype": {"type": "DT_INT32"}, "value": {"tensor": {"dtype": "DT_INT32", "tensorShape": {"dim": [{"size": "1"}]}}}}}, {"name": "StatefulPartitionedCall/model/transformer_encoder_regressor/transformer_batch_norm_encoder_block/sequential/transformer_batch_norm_encoder_layer_2/dense_6/Tensordot/ReadVariableOp", "op": "Const", "attr": {"dtype": {"type": "DT_FLOAT"}, "value": {"tensor": {"dtype": "DT_FLOAT", "tensorShape": {"dim": [{"size": "229"}, {"size": "176"}]}}}}}, {"name": "StatefulPartitionedCall/model/transformer_encoder_regressor/transformer_batch_norm_encoder_block/sequential/transformer_batch_norm_encoder_layer_2/dense_5/Tensordot/Const", "op": "Const", "attr": {"dtype": {"type": "DT_INT32"}, "value": {"tensor": {"dtype": "DT_INT32", "tensorShape": {"dim": [{"size": "1"}]}}}}}, {"name": "StatefulPartitionedCall/model/transformer_encoder_regressor/transformer_batch_norm_encoder_block/sequential/transformer_batch_norm_encoder_layer_2/dense_5/Tensordot/axes", "op": "Const", "attr": {"value": {"tensor": {"dtype": "DT_INT32", "tensorShape": {"dim": [{"size": "1"}]}}}, "dtype": {"type": "DT_INT32"}}}, {"name": "StatefulPartitionedCall/model/transformer_encoder_regressor/transformer_batch_norm_encoder_block/sequential/transformer_batch_norm_encoder_layer_2/dense_5/Tensordot/GatherV2_1/axis", "op": "Const", "attr": {"value": {"tensor": {"dtype": "DT_INT32", "tensorShape": {}}}, "dtype": {"type": "DT_INT32"}}}, {"name": "StatefulPartitionedCall/model/transformer_encoder_regressor/transformer_batch_norm_encoder_block/sequential/transformer_batch_norm_encoder_layer_2/dense_5/Tensordot/Const_1", "op": "Const", "attr": {"value": {"tensor": {"dtype": "DT_INT32", "tensorShape": {"dim": [{"size": "1"}]}}}, "dtype": {"type": "DT_INT32"}}}, {"name": "StatefulPartitionedCall/model/transformer_encoder_regressor/transformer_batch_norm_encoder_block/sequential/transformer_batch_norm_encoder_layer_2/dense_5/Tensordot/ReadVariableOp", "op": "Const", "attr": {"value": {"tensor": {"dtype": "DT_FLOAT", "tensorShape": {"dim": [{"size": "176"}, {"size": "229"}]}}}, "dtype": {"type": "DT_FLOAT"}}}, {"name": "StatefulPartitionedCall/model/transformer_encoder_regressor/transformer_batch_norm_encoder_block/sequential/transformer_batch_norm_encoder_layer_2/dense_5/Tensordot/free", "op": "Const", "attr": {"dtype": {"type": "DT_INT32"}, "value": {"tensor": {"dtype": "DT_INT32", "tensorShape": {"dim": [{"size": "2"}]}}}}}, {"name": "StatefulPartitionedCall/model/transformer_encoder_regressor/transformer_batch_norm_encoder_block/sequential/transformer_batch_norm_encoder_layer_2/dense_5/Tensordot/GatherV2/axis", "op": "Const", "attr": {"dtype": {"type": "DT_INT32"}, "value": {"tensor": {"dtype": "DT_INT32", "tensorShape": {}}}}}, {"name": "StatefulPartitionedCall/model/transformer_encoder_regressor/transformer_batch_norm_encoder_block/sequential/transformer_batch_norm_encoder_layer_2/dense_5/Tensordot/Const_2", "op": "Const", "attr": {"value": {"tensor": {"dtype": "DT_INT32", "tensorShape": {"dim": [{"size": "1"}]}}}, "dtype": {"type": "DT_INT32"}}}, {"name": "StatefulPartitionedCall/model/transformer_encoder_regressor/transformer_batch_norm_encoder_block/sequential/transformer_batch_norm_encoder_layer_2/dense_5/Tensordot/concat_1/axis", "op": "Const", "attr": {"dtype": {"type": "DT_INT32"}, "value": {"tensor": {"dtype": "DT_INT32", "tensorShape": {}}}}}, {"name": "StatefulPartitionedCall/model/transformer_encoder_regressor/transformer_batch_norm_encoder_block/sequential/transformer_batch_norm_encoder_layer_2/dense_5/BiasAdd/ReadVariableOp", "op": "Const", "attr": {"value": {"tensor": {"dtype": "DT_FLOAT", "tensorShape": {"dim": [{"size": "229"}]}}}, "dtype": {"type": "DT_FLOAT"}}}, {"name": "StatefulPartitionedCall/model/transformer_encoder_regressor/transformer_batch_norm_encoder_block/sequential/transformer_batch_norm_encoder_layer_2/dense_6/Tensordot/free", "op": "Const", "attr": {"dtype": {"type": "DT_INT32"}, "value": {"tensor": {"dtype": "DT_INT32", "tensorShape": {"dim": [{"size": "2"}]}}}}}, {"name": "StatefulPartitionedCall/model/transformer_encoder_regressor/transformer_batch_norm_encoder_block/sequential/transformer_batch_norm_encoder_layer_2/dense_6/Tensordot/GatherV2/axis", "op": "Const", "attr": {"value": {"tensor": {"dtype": "DT_INT32", "tensorShape": {}}}, "dtype": {"type": "DT_INT32"}}}, {"name": "StatefulPartitionedCall/model/transformer_encoder_regressor/transformer_batch_norm_encoder_block/sequential/transformer_batch_norm_encoder_layer_2/dense_6/Tensordot/Const_2", "op": "Const", "attr": {"dtype": {"type": "DT_INT32"}, "value": {"tensor": {"dtype": "DT_INT32", "tensorShape": {"dim": [{"size": "1"}]}}}}}, {"name": "StatefulPartitionedCall/model/transformer_encoder_regressor/transformer_batch_norm_encoder_block/sequential/transformer_batch_norm_encoder_layer_2/dense_6/Tensordot/concat_1/axis", "op": "Const", "attr": {"value": {"tensor": {"dtype": "DT_INT32", "tensorShape": {}}}, "dtype": {"type": "DT_INT32"}}}, {"name": "StatefulPartitionedCall/model/transformer_encoder_regressor/transformer_batch_norm_encoder_block/sequential/transformer_batch_norm_encoder_layer_2/dense_6/BiasAdd/ReadVariableOp", "op": "Const", "attr": {"value": {"tensor": {"dtype": "DT_FLOAT", "tensorShape": {"dim": [{"size": "176"}]}}}, "dtype": {"type": "DT_FLOAT"}}}, {"name": "StatefulPartitionedCall/model/transformer_encoder_regressor/transformer_batch_norm_encoder_block/sequential/transformer_batch_norm_encoder_layer_2/batch_normalization_5/batchnorm/mul", "op": "Const", "attr": {"dtype": {"type": "DT_FLOAT"}, "value": {"tensor": {"dtype": "DT_FLOAT", "tensorShape": {"dim": [{"size": "176"}]}}}}}, {"name": "StatefulPartitionedCall/model/transformer_encoder_regressor/transformer_batch_norm_encoder_block/sequential/transformer_batch_norm_encoder_layer_2/batch_normalization_5/batchnorm/sub", "op": "Const", "attr": {"value": {"tensor": {"dtype": "DT_FLOAT", "tensorShape": {"dim": [{"size": "176"}]}}}, "dtype": {"type": "DT_FLOAT"}}}, {"name": "StatefulPartitionedCall/model/transformer_encoder_regressor/transformer_batch_norm_encoder_block/sequential/transformer_batch_norm_encoder_layer_2/batch_normalization_4/batchnorm/sub", "op": "Const", "attr": {"value": {"tensor": {"dtype": "DT_FLOAT", "tensorShape": {"dim": [{"size": "176"}]}}}, "dtype": {"type": "DT_FLOAT"}}}, {"name": "StatefulPartitionedCall/model/transformer_encoder_regressor/transformer_batch_norm_encoder_block/sequential/transformer_batch_norm_encoder_layer_2/batch_normalization_4/batchnorm/mul", "op": "Const", "attr": {"dtype": {"type": "DT_FLOAT"}, "value": {"tensor": {"dtype": "DT_FLOAT", "tensorShape": {"dim": [{"size": "176"}]}}}}}, {"name": "StatefulPartitionedCall/model/transformer_encoder_regressor/transformer_batch_norm_encoder_block/sequential/transformer_batch_norm_encoder_layer_2/multi_head_attention_2/key/einsum/Einsum/ReadVariableOp", "op": "Const", "attr": {"value": {"tensor": {"dtype": "DT_FLOAT", "tensorShape": {"dim": [{"size": "176"}, {"size": "4"}, {"size": "176"}]}}}, "dtype": {"type": "DT_FLOAT"}}}, {"name": "StatefulPartitionedCall/model/transformer_encoder_regressor/transformer_batch_norm_encoder_block/sequential/transformer_batch_norm_encoder_layer_2/multi_head_attention_2/key/add/ReadVariableOp", "op": "Const", "attr": {"dtype": {"type": "DT_FLOAT"}, "value": {"tensor": {"dtype": "DT_FLOAT", "tensorShape": {"dim": [{"size": "4"}, {"size": "176"}]}}}}}, {"name": "StatefulPartitionedCall/model/transformer_encoder_regressor/transformer_batch_norm_encoder_block/sequential/transformer_batch_norm_encoder_layer_2/multi_head_attention_2/query/einsum/Einsum/ReadVariableOp", "op": "Const", "attr": {"value": {"tensor": {"dtype": "DT_FLOAT", "tensorShape": {"dim": [{"size": "176"}, {"size": "4"}, {"size": "176"}]}}}, "dtype": {"type": "DT_FLOAT"}}}, {"name": "StatefulPartitionedCall/model/transformer_encoder_regressor/transformer_batch_norm_encoder_block/sequential/transformer_batch_norm_encoder_layer_2/multi_head_attention_2/query/add/ReadVariableOp", "op": "Const", "attr": {"value": {"tensor": {"dtype": "DT_FLOAT", "tensorShape": {"dim": [{"size": "4"}, {"size": "176"}]}}}, "dtype": {"type": "DT_FLOAT"}}}, {"name": "StatefulPartitionedCall/model/transformer_encoder_regressor/transformer_batch_norm_encoder_block/sequential/transformer_batch_norm_encoder_layer_2/multi_head_attention_2/Mul/y", "op": "Const", "attr": {"dtype": {"type": "DT_FLOAT"}, "value": {"tensor": {"dtype": "DT_FLOAT", "tensorShape": {}}}}}, {"name": "StatefulPartitionedCall/model/transformer_encoder_regressor/transformer_batch_norm_encoder_block/sequential/transformer_batch_norm_encoder_layer_1/dense_4/Tensordot/Const", "op": "Const", "attr": {"dtype": {"type": "DT_INT32"}, "value": {"tensor": {"dtype": "DT_INT32", "tensorShape": {"dim": [{"size": "1"}]}}}}}, {"name": "StatefulPartitionedCall/model/transformer_encoder_regressor/transformer_batch_norm_encoder_block/sequential/transformer_batch_norm_encoder_layer_1/dense_4/Tensordot/axes", "op": "Const", "attr": {"dtype": {"type": "DT_INT32"}, "value": {"tensor": {"dtype": "DT_INT32", "tensorShape": {"dim": [{"size": "1"}]}}}}}, {"name": "StatefulPartitionedCall/model/transformer_encoder_regressor/transformer_batch_norm_encoder_block/sequential/transformer_batch_norm_encoder_layer_1/dense_4/Tensordot/GatherV2_1/axis", "op": "Const", "attr": {"dtype": {"type": "DT_INT32"}, "value": {"tensor": {"dtype": "DT_INT32", "tensorShape": {}}}}}, {"name": "StatefulPartitionedCall/model/transformer_encoder_regressor/transformer_batch_norm_encoder_block/sequential/transformer_batch_norm_encoder_layer_1/dense_4/Tensordot/Const_1", "op": "Const", "attr": {"value": {"tensor": {"dtype": "DT_INT32", "tensorShape": {"dim": [{"size": "1"}]}}}, "dtype": {"type": "DT_INT32"}}}, {"name": "StatefulPartitionedCall/model/transformer_encoder_regressor/transformer_batch_norm_encoder_block/sequential/transformer_batch_norm_encoder_layer_1/dense_4/Tensordot/ReadVariableOp", "op": "Const", "attr": {"value": {"tensor": {"dtype": "DT_FLOAT", "tensorShape": {"dim": [{"size": "229"}, {"size": "176"}]}}}, "dtype": {"type": "DT_FLOAT"}}}, {"name": "StatefulPartitionedCall/model/transformer_encoder_regressor/transformer_batch_norm_encoder_block/sequential/transformer_batch_norm_encoder_layer_1/dense_3/Tensordot/Const", "op": "Const", "attr": {"value": {"tensor": {"dtype": "DT_INT32", "tensorShape": {"dim": [{"size": "1"}]}}}, "dtype": {"type": "DT_INT32"}}}, {"name": "StatefulPartitionedCall/model/transformer_encoder_regressor/transformer_batch_norm_encoder_block/sequential/transformer_batch_norm_encoder_layer_1/dense_3/Tensordot/axes", "op": "Const", "attr": {"dtype": {"type": "DT_INT32"}, "value": {"tensor": {"dtype": "DT_INT32", "tensorShape": {"dim": [{"size": "1"}]}}}}}, {"name": "StatefulPartitionedCall/model/transformer_encoder_regressor/transformer_batch_norm_encoder_block/sequential/transformer_batch_norm_encoder_layer_1/dense_3/Tensordot/GatherV2_1/axis", "op": "Const", "attr": {"dtype": {"type": "DT_INT32"}, "value": {"tensor": {"dtype": "DT_INT32", "tensorShape": {}}}}}, {"name": "StatefulPartitionedCall/model/transformer_encoder_regressor/transformer_batch_norm_encoder_block/sequential/transformer_batch_norm_encoder_layer_1/dense_3/Tensordot/Const_1", "op": "Const", "attr": {"dtype": {"type": "DT_INT32"}, "value": {"tensor": {"dtype": "DT_INT32", "tensorShape": {"dim": [{"size": "1"}]}}}}}, {"name": "StatefulPartitionedCall/model/transformer_encoder_regressor/transformer_batch_norm_encoder_block/sequential/transformer_batch_norm_encoder_layer_1/dense_3/Tensordot/ReadVariableOp", "op": "Const", "attr": {"dtype": {"type": "DT_FLOAT"}, "value": {"tensor": {"dtype": "DT_FLOAT", "tensorShape": {"dim": [{"size": "176"}, {"size": "229"}]}}}}}, {"name": "StatefulPartitionedCall/model/transformer_encoder_regressor/transformer_batch_norm_encoder_block/sequential/transformer_batch_norm_encoder_layer_1/dense_3/Tensordot/free", "op": "Const", "attr": {"value": {"tensor": {"dtype": "DT_INT32", "tensorShape": {"dim": [{"size": "2"}]}}}, "dtype": {"type": "DT_INT32"}}}, {"name": "StatefulPartitionedCall/model/transformer_encoder_regressor/transformer_batch_norm_encoder_block/sequential/transformer_batch_norm_encoder_layer_1/dense_3/Tensordot/GatherV2/axis", "op": "Const", "attr": {"value": {"tensor": {"dtype": "DT_INT32", "tensorShape": {}}}, "dtype": {"type": "DT_INT32"}}}, {"name": "StatefulPartitionedCall/model/transformer_encoder_regressor/transformer_batch_norm_encoder_block/sequential/transformer_batch_norm_encoder_layer_1/dense_3/Tensordot/Const_2", "op": "Const", "attr": {"value": {"tensor": {"dtype": "DT_INT32", "tensorShape": {"dim": [{"size": "1"}]}}}, "dtype": {"type": "DT_INT32"}}}, {"name": "StatefulPartitionedCall/model/transformer_encoder_regressor/transformer_batch_norm_encoder_block/sequential/transformer_batch_norm_encoder_layer_1/dense_3/Tensordot/concat_1/axis", "op": "Const", "attr": {"dtype": {"type": "DT_INT32"}, "value": {"tensor": {"dtype": "DT_INT32", "tensorShape": {}}}}}, {"name": "StatefulPartitionedCall/model/transformer_encoder_regressor/transformer_batch_norm_encoder_block/sequential/transformer_batch_norm_encoder_layer_1/dense_3/BiasAdd/ReadVariableOp", "op": "Const", "attr": {"dtype": {"type": "DT_FLOAT"}, "value": {"tensor": {"dtype": "DT_FLOAT", "tensorShape": {"dim": [{"size": "229"}]}}}}}, {"name": "StatefulPartitionedCall/model/transformer_encoder_regressor/transformer_batch_norm_encoder_block/sequential/transformer_batch_norm_encoder_layer_1/dense_4/Tensordot/free", "op": "Const", "attr": {"dtype": {"type": "DT_INT32"}, "value": {"tensor": {"dtype": "DT_INT32", "tensorShape": {"dim": [{"size": "2"}]}}}}}, {"name": "StatefulPartitionedCall/model/transformer_encoder_regressor/transformer_batch_norm_encoder_block/sequential/transformer_batch_norm_encoder_layer_1/dense_4/Tensordot/GatherV2/axis", "op": "Const", "attr": {"dtype": {"type": "DT_INT32"}, "value": {"tensor": {"dtype": "DT_INT32", "tensorShape": {}}}}}, {"name": "StatefulPartitionedCall/model/transformer_encoder_regressor/transformer_batch_norm_encoder_block/sequential/transformer_batch_norm_encoder_layer_1/dense_4/Tensordot/Const_2", "op": "Const", "attr": {"value": {"tensor": {"dtype": "DT_INT32", "tensorShape": {"dim": [{"size": "1"}]}}}, "dtype": {"type": "DT_INT32"}}}, {"name": "StatefulPartitionedCall/model/transformer_encoder_regressor/transformer_batch_norm_encoder_block/sequential/transformer_batch_norm_encoder_layer_1/dense_4/Tensordot/concat_1/axis", "op": "Const", "attr": {"value": {"tensor": {"dtype": "DT_INT32", "tensorShape": {}}}, "dtype": {"type": "DT_INT32"}}}, {"name": "StatefulPartitionedCall/model/transformer_encoder_regressor/transformer_batch_norm_encoder_block/sequential/transformer_batch_norm_encoder_layer_1/dense_4/BiasAdd/ReadVariableOp", "op": "Const", "attr": {"value": {"tensor": {"dtype": "DT_FLOAT", "tensorShape": {"dim": [{"size": "176"}]}}}, "dtype": {"type": "DT_FLOAT"}}}, {"name": "StatefulPartitionedCall/model/transformer_encoder_regressor/transformer_batch_norm_encoder_block/sequential/transformer_batch_norm_encoder_layer_1/batch_normalization_3/batchnorm/mul", "op": "Const", "attr": {"value": {"tensor": {"dtype": "DT_FLOAT", "tensorShape": {"dim": [{"size": "176"}]}}}, "dtype": {"type": "DT_FLOAT"}}}, {"name": "StatefulPartitionedCall/model/transformer_encoder_regressor/transformer_batch_norm_encoder_block/sequential/transformer_batch_norm_encoder_layer_1/batch_normalization_3/batchnorm/sub", "op": "Const", "attr": {"value": {"tensor": {"dtype": "DT_FLOAT", "tensorShape": {"dim": [{"size": "176"}]}}}, "dtype": {"type": "DT_FLOAT"}}}, {"name": "StatefulPartitionedCall/model/transformer_encoder_regressor/transformer_batch_norm_encoder_block/sequential/transformer_batch_norm_encoder_layer_1/batch_normalization_2/batchnorm/sub", "op": "Const", "attr": {"dtype": {"type": "DT_FLOAT"}, "value": {"tensor": {"dtype": "DT_FLOAT", "tensorShape": {"dim": [{"size": "176"}]}}}}}, {"name": "StatefulPartitionedCall/model/transformer_encoder_regressor/transformer_batch_norm_encoder_block/sequential/transformer_batch_norm_encoder_layer_1/batch_normalization_2/batchnorm/mul", "op": "Const", "attr": {"dtype": {"type": "DT_FLOAT"}, "value": {"tensor": {"dtype": "DT_FLOAT", "tensorShape": {"dim": [{"size": "176"}]}}}}}, {"name": "StatefulPartitionedCall/model/transformer_encoder_regressor/transformer_batch_norm_encoder_block/sequential/transformer_batch_norm_encoder_layer_1/multi_head_attention_1/key/einsum/Einsum/ReadVariableOp", "op": "Const", "attr": {"value": {"tensor": {"dtype": "DT_FLOAT", "tensorShape": {"dim": [{"size": "176"}, {"size": "4"}, {"size": "176"}]}}}, "dtype": {"type": "DT_FLOAT"}}}, {"name": "StatefulPartitionedCall/model/transformer_encoder_regressor/transformer_batch_norm_encoder_block/sequential/transformer_batch_norm_encoder_layer_1/multi_head_attention_1/key/add/ReadVariableOp", "op": "Const", "attr": {"dtype": {"type": "DT_FLOAT"}, "value": {"tensor": {"dtype": "DT_FLOAT", "tensorShape": {"dim": [{"size": "4"}, {"size": "176"}]}}}}}, {"name": "StatefulPartitionedCall/model/transformer_encoder_regressor/transformer_batch_norm_encoder_block/sequential/transformer_batch_norm_encoder_layer_1/multi_head_attention_1/query/einsum/Einsum/ReadVariableOp", "op": "Const", "attr": {"dtype": {"type": "DT_FLOAT"}, "value": {"tensor": {"dtype": "DT_FLOAT", "tensorShape": {"dim": [{"size": "176"}, {"size": "4"}, {"size": "176"}]}}}}}, {"name": "StatefulPartitionedCall/model/transformer_encoder_regressor/transformer_batch_norm_encoder_block/sequential/transformer_batch_norm_encoder_layer_1/multi_head_attention_1/query/add/ReadVariableOp", "op": "Const", "attr": {"value": {"tensor": {"dtype": "DT_FLOAT", "tensorShape": {"dim": [{"size": "4"}, {"size": "176"}]}}}, "dtype": {"type": "DT_FLOAT"}}}, {"name": "StatefulPartitionedCall/model/transformer_encoder_regressor/transformer_batch_norm_encoder_block/sequential/transformer_batch_norm_encoder_layer_1/multi_head_attention_1/Mul/y", "op": "Const", "attr": {"dtype": {"type": "DT_FLOAT"}, "value": {"tensor": {"dtype": "DT_FLOAT", "tensorShape": {}}}}}, {"name": "StatefulPartitionedCall/model/transformer_encoder_regressor/transformer_batch_norm_encoder_block/sequential/transformer_batch_norm_encoder_layer/dense_2/Tensordot/Const", "op": "Const", "attr": {"value": {"tensor": {"dtype": "DT_INT32", "tensorShape": {"dim": [{"size": "1"}]}}}, "dtype": {"type": "DT_INT32"}}}, {"name": "StatefulPartitionedCall/model/transformer_encoder_regressor/transformer_batch_norm_encoder_block/sequential/transformer_batch_norm_encoder_layer/dense_2/Tensordot/axes", "op": "Const", "attr": {"dtype": {"type": "DT_INT32"}, "value": {"tensor": {"dtype": "DT_INT32", "tensorShape": {"dim": [{"size": "1"}]}}}}}, {"name": "StatefulPartitionedCall/model/transformer_encoder_regressor/transformer_batch_norm_encoder_block/sequential/transformer_batch_norm_encoder_layer/dense_2/Tensordot/GatherV2_1/axis", "op": "Const", "attr": {"dtype": {"type": "DT_INT32"}, "value": {"tensor": {"dtype": "DT_INT32", "tensorShape": {}}}}}, {"name": "StatefulPartitionedCall/model/transformer_encoder_regressor/transformer_batch_norm_encoder_block/sequential/transformer_batch_norm_encoder_layer/dense_2/Tensordot/Const_1", "op": "Const", "attr": {"dtype": {"type": "DT_INT32"}, "value": {"tensor": {"dtype": "DT_INT32", "tensorShape": {"dim": [{"size": "1"}]}}}}}, {"name": "StatefulPartitionedCall/model/transformer_encoder_regressor/transformer_batch_norm_encoder_block/sequential/transformer_batch_norm_encoder_layer/dense_2/Tensordot/ReadVariableOp", "op": "Const", "attr": {"dtype": {"type": "DT_FLOAT"}, "value": {"tensor": {"dtype": "DT_FLOAT", "tensorShape": {"dim": [{"size": "229"}, {"size": "176"}]}}}}}, {"name": "StatefulPartitionedCall/model/transformer_encoder_regressor/transformer_batch_norm_encoder_block/sequential/transformer_batch_norm_encoder_layer/dense_1/Tensordot/Const", "op": "Const", "attr": {"value": {"tensor": {"dtype": "DT_INT32", "tensorShape": {"dim": [{"size": "1"}]}}}, "dtype": {"type": "DT_INT32"}}}, {"name": "StatefulPartitionedCall/model/transformer_encoder_regressor/transformer_batch_norm_encoder_block/sequential/transformer_batch_norm_encoder_layer/dense_1/Tensordot/axes", "op": "Const", "attr": {"value": {"tensor": {"dtype": "DT_INT32", "tensorShape": {"dim": [{"size": "1"}]}}}, "dtype": {"type": "DT_INT32"}}}, {"name": "StatefulPartitionedCall/model/transformer_encoder_regressor/transformer_batch_norm_encoder_block/sequential/transformer_batch_norm_encoder_layer/dense_1/Tensordot/GatherV2_1/axis", "op": "Const", "attr": {"dtype": {"type": "DT_INT32"}, "value": {"tensor": {"dtype": "DT_INT32", "tensorShape": {}}}}}, {"name": "StatefulPartitionedCall/model/transformer_encoder_regressor/transformer_batch_norm_encoder_block/sequential/transformer_batch_norm_encoder_layer/dense_1/Tensordot/Const_1", "op": "Const", "attr": {"dtype": {"type": "DT_INT32"}, "value": {"tensor": {"dtype": "DT_INT32", "tensorShape": {"dim": [{"size": "1"}]}}}}}, {"name": "StatefulPartitionedCall/model/transformer_encoder_regressor/transformer_batch_norm_encoder_block/sequential/transformer_batch_norm_encoder_layer/dense_1/Tensordot/ReadVariableOp", "op": "Const", "attr": {"dtype": {"type": "DT_FLOAT"}, "value": {"tensor": {"dtype": "DT_FLOAT", "tensorShape": {"dim": [{"size": "176"}, {"size": "229"}]}}}}}, {"name": "StatefulPartitionedCall/model/transformer_encoder_regressor/transformer_batch_norm_encoder_block/sequential/transformer_batch_norm_encoder_layer/dense_1/Tensordot/free", "op": "Const", "attr": {"dtype": {"type": "DT_INT32"}, "value": {"tensor": {"dtype": "DT_INT32", "tensorShape": {"dim": [{"size": "2"}]}}}}}, {"name": "StatefulPartitionedCall/model/transformer_encoder_regressor/transformer_batch_norm_encoder_block/sequential/transformer_batch_norm_encoder_layer/dense_1/Tensordot/GatherV2/axis", "op": "Const", "attr": {"value": {"tensor": {"dtype": "DT_INT32", "tensorShape": {}}}, "dtype": {"type": "DT_INT32"}}}, {"name": "StatefulPartitionedCall/model/transformer_encoder_regressor/transformer_batch_norm_encoder_block/sequential/transformer_batch_norm_encoder_layer/dense_1/Tensordot/Const_2", "op": "Const", "attr": {"value": {"tensor": {"dtype": "DT_INT32", "tensorShape": {"dim": [{"size": "1"}]}}}, "dtype": {"type": "DT_INT32"}}}, {"name": "StatefulPartitionedCall/model/transformer_encoder_regressor/transformer_batch_norm_encoder_block/sequential/transformer_batch_norm_encoder_layer/dense_1/Tensordot/concat_1/axis", "op": "Const", "attr": {"value": {"tensor": {"dtype": "DT_INT32", "tensorShape": {}}}, "dtype": {"type": "DT_INT32"}}}, {"name": "StatefulPartitionedCall/model/transformer_encoder_regressor/transformer_batch_norm_encoder_block/sequential/transformer_batch_norm_encoder_layer/dense_1/BiasAdd/ReadVariableOp", "op": "Const", "attr": {"value": {"tensor": {"dtype": "DT_FLOAT", "tensorShape": {"dim": [{"size": "229"}]}}}, "dtype": {"type": "DT_FLOAT"}}}, {"name": "StatefulPartitionedCall/model/transformer_encoder_regressor/transformer_batch_norm_encoder_block/sequential/transformer_batch_norm_encoder_layer/dense_2/Tensordot/free", "op": "Const", "attr": {"value": {"tensor": {"dtype": "DT_INT32", "tensorShape": {"dim": [{"size": "2"}]}}}, "dtype": {"type": "DT_INT32"}}}, {"name": "StatefulPartitionedCall/model/transformer_encoder_regressor/transformer_batch_norm_encoder_block/sequential/transformer_batch_norm_encoder_layer/dense_2/Tensordot/GatherV2/axis", "op": "Const", "attr": {"value": {"tensor": {"dtype": "DT_INT32", "tensorShape": {}}}, "dtype": {"type": "DT_INT32"}}}, {"name": "StatefulPartitionedCall/model/transformer_encoder_regressor/transformer_batch_norm_encoder_block/sequential/transformer_batch_norm_encoder_layer/dense_2/Tensordot/Const_2", "op": "Const", "attr": {"value": {"tensor": {"dtype": "DT_INT32", "tensorShape": {"dim": [{"size": "1"}]}}}, "dtype": {"type": "DT_INT32"}}}, {"name": "StatefulPartitionedCall/model/transformer_encoder_regressor/transformer_batch_norm_encoder_block/sequential/transformer_batch_norm_encoder_layer/dense_2/Tensordot/concat_1/axis", "op": "Const", "attr": {"value": {"tensor": {"dtype": "DT_INT32", "tensorShape": {}}}, "dtype": {"type": "DT_INT32"}}}, {"name": "StatefulPartitionedCall/model/transformer_encoder_regressor/transformer_batch_norm_encoder_block/sequential/transformer_batch_norm_encoder_layer/dense_2/BiasAdd/ReadVariableOp", "op": "Const", "attr": {"dtype": {"type": "DT_FLOAT"}, "value": {"tensor": {"dtype": "DT_FLOAT", "tensorShape": {"dim": [{"size": "176"}]}}}}}, {"name": "StatefulPartitionedCall/model/transformer_encoder_regressor/transformer_batch_norm_encoder_block/sequential/transformer_batch_norm_encoder_layer/batch_normalization_1/batchnorm/mul", "op": "Const", "attr": {"dtype": {"type": "DT_FLOAT"}, "value": {"tensor": {"dtype": "DT_FLOAT", "tensorShape": {"dim": [{"size": "176"}]}}}}}, {"name": "StatefulPartitionedCall/model/transformer_encoder_regressor/transformer_batch_norm_encoder_block/sequential/transformer_batch_norm_encoder_layer/batch_normalization_1/batchnorm/sub", "op": "Const", "attr": {"value": {"tensor": {"dtype": "DT_FLOAT", "tensorShape": {"dim": [{"size": "176"}]}}}, "dtype": {"type": "DT_FLOAT"}}}, {"name": "StatefulPartitionedCall/model/transformer_encoder_regressor/transformer_batch_norm_encoder_block/sequential/transformer_batch_norm_encoder_layer/batch_normalization/batchnorm/sub", "op": "Const", "attr": {"dtype": {"type": "DT_FLOAT"}, "value": {"tensor": {"dtype": "DT_FLOAT", "tensorShape": {"dim": [{"size": "176"}]}}}}}, {"name": "StatefulPartitionedCall/model/transformer_encoder_regressor/transformer_batch_norm_encoder_block/sequential/transformer_batch_norm_encoder_layer/batch_normalization/batchnorm/mul", "op": "Const", "attr": {"value": {"tensor": {"dtype": "DT_FLOAT", "tensorShape": {"dim": [{"size": "176"}]}}}, "dtype": {"type": "DT_FLOAT"}}}, {"name": "StatefulPartitionedCall/model/transformer_encoder_regressor/transformer_batch_norm_encoder_block/sequential/transformer_batch_norm_encoder_layer/multi_head_attention/key/einsum/Einsum/ReadVariableOp", "op": "Const", "attr": {"dtype": {"type": "DT_FLOAT"}, "value": {"tensor": {"dtype": "DT_FLOAT", "tensorShape": {"dim": [{"size": "176"}, {"size": "4"}, {"size": "176"}]}}}}}, {"name": "StatefulPartitionedCall/model/transformer_encoder_regressor/transformer_batch_norm_encoder_block/sequential/transformer_batch_norm_encoder_layer/multi_head_attention/key/add/ReadVariableOp", "op": "Const", "attr": {"dtype": {"type": "DT_FLOAT"}, "value": {"tensor": {"dtype": "DT_FLOAT", "tensorShape": {"dim": [{"size": "4"}, {"size": "176"}]}}}}}, {"name": "StatefulPartitionedCall/model/transformer_encoder_regressor/transformer_batch_norm_encoder_block/sequential/transformer_batch_norm_encoder_layer/multi_head_attention/query/einsum/Einsum/ReadVariableOp", "op": "Const", "attr": {"dtype": {"type": "DT_FLOAT"}, "value": {"tensor": {"dtype": "DT_FLOAT", "tensorShape": {"dim": [{"size": "176"}, {"size": "4"}, {"size": "176"}]}}}}}, {"name": "StatefulPartitionedCall/model/transformer_encoder_regressor/transformer_batch_norm_encoder_block/sequential/transformer_batch_norm_encoder_layer/multi_head_attention/query/add/ReadVariableOp", "op": "Const", "attr": {"value": {"tensor": {"dtype": "DT_FLOAT", "tensorShape": {"dim": [{"size": "4"}, {"size": "176"}]}}}, "dtype": {"type": "DT_FLOAT"}}}, {"name": "StatefulPartitionedCall/model/transformer_encoder_regressor/transformer_batch_norm_encoder_block/sequential/transformer_batch_norm_encoder_layer/multi_head_attention/Mul/y", "op": "Const", "attr": {"value": {"tensor": {"dtype": "DT_FLOAT", "tensorShape": {}}}, "dtype": {"type": "DT_FLOAT"}}}, {"name": "StatefulPartitionedCall/model/transformer_encoder_regressor/dense/Tensordot/Const", "op": "Const", "attr": {"dtype": {"type": "DT_INT32"}, "value": {"tensor": {"dtype": "DT_INT32", "tensorShape": {"dim": [{"size": "1"}]}}}}}, {"name": "StatefulPartitionedCall/model/transformer_encoder_regressor/dense/Tensordot/axes", "op": "Const", "attr": {"value": {"tensor": {"dtype": "DT_INT32", "tensorShape": {"dim": [{"size": "1"}]}}}, "dtype": {"type": "DT_INT32"}}}, {"name": "StatefulPartitionedCall/model/transformer_encoder_regressor/dense/Tensordot/GatherV2_1/axis", "op": "Const", "attr": {"dtype": {"type": "DT_INT32"}, "value": {"tensor": {"dtype": "DT_INT32", "tensorShape": {}}}}}, {"name": "StatefulPartitionedCall/model/transformer_encoder_regressor/dense/Tensordot/Const_1", "op": "Const", "attr": {"dtype": {"type": "DT_INT32"}, "value": {"tensor": {"dtype": "DT_INT32", "tensorShape": {"dim": [{"size": "1"}]}}}}}, {"name": "StatefulPartitionedCall/model/transformer_encoder_regressor/dense/Tensordot/ReadVariableOp", "op": "Const", "attr": {"value": {"tensor": {"dtype": "DT_FLOAT", "tensorShape": {"dim": [{"size": "9"}, {"size": "176"}]}}}, "dtype": {"type": "DT_FLOAT"}}}, {"name": "StatefulPartitionedCall/model/transformer_encoder_regressor/dense/Tensordot/free", "op": "Const", "attr": {"value": {"tensor": {"dtype": "DT_INT32", "tensorShape": {"dim": [{"size": "2"}]}}}, "dtype": {"type": "DT_INT32"}}}, {"name": "StatefulPartitionedCall/model/transformer_encoder_regressor/dense/Tensordot/GatherV2/axis", "op": "Const", "attr": {"dtype": {"type": "DT_INT32"}, "value": {"tensor": {"dtype": "DT_INT32", "tensorShape": {}}}}}, {"name": "StatefulPartitionedCall/model/transformer_encoder_regressor/dense/Tensordot/Const_2", "op": "Const", "attr": {"value": {"tensor": {"dtype": "DT_INT32", "tensorShape": {"dim": [{"size": "1"}]}}}, "dtype": {"type": "DT_INT32"}}}, {"name": "StatefulPartitionedCall/model/transformer_encoder_regressor/dense/Tensordot/concat_1/axis", "op": "Const", "attr": {"value": {"tensor": {"dtype": "DT_INT32", "tensorShape": {}}}, "dtype": {"type": "DT_INT32"}}}, {"name": "StatefulPartitionedCall/model/transformer_encoder_regressor/dense/BiasAdd/ReadVariableOp", "op": "Const", "attr": {"dtype": {"type": "DT_FLOAT"}, "value": {"tensor": {"dtype": "DT_FLOAT", "tensorShape": {"dim": [{"size": "176"}]}}}}}, {"name": "StatefulPartitionedCall/model/transformer_encoder_regressor/mul/y", "op": "Const", "attr": {"dtype": {"type": "DT_FLOAT"}, "value": {"tensor": {"dtype": "DT_FLOAT", "tensorShape": {}}}}}, {"name": "StatefulPartitionedCall/model/transformer_encoder_regressor/learnable_position_encoding/strided_slice", "op": "Const", "attr": {"dtype": {"type": "DT_FLOAT"}, "value": {"tensor": {"dtype": "DT_FLOAT", "tensorShape": {"dim": [{"size": "13"}, {"size": "176"}]}}}}}, {"name": "StatefulPartitionedCall/model/transformer_encoder_regressor/transformer_batch_norm_encoder_block/sequential/transformer_batch_norm_encoder_layer/multi_head_attention/value/einsum/Einsum/ReadVariableOp", "op": "Const", "attr": {"dtype": {"type": "DT_FLOAT"}, "value": {"tensor": {"dtype": "DT_FLOAT", "tensorShape": {"dim": [{"size": "176"}, {"size": "4"}, {"size": "176"}]}}}}}, {"name": "StatefulPartitionedCall/model/transformer_encoder_regressor/transformer_batch_norm_encoder_block/sequential/transformer_batch_norm_encoder_layer/multi_head_attention/value/add/ReadVariableOp", "op": "Const", "attr": {"dtype": {"type": "DT_FLOAT"}, "value": {"tensor": {"dtype": "DT_FLOAT", "tensorShape": {"dim": [{"size": "4"}, {"size": "176"}]}}}}}, {"name": "StatefulPartitionedCall/model/transformer_encoder_regressor/transformer_batch_norm_encoder_block/sequential/transformer_batch_norm_encoder_layer/multi_head_attention/attention_output/einsum/Einsum/ReadVariableOp", "op": "Const", "attr": {"dtype": {"type": "DT_FLOAT"}, "value": {"tensor": {"dtype": "DT_FLOAT", "tensorShape": {"dim": [{"size": "4"}, {"size": "176"}, {"size": "176"}]}}}}}, {"name": "StatefulPartitionedCall/model/transformer_encoder_regressor/transformer_batch_norm_encoder_block/sequential/transformer_batch_norm_encoder_layer/multi_head_attention/attention_output/add/ReadVariableOp", "op": "Const", "attr": {"dtype": {"type": "DT_FLOAT"}, "value": {"tensor": {"dtype": "DT_FLOAT", "tensorShape": {"dim": [{"size": "176"}]}}}}}, {"name": "StatefulPartitionedCall/model/transformer_encoder_regressor/transformer_batch_norm_encoder_block/sequential/transformer_batch_norm_encoder_layer_1/multi_head_attention_1/value/einsum/Einsum/ReadVariableOp", "op": "Const", "attr": {"value": {"tensor": {"dtype": "DT_FLOAT", "tensorShape": {"dim": [{"size": "176"}, {"size": "4"}, {"size": "176"}]}}}, "dtype": {"type": "DT_FLOAT"}}}, {"name": "StatefulPartitionedCall/model/transformer_encoder_regressor/transformer_batch_norm_encoder_block/sequential/transformer_batch_norm_encoder_layer_1/multi_head_attention_1/value/add/ReadVariableOp", "op": "Const", "attr": {"value": {"tensor": {"dtype": "DT_FLOAT", "tensorShape": {"dim": [{"size": "4"}, {"size": "176"}]}}}, "dtype": {"type": "DT_FLOAT"}}}, {"name": "StatefulPartitionedCall/model/transformer_encoder_regressor/transformer_batch_norm_encoder_block/sequential/transformer_batch_norm_encoder_layer_1/multi_head_attention_1/attention_output/einsum/Einsum/ReadVariableOp", "op": "Const", "attr": {"dtype": {"type": "DT_FLOAT"}, "value": {"tensor": {"dtype": "DT_FLOAT", "tensorShape": {"dim": [{"size": "4"}, {"size": "176"}, {"size": "176"}]}}}}}, {"name": "StatefulPartitionedCall/model/transformer_encoder_regressor/transformer_batch_norm_encoder_block/sequential/transformer_batch_norm_encoder_layer_1/multi_head_attention_1/attention_output/add/ReadVariableOp", "op": "Const", "attr": {"dtype": {"type": "DT_FLOAT"}, "value": {"tensor": {"dtype": "DT_FLOAT", "tensorShape": {"dim": [{"size": "176"}]}}}}}, {"name": "StatefulPartitionedCall/model/transformer_encoder_regressor/transformer_batch_norm_encoder_block/sequential/transformer_batch_norm_encoder_layer_2/multi_head_attention_2/value/einsum/Einsum/ReadVariableOp", "op": "Const", "attr": {"value": {"tensor": {"dtype": "DT_FLOAT", "tensorShape": {"dim": [{"size": "176"}, {"size": "4"}, {"size": "176"}]}}}, "dtype": {"type": "DT_FLOAT"}}}, {"name": "StatefulPartitionedCall/model/transformer_encoder_regressor/transformer_batch_norm_encoder_block/sequential/transformer_batch_norm_encoder_layer_2/multi_head_attention_2/value/add/ReadVariableOp", "op": "Const", "attr": {"dtype": {"type": "DT_FLOAT"}, "value": {"tensor": {"dtype": "DT_FLOAT", "tensorShape": {"dim": [{"size": "4"}, {"size": "176"}]}}}}}, {"name": "StatefulPartitionedCall/model/transformer_encoder_regressor/transformer_batch_norm_encoder_block/sequential/transformer_batch_norm_encoder_layer_2/multi_head_attention_2/attention_output/einsum/Einsum/ReadVariableOp", "op": "Const", "attr": {"value": {"tensor": {"dtype": "DT_FLOAT", "tensorShape": {"dim": [{"size": "4"}, {"size": "176"}, {"size": "176"}]}}}, "dtype": {"type": "DT_FLOAT"}}}, {"name": "StatefulPartitionedCall/model/transformer_encoder_regressor/transformer_batch_norm_encoder_block/sequential/transformer_batch_norm_encoder_layer_2/multi_head_attention_2/attention_output/add/ReadVariableOp", "op": "Const", "attr": {"value": {"tensor": {"dtype": "DT_FLOAT", "tensorShape": {"dim": [{"size": "176"}]}}}, "dtype": {"type": "DT_FLOAT"}}}, {"name": "StatefulPartitionedCall/model/transformer_encoder_regressor/transformer_batch_norm_encoder_block/sequential/transformer_batch_norm_encoder_layer_3/multi_head_attention_3/value/einsum/Einsum/ReadVariableOp", "op": "Const", "attr": {"value": {"tensor": {"dtype": "DT_FLOAT", "tensorShape": {"dim": [{"size": "176"}, {"size": "4"}, {"size": "176"}]}}}, "dtype": {"type": "DT_FLOAT"}}}, {"name": "StatefulPartitionedCall/model/transformer_encoder_regressor/transformer_batch_norm_encoder_block/sequential/transformer_batch_norm_encoder_layer_3/multi_head_attention_3/value/add/ReadVariableOp", "op": "Const", "attr": {"value": {"tensor": {"dtype": "DT_FLOAT", "tensorShape": {"dim": [{"size": "4"}, {"size": "176"}]}}}, "dtype": {"type": "DT_FLOAT"}}}, {"name": "StatefulPartitionedCall/model/transformer_encoder_regressor/transformer_batch_norm_encoder_block/sequential/transformer_batch_norm_encoder_layer_3/multi_head_attention_3/attention_output/einsum/Einsum/ReadVariableOp", "op": "Const", "attr": {"dtype": {"type": "DT_FLOAT"}, "value": {"tensor": {"dtype": "DT_FLOAT", "tensorShape": {"dim": [{"size": "4"}, {"size": "176"}, {"size": "176"}]}}}}}, {"name": "StatefulPartitionedCall/model/transformer_encoder_regressor/transformer_batch_norm_encoder_block/sequential/transformer_batch_norm_encoder_layer_3/multi_head_attention_3/attention_output/add/ReadVariableOp", "op": "Const", "attr": {"dtype": {"type": "DT_FLOAT"}, "value": {"tensor": {"dtype": "DT_FLOAT", "tensorShape": {"dim": [{"size": "176"}]}}}}}, {"name": "StatefulPartitionedCall/model/transformer_encoder_regressor/transformer_batch_norm_encoder_block/sequential/transformer_batch_norm_encoder_layer_4/multi_head_attention_4/value/einsum/Einsum/ReadVariableOp", "op": "Const", "attr": {"value": {"tensor": {"dtype": "DT_FLOAT", "tensorShape": {"dim": [{"size": "176"}, {"size": "4"}, {"size": "176"}]}}}, "dtype": {"type": "DT_FLOAT"}}}, {"name": "StatefulPartitionedCall/model/transformer_encoder_regressor/transformer_batch_norm_encoder_block/sequential/transformer_batch_norm_encoder_layer_4/multi_head_attention_4/value/add/ReadVariableOp", "op": "Const", "attr": {"value": {"tensor": {"dtype": "DT_FLOAT", "tensorShape": {"dim": [{"size": "4"}, {"size": "176"}]}}}, "dtype": {"type": "DT_FLOAT"}}}, {"name": "StatefulPartitionedCall/model/transformer_encoder_regressor/transformer_batch_norm_encoder_block/sequential/transformer_batch_norm_encoder_layer_4/multi_head_attention_4/attention_output/einsum/Einsum/ReadVariableOp", "op": "Const", "attr": {"value": {"tensor": {"dtype": "DT_FLOAT", "tensorShape": {"dim": [{"size": "4"}, {"size": "176"}, {"size": "176"}]}}}, "dtype": {"type": "DT_FLOAT"}}}, {"name": "StatefulPartitionedCall/model/transformer_encoder_regressor/transformer_batch_norm_encoder_block/sequential/transformer_batch_norm_encoder_layer_4/multi_head_attention_4/attention_output/add/ReadVariableOp", "op": "Const", "attr": {"value": {"tensor": {"dtype": "DT_FLOAT", "tensorShape": {"dim": [{"size": "176"}]}}}, "dtype": {"type": "DT_FLOAT"}}}, {"name": "StatefulPartitionedCall/model/transformer_encoder_regressor/transformer_batch_norm_encoder_block/sequential/transformer_batch_norm_encoder_layer_5/multi_head_attention_5/value/einsum/Einsum/ReadVariableOp", "op": "Const", "attr": {"dtype": {"type": "DT_FLOAT"}, "value": {"tensor": {"dtype": "DT_FLOAT", "tensorShape": {"dim": [{"size": "176"}, {"size": "4"}, {"size": "176"}]}}}}}, {"name": "StatefulPartitionedCall/model/transformer_encoder_regressor/transformer_batch_norm_encoder_block/sequential/transformer_batch_norm_encoder_layer_5/multi_head_attention_5/value/add/ReadVariableOp", "op": "Const", "attr": {"dtype": {"type": "DT_FLOAT"}, "value": {"tensor": {"dtype": "DT_FLOAT", "tensorShape": {"dim": [{"size": "4"}, {"size": "176"}]}}}}}, {"name": "StatefulPartitionedCall/model/transformer_encoder_regressor/transformer_batch_norm_encoder_block/sequential/transformer_batch_norm_encoder_layer_5/multi_head_attention_5/attention_output/einsum/Einsum/ReadVariableOp", "op": "Const", "attr": {"value": {"tensor": {"dtype": "DT_FLOAT", "tensorShape": {"dim": [{"size": "4"}, {"size": "176"}, {"size": "176"}]}}}, "dtype": {"type": "DT_FLOAT"}}}, {"name": "StatefulPartitionedCall/model/transformer_encoder_regressor/transformer_batch_norm_encoder_block/sequential/transformer_batch_norm_encoder_layer_5/multi_head_attention_5/attention_output/add/ReadVariableOp", "op": "Const", "attr": {"dtype": {"type": "DT_FLOAT"}, "value": {"tensor": {"dtype": "DT_FLOAT", "tensorShape": {"dim": [{"size": "176"}]}}}}}, {"name": "StatefulPartitionedCall/model/transformer_encoder_regressor/transformer_batch_norm_encoder_block/sequential/transformer_batch_norm_encoder_layer_6/multi_head_attention_6/value/einsum/Einsum/ReadVariableOp", "op": "Const", "attr": {"dtype": {"type": "DT_FLOAT"}, "value": {"tensor": {"dtype": "DT_FLOAT", "tensorShape": {"dim": [{"size": "176"}, {"size": "4"}, {"size": "176"}]}}}}}, {"name": "StatefulPartitionedCall/model/transformer_encoder_regressor/transformer_batch_norm_encoder_block/sequential/transformer_batch_norm_encoder_layer_6/multi_head_attention_6/value/add/ReadVariableOp", "op": "Const", "attr": {"dtype": {"type": "DT_FLOAT"}, "value": {"tensor": {"dtype": "DT_FLOAT", "tensorShape": {"dim": [{"size": "4"}, {"size": "176"}]}}}}}, {"name": "StatefulPartitionedCall/model/transformer_encoder_regressor/transformer_batch_norm_encoder_block/sequential/transformer_batch_norm_encoder_layer_6/multi_head_attention_6/attention_output/einsum/Einsum/ReadVariableOp", "op": "Const", "attr": {"value": {"tensor": {"dtype": "DT_FLOAT", "tensorShape": {"dim": [{"size": "4"}, {"size": "176"}, {"size": "176"}]}}}, "dtype": {"type": "DT_FLOAT"}}}, {"name": "StatefulPartitionedCall/model/transformer_encoder_regressor/transformer_batch_norm_encoder_block/sequential/transformer_batch_norm_encoder_layer_6/multi_head_attention_6/attention_output/add/ReadVariableOp", "op": "Const", "attr": {"value": {"tensor": {"dtype": "DT_FLOAT", "tensorShape": {"dim": [{"size": "176"}]}}}, "dtype": {"type": "DT_FLOAT"}}}, {"name": "StatefulPartitionedCall/model/transformer_encoder_regressor/transformer_batch_norm_encoder_block/sequential/transformer_batch_norm_encoder_layer_7/multi_head_attention_7/value/einsum/Einsum/ReadVariableOp", "op": "Const", "attr": {"dtype": {"type": "DT_FLOAT"}, "value": {"tensor": {"dtype": "DT_FLOAT", "tensorShape": {"dim": [{"size": "176"}, {"size": "4"}, {"size": "176"}]}}}}}, {"name": "StatefulPartitionedCall/model/transformer_encoder_regressor/transformer_batch_norm_encoder_block/sequential/transformer_batch_norm_encoder_layer_7/multi_head_attention_7/value/add/ReadVariableOp", "op": "Const", "attr": {"dtype": {"type": "DT_FLOAT"}, "value": {"tensor": {"dtype": "DT_FLOAT", "tensorShape": {"dim": [{"size": "4"}, {"size": "176"}]}}}}}, {"name": "StatefulPartitionedCall/model/transformer_encoder_regressor/transformer_batch_norm_encoder_block/sequential/transformer_batch_norm_encoder_layer_7/multi_head_attention_7/attention_output/einsum/Einsum/ReadVariableOp", "op": "Const", "attr": {"value": {"tensor": {"dtype": "DT_FLOAT", "tensorShape": {"dim": [{"size": "4"}, {"size": "176"}, {"size": "176"}]}}}, "dtype": {"type": "DT_FLOAT"}}}, {"name": "StatefulPartitionedCall/model/transformer_encoder_regressor/transformer_batch_norm_encoder_block/sequential/transformer_batch_norm_encoder_layer_7/multi_head_attention_7/attention_output/add/ReadVariableOp", "op": "Const", "attr": {"dtype": {"type": "DT_FLOAT"}, "value": {"tensor": {"dtype": "DT_FLOAT", "tensorShape": {"dim": [{"size": "176"}]}}}}}, {"name": "StatefulPartitionedCall/model/transformer_encoder_regressor/transformer_batch_norm_encoder_block/sequential/transformer_batch_norm_encoder_layer_8/multi_head_attention_8/value/einsum/Einsum/ReadVariableOp", "op": "Const", "attr": {"value": {"tensor": {"dtype": "DT_FLOAT", "tensorShape": {"dim": [{"size": "176"}, {"size": "4"}, {"size": "176"}]}}}, "dtype": {"type": "DT_FLOAT"}}}, {"name": "StatefulPartitionedCall/model/transformer_encoder_regressor/transformer_batch_norm_encoder_block/sequential/transformer_batch_norm_encoder_layer_8/multi_head_attention_8/value/add/ReadVariableOp", "op": "Const", "attr": {"dtype": {"type": "DT_FLOAT"}, "value": {"tensor": {"dtype": "DT_FLOAT", "tensorShape": {"dim": [{"size": "4"}, {"size": "176"}]}}}}}, {"name": "StatefulPartitionedCall/model/transformer_encoder_regressor/transformer_batch_norm_encoder_block/sequential/transformer_batch_norm_encoder_layer_8/multi_head_attention_8/attention_output/einsum/Einsum/ReadVariableOp", "op": "Const", "attr": {"dtype": {"type": "DT_FLOAT"}, "value": {"tensor": {"dtype": "DT_FLOAT", "tensorShape": {"dim": [{"size": "4"}, {"size": "176"}, {"size": "176"}]}}}}}, {"name": "StatefulPartitionedCall/model/transformer_encoder_regressor/transformer_batch_norm_encoder_block/sequential/transformer_batch_norm_encoder_layer_8/multi_head_attention_8/attention_output/add/ReadVariableOp", "op": "Const", "attr": {"dtype": {"type": "DT_FLOAT"}, "value": {"tensor": {"dtype": "DT_FLOAT", "tensorShape": {"dim": [{"size": "176"}]}}}}}, {"name": "StatefulPartitionedCall/model/transformer_encoder_regressor/transformer_batch_norm_encoder_block/sequential/transformer_batch_norm_encoder_layer_9/multi_head_attention_9/value/einsum/Einsum/ReadVariableOp", "op": "Const", "attr": {"dtype": {"type": "DT_FLOAT"}, "value": {"tensor": {"dtype": "DT_FLOAT", "tensorShape": {"dim": [{"size": "176"}, {"size": "4"}, {"size": "176"}]}}}}}, {"name": "StatefulPartitionedCall/model/transformer_encoder_regressor/transformer_batch_norm_encoder_block/sequential/transformer_batch_norm_encoder_layer_9/multi_head_attention_9/value/add/ReadVariableOp", "op": "Const", "attr": {"value": {"tensor": {"dtype": "DT_FLOAT", "tensorShape": {"dim": [{"size": "4"}, {"size": "176"}]}}}, "dtype": {"type": "DT_FLOAT"}}}, {"name": "StatefulPartitionedCall/model/transformer_encoder_regressor/transformer_batch_norm_encoder_block/sequential/transformer_batch_norm_encoder_layer_9/multi_head_attention_9/attention_output/einsum/Einsum/ReadVariableOp", "op": "Const", "attr": {"dtype": {"type": "DT_FLOAT"}, "value": {"tensor": {"dtype": "DT_FLOAT", "tensorShape": {"dim": [{"size": "4"}, {"size": "176"}, {"size": "176"}]}}}}}, {"name": "StatefulPartitionedCall/model/transformer_encoder_regressor/transformer_batch_norm_encoder_block/sequential/transformer_batch_norm_encoder_layer_9/multi_head_attention_9/attention_output/add/ReadVariableOp", "op": "Const", "attr": {"value": {"tensor": {"dtype": "DT_FLOAT", "tensorShape": {"dim": [{"size": "176"}]}}}, "dtype": {"type": "DT_FLOAT"}}}, {"name": "StatefulPartitionedCall/model/transformer_encoder_regressor/flatten/Const", "op": "Const", "attr": {"dtype": {"type": "DT_INT32"}, "value": {"tensor": {"dtype": "DT_INT32", "tensorShape": {"dim": [{"size": "2"}]}}}}}, {"name": "StatefulPartitionedCall/model/transformer_encoder_regressor/sequential_1/dense_21/MatMul/ReadVariableOp", "op": "Const", "attr": {"value": {"tensor": {"dtype": "DT_FLOAT", "tensorShape": {"dim": [{"size": "2288"}, {"size": "176"}]}}}, "dtype": {"type": "DT_FLOAT"}}}, {"name": "StatefulPartitionedCall/model/transformer_encoder_regressor/sequential_1/dense_21/BiasAdd/ReadVariableOp", "op": "Const", "attr": {"dtype": {"type": "DT_FLOAT"}, "value": {"tensor": {"dtype": "DT_FLOAT", "tensorShape": {"dim": [{"size": "176"}]}}}}}, {"name": "StatefulPartitionedCall/model/transformer_encoder_regressor/sequential_1/dense_22/MatMul/ReadVariableOp", "op": "Const", "attr": {"value": {"tensor": {"dtype": "DT_FLOAT", "tensorShape": {"dim": [{"size": "176"}, {"size": "176"}]}}}, "dtype": {"type": "DT_FLOAT"}}}, {"name": "StatefulPartitionedCall/model/transformer_encoder_regressor/sequential_1/dense_22/BiasAdd/ReadVariableOp", "op": "Const", "attr": {"value": {"tensor": {"dtype": "DT_FLOAT", "tensorShape": {"dim": [{"size": "176"}]}}}, "dtype": {"type": "DT_FLOAT"}}}, {"name": "StatefulPartitionedCall/model/transformer_encoder_regressor/sequential_1/dense_23/MatMul/ReadVariableOp", "op": "Const", "attr": {"value": {"tensor": {"dtype": "DT_FLOAT", "tensorShape": {"dim": [{"size": "176"}, {"size": "176"}]}}}, "dtype": {"type": "DT_FLOAT"}}}, {"name": "StatefulPartitionedCall/model/transformer_encoder_regressor/sequential_1/dense_23/BiasAdd/ReadVariableOp", "op": "Const", "attr": {"value": {"tensor": {"dtype": "DT_FLOAT", "tensorShape": {"dim": [{"size": "176"}]}}}, "dtype": {"type": "DT_FLOAT"}}}, {"name": "StatefulPartitionedCall/model/transformer_encoder_regressor/sequential_1/dense_24/MatMul/ReadVariableOp", "op": "Const", "attr": {"dtype": {"type": "DT_FLOAT"}, "value": {"tensor": {"dtype": "DT_FLOAT", "tensorShape": {"dim": [{"size": "176"}, {"size": "176"}]}}}}}, {"name": "StatefulPartitionedCall/model/transformer_encoder_regressor/sequential_1/dense_24/BiasAdd/ReadVariableOp", "op": "Const", "attr": {"dtype": {"type": "DT_FLOAT"}, "value": {"tensor": {"dtype": "DT_FLOAT", "tensorShape": {"dim": [{"size": "176"}]}}}}}, {"name": "StatefulPartitionedCall/model/transformer_encoder_regressor/sequential_1/dense_25/MatMul/ReadVariableOp", "op": "Const", "attr": {"dtype": {"type": "DT_FLOAT"}, "value": {"tensor": {"dtype": "DT_FLOAT", "tensorShape": {"dim": [{"size": "176"}, {"size": "176"}]}}}}}, {"name": "StatefulPartitionedCall/model/transformer_encoder_regressor/sequential_1/dense_25/BiasAdd/ReadVariableOp", "op": "Const", "attr": {"value": {"tensor": {"dtype": "DT_FLOAT", "tensorShape": {"dim": [{"size": "176"}]}}}, "dtype": {"type": "DT_FLOAT"}}}, {"name": "StatefulPartitionedCall/model/transformer_encoder_regressor/sequential_1/dense_26/MatMul/ReadVariableOp", "op": "Const", "attr": {"dtype": {"type": "DT_FLOAT"}, "value": {"tensor": {"dtype": "DT_FLOAT", "tensorShape": {"dim": [{"size": "176"}, {"size": "176"}]}}}}}, {"name": "StatefulPartitionedCall/model/transformer_encoder_regressor/sequential_1/dense_26/BiasAdd/ReadVariableOp", "op": "Const", "attr": {"value": {"tensor": {"dtype": "DT_FLOAT", "tensorShape": {"dim": [{"size": "176"}]}}}, "dtype": {"type": "DT_FLOAT"}}}, {"name": "StatefulPartitionedCall/model/transformer_encoder_regressor/sequential_1/dense_27/MatMul/ReadVariableOp", "op": "Const", "attr": {"value": {"tensor": {"dtype": "DT_FLOAT", "tensorShape": {"dim": [{"size": "176"}, {"size": "176"}]}}}, "dtype": {"type": "DT_FLOAT"}}}, {"name": "StatefulPartitionedCall/model/transformer_encoder_regressor/sequential_1/dense_27/BiasAdd/ReadVariableOp", "op": "Const", "attr": {"value": {"tensor": {"dtype": "DT_FLOAT", "tensorShape": {"dim": [{"size": "176"}]}}}, "dtype": {"type": "DT_FLOAT"}}}, {"name": "StatefulPartitionedCall/model/transformer_encoder_regressor/sequential_1/dense_28/MatMul/ReadVariableOp", "op": "Const", "attr": {"dtype": {"type": "DT_FLOAT"}, "value": {"tensor": {"dtype": "DT_FLOAT", "tensorShape": {"dim": [{"size": "176"}, {"size": "176"}]}}}}}, {"name": "StatefulPartitionedCall/model/transformer_encoder_regressor/sequential_1/dense_28/BiasAdd/ReadVariableOp", "op": "Const", "attr": {"dtype": {"type": "DT_FLOAT"}, "value": {"tensor": {"dtype": "DT_FLOAT", "tensorShape": {"dim": [{"size": "176"}]}}}}}, {"name": "StatefulPartitionedCall/model/transformer_encoder_regressor/sequential_1/dense_29/MatMul/ReadVariableOp", "op": "Const", "attr": {"value": {"tensor": {"dtype": "DT_FLOAT", "tensorShape": {"dim": [{"size": "176"}, {"size": "2"}]}}}, "dtype": {"type": "DT_FLOAT"}}}, {"name": "StatefulPartitionedCall/model/transformer_encoder_regressor/sequential_1/dense_29/BiasAdd/ReadVariableOp", "op": "Const", "attr": {"value": {"tensor": {"dtype": "DT_FLOAT", "tensorShape": {"dim": [{"size": "2"}]}}}, "dtype": {"type": "DT_FLOAT"}}}, {"name": "input_1", "op": "Placeholder", "attr": {"shape": {"shape": {"dim": [{"size": "-1"}, {"size": "13"}, {"size": "9"}]}}, "dtype": {"type": "DT_FLOAT"}}}, {"name": "StatefulPartitionedCall/model/transformer_encoder_regressor/dense/Tensordot/Shape", "op": "Shape", "input": ["input_1"], "attr": {"T": {"type": "DT_FLOAT"}, "out_type": {"type": "DT_INT32"}}}, {"name": "StatefulPartitionedCall/model/transformer_encoder_regressor/dense/Tensordot/GatherV2_1", "op": "GatherV2", "input": ["StatefulPartitionedCall/model/transformer_encoder_regressor/dense/Tensordot/Shape", "StatefulPartitionedCall/model/transformer_encoder_regressor/dense/Tensordot/axes", "StatefulPartitionedCall/model/transformer_encoder_regressor/dense/Tensordot/GatherV2_1/axis"], "attr": {"batch_dims": {"i": "0"}, "Taxis": {"type": "DT_INT32"}, "Tparams": {"type": "DT_INT32"}, "Tindices": {"type": "DT_INT32"}}}, {"name": "StatefulPartitionedCall/model/transformer_encoder_regressor/dense/Tensordot/GatherV2", "op": "GatherV2", "input": ["StatefulPartitionedCall/model/transformer_encoder_regressor/dense/Tensordot/Shape", "StatefulPartitionedCall/model/transformer_encoder_regressor/dense/Tensordot/free", "StatefulPartitionedCall/model/transformer_encoder_regressor/dense/Tensordot/GatherV2/axis"], "attr": {"Tindices": {"type": "DT_INT32"}, "Taxis": {"type": "DT_INT32"}, "batch_dims": {"i": "0"}, "Tparams": {"type": "DT_INT32"}}}, {"name": "StatefulPartitionedCall/model/transformer_encoder_regressor/dense/Tensordot/Prod_1", "op": "Prod", "input": ["StatefulPartitionedCall/model/transformer_encoder_regressor/dense/Tensordot/GatherV2_1", "StatefulPartitionedCall/model/transformer_encoder_regressor/dense/Tensordot/Const_1"], "attr": {"T": {"type": "DT_INT32"}, "keep_dims": {"b": false}, "Tidx": {"type": "DT_INT32"}}}, {"name": "StatefulPartitionedCall/model/transformer_encoder_regressor/dense/Tensordot/Prod", "op": "Prod", "input": ["StatefulPartitionedCall/model/transformer_encoder_regressor/dense/Tensordot/GatherV2", "StatefulPartitionedCall/model/transformer_encoder_regressor/dense/Tensordot/Const"], "attr": {"Tidx": {"type": "DT_INT32"}, "T": {"type": "DT_INT32"}, "keep_dims": {"b": false}}}, {"name": "StatefulPartitionedCall/model/transformer_encoder_regressor/dense/Tensordot/concat_1", "op": "ConcatV2", "input": ["StatefulPartitionedCall/model/transformer_encoder_regressor/dense/Tensordot/GatherV2", "StatefulPartitionedCall/model/transformer_encoder_regressor/dense/Tensordot/Const_2", "StatefulPartitionedCall/model/transformer_encoder_regressor/dense/Tensordot/concat_1/axis"], "attr": {"T": {"type": "DT_INT32"}, "Tidx": {"type": "DT_INT32"}, "N": {"i": "2"}}}, {"name": "StatefulPartitionedCall/model/transformer_encoder_regressor/dense/Tensordot/stack", "op": "Pack", "input": ["StatefulPartitionedCall/model/transformer_encoder_regressor/dense/Tensordot/Prod", "StatefulPartitionedCall/model/transformer_encoder_regressor/dense/Tensordot/Prod_1"], "attr": {"T": {"type": "DT_INT32"}, "axis": {"i": "0"}, "N": {"i": "2"}}}, {"name": "StatefulPartitionedCall/model/transformer_encoder_regressor/dense/Tensordot/Reshape", "op": "Reshape", "input": ["input_1", "StatefulPartitionedCall/model/transformer_encoder_regressor/dense/Tensordot/stack"], "attr": {"Tshape": {"type": "DT_INT32"}, "T": {"type": "DT_FLOAT"}}}, {"name": "StatefulPartitionedCall/model/transformer_encoder_regressor/dense/Tensordot/MatMul", "op": "MatMul", "input": ["StatefulPartitionedCall/model/transformer_encoder_regressor/dense/Tensordot/Reshape", "StatefulPartitionedCall/model/transformer_encoder_regressor/dense/Tensordot/ReadVariableOp"], "device": "/device:CPU:0", "attr": {"transpose_b": {"b": false}, "T": {"type": "DT_FLOAT"}, "transpose_a": {"b": false}}}, {"name": "StatefulPartitionedCall/model/transformer_encoder_regressor/dense/Tensordot", "op": "Reshape", "input": ["StatefulPartitionedCall/model/transformer_encoder_regressor/dense/Tensordot/MatMul", "StatefulPartitionedCall/model/transformer_encoder_regressor/dense/Tensordot/concat_1"], "attr": {"Tshape": {"type": "DT_INT32"}, "T": {"type": "DT_FLOAT"}}}, {"name": "StatefulPartitionedCall/model/transformer_encoder_regressor/dense/BiasAdd", "op": "BiasAdd", "input": ["StatefulPartitionedCall/model/transformer_encoder_regressor/dense/Tensordot", "StatefulPartitionedCall/model/transformer_encoder_regressor/dense/BiasAdd/ReadVariableOp"], "attr": {"data_format": {"s": "TkhXQw=="}, "T": {"type": "DT_FLOAT"}}}, {"name": "StatefulPartitionedCall/model/transformer_encoder_regressor/mul", "op": "Mul", "input": ["StatefulPartitionedCall/model/transformer_encoder_regressor/dense/BiasAdd", "StatefulPartitionedCall/model/transformer_encoder_regressor/mul/y"], "attr": {"T": {"type": "DT_FLOAT"}}}, {"name": "StatefulPartitionedCall/model/transformer_encoder_regressor/learnable_position_encoding/add", "op": "AddV2", "input": ["StatefulPartitionedCall/model/transformer_encoder_regressor/mul", "StatefulPartitionedCall/model/transformer_encoder_regressor/learnable_position_encoding/strided_slice"], "attr": {"T": {"type": "DT_FLOAT"}}}, {"name": "StatefulPartitionedCall/model/transformer_encoder_regressor/transformer_batch_norm_encoder_block/sequential/transformer_batch_norm_encoder_layer/multi_head_attention/key/einsum/Einsum", "op": "Einsum", "input": ["StatefulPartitionedCall/model/transformer_encoder_regressor/learnable_position_encoding/add", "StatefulPartitionedCall/model/transformer_encoder_regressor/transformer_batch_norm_encoder_block/sequential/transformer_batch_norm_encoder_layer/multi_head_attention/key/einsum/Einsum/ReadVariableOp"], "attr": {"equation": {"s": "YWJjLGNkZS0+YWJkZQ=="}, "N": {"i": "2"}, "T": {"type": "DT_FLOAT"}}}, {"name": "StatefulPartitionedCall/model/transformer_encoder_regressor/transformer_batch_norm_encoder_block/sequential/transformer_batch_norm_encoder_layer/multi_head_attention/query/einsum/Einsum", "op": "Einsum", "input": ["StatefulPartitionedCall/model/transformer_encoder_regressor/learnable_position_encoding/add", "StatefulPartitionedCall/model/transformer_encoder_regressor/transformer_batch_norm_encoder_block/sequential/transformer_batch_norm_encoder_layer/multi_head_attention/query/einsum/Einsum/ReadVariableOp"], "attr": {"T": {"type": "DT_FLOAT"}, "equation": {"s": "YWJjLGNkZS0+YWJkZQ=="}, "N": {"i": "2"}}}, {"name": "StatefulPartitionedCall/model/transformer_encoder_regressor/transformer_batch_norm_encoder_block/sequential/transformer_batch_norm_encoder_layer/multi_head_attention/value/einsum/Einsum", "op": "Einsum", "input": ["StatefulPartitionedCall/model/transformer_encoder_regressor/learnable_position_encoding/add", "StatefulPartitionedCall/model/transformer_encoder_regressor/transformer_batch_norm_encoder_block/sequential/transformer_batch_norm_encoder_layer/multi_head_attention/value/einsum/Einsum/ReadVariableOp"], "attr": {"T": {"type": "DT_FLOAT"}, "N": {"i": "2"}, "equation": {"s": "YWJjLGNkZS0+YWJkZQ=="}}}, {"name": "StatefulPartitionedCall/model/transformer_encoder_regressor/transformer_batch_norm_encoder_block/sequential/transformer_batch_norm_encoder_layer/multi_head_attention/key/add", "op": "AddV2", "input": ["StatefulPartitionedCall/model/transformer_encoder_regressor/transformer_batch_norm_encoder_block/sequential/transformer_batch_norm_encoder_layer/multi_head_attention/key/einsum/Einsum", "StatefulPartitionedCall/model/transformer_encoder_regressor/transformer_batch_norm_encoder_block/sequential/transformer_batch_norm_encoder_layer/multi_head_attention/key/add/ReadVariableOp"], "attr": {"T": {"type": "DT_FLOAT"}}}, {"name": "StatefulPartitionedCall/model/transformer_encoder_regressor/transformer_batch_norm_encoder_block/sequential/transformer_batch_norm_encoder_layer/multi_head_attention/query/add", "op": "AddV2", "input": ["StatefulPartitionedCall/model/transformer_encoder_regressor/transformer_batch_norm_encoder_block/sequential/transformer_batch_norm_encoder_layer/multi_head_attention/query/einsum/Einsum", "StatefulPartitionedCall/model/transformer_encoder_regressor/transformer_batch_norm_encoder_block/sequential/transformer_batch_norm_encoder_layer/multi_head_attention/query/add/ReadVariableOp"], "attr": {"T": {"type": "DT_FLOAT"}}}, {"name": "StatefulPartitionedCall/model/transformer_encoder_regressor/transformer_batch_norm_encoder_block/sequential/transformer_batch_norm_encoder_layer/multi_head_attention/value/add", "op": "AddV2", "input": ["StatefulPartitionedCall/model/transformer_encoder_regressor/transformer_batch_norm_encoder_block/sequential/transformer_batch_norm_encoder_layer/multi_head_attention/value/einsum/Einsum", "StatefulPartitionedCall/model/transformer_encoder_regressor/transformer_batch_norm_encoder_block/sequential/transformer_batch_norm_encoder_layer/multi_head_attention/value/add/ReadVariableOp"], "attr": {"T": {"type": "DT_FLOAT"}}}, {"name": "StatefulPartitionedCall/model/transformer_encoder_regressor/transformer_batch_norm_encoder_block/sequential/transformer_batch_norm_encoder_layer/multi_head_attention/Mul", "op": "Mul", "input": ["StatefulPartitionedCall/model/transformer_encoder_regressor/transformer_batch_norm_encoder_block/sequential/transformer_batch_norm_encoder_layer/multi_head_attention/query/add", "StatefulPartitionedCall/model/transformer_encoder_regressor/transformer_batch_norm_encoder_block/sequential/transformer_batch_norm_encoder_layer/multi_head_attention/Mul/y"], "attr": {"T": {"type": "DT_FLOAT"}}}, {"name": "StatefulPartitionedCall/model/transformer_encoder_regressor/transformer_batch_norm_encoder_block/sequential/transformer_batch_norm_encoder_layer/multi_head_attention/einsum/Einsum", "op": "Einsum", "input": ["StatefulPartitionedCall/model/transformer_encoder_regressor/transformer_batch_norm_encoder_block/sequential/transformer_batch_norm_encoder_layer/multi_head_attention/key/add", "StatefulPartitionedCall/model/transformer_encoder_regressor/transformer_batch_norm_encoder_block/sequential/transformer_batch_norm_encoder_layer/multi_head_attention/Mul"], "attr": {"equation": {"s": "YWVjZCxhYmNkLT5hY2Jl"}, "T": {"type": "DT_FLOAT"}, "N": {"i": "2"}}}, {"name": "StatefulPartitionedCall/model/transformer_encoder_regressor/transformer_batch_norm_encoder_block/sequential/transformer_batch_norm_encoder_layer/multi_head_attention/softmax/Softmax", "op": "Softmax", "input": ["StatefulPartitionedCall/model/transformer_encoder_regressor/transformer_batch_norm_encoder_block/sequential/transformer_batch_norm_encoder_layer/multi_head_attention/einsum/Einsum"], "attr": {"T": {"type": "DT_FLOAT"}}}, {"name": "StatefulPartitionedCall/model/transformer_encoder_regressor/transformer_batch_norm_encoder_block/sequential/transformer_batch_norm_encoder_layer/multi_head_attention/einsum_1/Einsum", "op": "Einsum", "input": ["StatefulPartitionedCall/model/transformer_encoder_regressor/transformer_batch_norm_encoder_block/sequential/transformer_batch_norm_encoder_layer/multi_head_attention/softmax/Softmax", "StatefulPartitionedCall/model/transformer_encoder_regressor/transformer_batch_norm_encoder_block/sequential/transformer_batch_norm_encoder_layer/multi_head_attention/value/add"], "attr": {"equation": {"s": "YWNiZSxhZWNkLT5hYmNk"}, "N": {"i": "2"}, "T": {"type": "DT_FLOAT"}}}, {"name": "StatefulPartitionedCall/model/transformer_encoder_regressor/transformer_batch_norm_encoder_block/sequential/transformer_batch_norm_encoder_layer/multi_head_attention/attention_output/einsum/Einsum", "op": "Einsum", "input": ["StatefulPartitionedCall/model/transformer_encoder_regressor/transformer_batch_norm_encoder_block/sequential/transformer_batch_norm_encoder_layer/multi_head_attention/einsum_1/Einsum", "StatefulPartitionedCall/model/transformer_encoder_regressor/transformer_batch_norm_encoder_block/sequential/transformer_batch_norm_encoder_layer/multi_head_attention/attention_output/einsum/Einsum/ReadVariableOp"], "attr": {"N": {"i": "2"}, "equation": {"s": "YWJjZCxjZGUtPmFiZQ=="}, "T": {"type": "DT_FLOAT"}}}, {"name": "StatefulPartitionedCall/model/transformer_encoder_regressor/transformer_batch_norm_encoder_block/sequential/transformer_batch_norm_encoder_layer/multi_head_attention/attention_output/add", "op": "AddV2", "input": ["StatefulPartitionedCall/model/transformer_encoder_regressor/transformer_batch_norm_encoder_block/sequential/transformer_batch_norm_encoder_layer/multi_head_attention/attention_output/einsum/Einsum", "StatefulPartitionedCall/model/transformer_encoder_regressor/transformer_batch_norm_encoder_block/sequential/transformer_batch_norm_encoder_layer/multi_head_attention/attention_output/add/ReadVariableOp"], "attr": {"T": {"type": "DT_FLOAT"}}}, {"name": "StatefulPartitionedCall/model/transformer_encoder_regressor/transformer_batch_norm_encoder_block/sequential/transformer_batch_norm_encoder_layer/batch_normalization/batchnorm/mul_1", "op": "Mul", "input": ["StatefulPartitionedCall/model/transformer_encoder_regressor/transformer_batch_norm_encoder_block/sequential/transformer_batch_norm_encoder_layer/multi_head_attention/attention_output/add", "StatefulPartitionedCall/model/transformer_encoder_regressor/transformer_batch_norm_encoder_block/sequential/transformer_batch_norm_encoder_layer/batch_normalization/batchnorm/mul"], "attr": {"T": {"type": "DT_FLOAT"}}}, {"name": "StatefulPartitionedCall/model/transformer_encoder_regressor/transformer_batch_norm_encoder_block/sequential/transformer_batch_norm_encoder_layer/ArithmeticOptimizer/AddOpsRewrite_Leaf_1_add", "op": "AddN", "input": ["StatefulPartitionedCall/model/transformer_encoder_regressor/transformer_batch_norm_encoder_block/sequential/transformer_batch_norm_encoder_layer/batch_normalization/batchnorm/mul_1", "StatefulPartitionedCall/model/transformer_encoder_regressor/transformer_batch_norm_encoder_block/sequential/transformer_batch_norm_encoder_layer/multi_head_attention/attention_output/add"], "attr": {"N": {"i": "2"}, "T": {"type": "DT_FLOAT"}, "_grappler_ArithmeticOptimizer_AddOpsRewriteStage": {"b": true}}}, {"name": "StatefulPartitionedCall/model/transformer_encoder_regressor/transformer_batch_norm_encoder_block/sequential/transformer_batch_norm_encoder_layer/ArithmeticOptimizer/AddOpsRewrite_add", "op": "AddV2", "input": ["StatefulPartitionedCall/model/transformer_encoder_regressor/transformer_batch_norm_encoder_block/sequential/transformer_batch_norm_encoder_layer/batch_normalization/batchnorm/sub", "StatefulPartitionedCall/model/transformer_encoder_regressor/transformer_batch_norm_encoder_block/sequential/transformer_batch_norm_encoder_layer/ArithmeticOptimizer/AddOpsRewrite_Leaf_1_add"], "attr": {"_grappler_ArithmeticOptimizer_AddOpsRewriteStage": {"b": true}, "T": {"type": "DT_FLOAT"}}}, {"name": "StatefulPartitionedCall/model/transformer_encoder_regressor/transformer_batch_norm_encoder_block/sequential/transformer_batch_norm_encoder_layer/dense_1/Tensordot/Shape", "op": "Shape", "input": ["StatefulPartitionedCall/model/transformer_encoder_regressor/transformer_batch_norm_encoder_block/sequential/transformer_batch_norm_encoder_layer/ArithmeticOptimizer/AddOpsRewrite_add"], "attr": {"out_type": {"type": "DT_INT32"}, "T": {"type": "DT_FLOAT"}}}, {"name": "StatefulPartitionedCall/model/transformer_encoder_regressor/transformer_batch_norm_encoder_block/sequential/transformer_batch_norm_encoder_layer/dense_1/Tensordot/GatherV2_1", "op": "GatherV2", "input": ["StatefulPartitionedCall/model/transformer_encoder_regressor/transformer_batch_norm_encoder_block/sequential/transformer_batch_norm_encoder_layer/dense_1/Tensordot/Shape", "StatefulPartitionedCall/model/transformer_encoder_regressor/transformer_batch_norm_encoder_block/sequential/transformer_batch_norm_encoder_layer/dense_1/Tensordot/axes", "StatefulPartitionedCall/model/transformer_encoder_regressor/transformer_batch_norm_encoder_block/sequential/transformer_batch_norm_encoder_layer/dense_1/Tensordot/GatherV2_1/axis"], "attr": {"batch_dims": {"i": "0"}, "Tindices": {"type": "DT_INT32"}, "Taxis": {"type": "DT_INT32"}, "Tparams": {"type": "DT_INT32"}}}, {"name": "StatefulPartitionedCall/model/transformer_encoder_regressor/transformer_batch_norm_encoder_block/sequential/transformer_batch_norm_encoder_layer/dense_1/Tensordot/GatherV2", "op": "GatherV2", "input": ["StatefulPartitionedCall/model/transformer_encoder_regressor/transformer_batch_norm_encoder_block/sequential/transformer_batch_norm_encoder_layer/dense_1/Tensordot/Shape", "StatefulPartitionedCall/model/transformer_encoder_regressor/transformer_batch_norm_encoder_block/sequential/transformer_batch_norm_encoder_layer/dense_1/Tensordot/free", "StatefulPartitionedCall/model/transformer_encoder_regressor/transformer_batch_norm_encoder_block/sequential/transformer_batch_norm_encoder_layer/dense_1/Tensordot/GatherV2/axis"], "attr": {"Taxis": {"type": "DT_INT32"}, "batch_dims": {"i": "0"}, "Tindices": {"type": "DT_INT32"}, "Tparams": {"type": "DT_INT32"}}}, {"name": "StatefulPartitionedCall/model/transformer_encoder_regressor/transformer_batch_norm_encoder_block/sequential/transformer_batch_norm_encoder_layer/dense_1/Tensordot/Prod_1", "op": "Prod", "input": ["StatefulPartitionedCall/model/transformer_encoder_regressor/transformer_batch_norm_encoder_block/sequential/transformer_batch_norm_encoder_layer/dense_1/Tensordot/GatherV2_1", "StatefulPartitionedCall/model/transformer_encoder_regressor/transformer_batch_norm_encoder_block/sequential/transformer_batch_norm_encoder_layer/dense_1/Tensordot/Const_1"], "attr": {"keep_dims": {"b": false}, "T": {"type": "DT_INT32"}, "Tidx": {"type": "DT_INT32"}}}, {"name": "StatefulPartitionedCall/model/transformer_encoder_regressor/transformer_batch_norm_encoder_block/sequential/transformer_batch_norm_encoder_layer/dense_1/Tensordot/Prod", "op": "Prod", "input": ["StatefulPartitionedCall/model/transformer_encoder_regressor/transformer_batch_norm_encoder_block/sequential/transformer_batch_norm_encoder_layer/dense_1/Tensordot/GatherV2", "StatefulPartitionedCall/model/transformer_encoder_regressor/transformer_batch_norm_encoder_block/sequential/transformer_batch_norm_encoder_layer/dense_1/Tensordot/Const"], "attr": {"T": {"type": "DT_INT32"}, "keep_dims": {"b": false}, "Tidx": {"type": "DT_INT32"}}}, {"name": "StatefulPartitionedCall/model/transformer_encoder_regressor/transformer_batch_norm_encoder_block/sequential/transformer_batch_norm_encoder_layer/dense_1/Tensordot/concat_1", "op": "ConcatV2", "input": ["StatefulPartitionedCall/model/transformer_encoder_regressor/transformer_batch_norm_encoder_block/sequential/transformer_batch_norm_encoder_layer/dense_1/Tensordot/GatherV2", "StatefulPartitionedCall/model/transformer_encoder_regressor/transformer_batch_norm_encoder_block/sequential/transformer_batch_norm_encoder_layer/dense_1/Tensordot/Const_2", "StatefulPartitionedCall/model/transformer_encoder_regressor/transformer_batch_norm_encoder_block/sequential/transformer_batch_norm_encoder_layer/dense_1/Tensordot/concat_1/axis"], "attr": {"Tidx": {"type": "DT_INT32"}, "N": {"i": "2"}, "T": {"type": "DT_INT32"}}}, {"name": "StatefulPartitionedCall/model/transformer_encoder_regressor/transformer_batch_norm_encoder_block/sequential/transformer_batch_norm_encoder_layer/dense_1/Tensordot/stack", "op": "Pack", "input": ["StatefulPartitionedCall/model/transformer_encoder_regressor/transformer_batch_norm_encoder_block/sequential/transformer_batch_norm_encoder_layer/dense_1/Tensordot/Prod", "StatefulPartitionedCall/model/transformer_encoder_regressor/transformer_batch_norm_encoder_block/sequential/transformer_batch_norm_encoder_layer/dense_1/Tensordot/Prod_1"], "attr": {"T": {"type": "DT_INT32"}, "N": {"i": "2"}, "axis": {"i": "0"}}}, {"name": "StatefulPartitionedCall/model/transformer_encoder_regressor/transformer_batch_norm_encoder_block/sequential/transformer_batch_norm_encoder_layer/dense_1/Tensordot/Reshape", "op": "Reshape", "input": ["StatefulPartitionedCall/model/transformer_encoder_regressor/transformer_batch_norm_encoder_block/sequential/transformer_batch_norm_encoder_layer/ArithmeticOptimizer/AddOpsRewrite_add", "StatefulPartitionedCall/model/transformer_encoder_regressor/transformer_batch_norm_encoder_block/sequential/transformer_batch_norm_encoder_layer/dense_1/Tensordot/stack"], "attr": {"T": {"type": "DT_FLOAT"}, "Tshape": {"type": "DT_INT32"}}}, {"name": "StatefulPartitionedCall/model/transformer_encoder_regressor/transformer_batch_norm_encoder_block/sequential/transformer_batch_norm_encoder_layer/dense_1/Tensordot/MatMul", "op": "MatMul", "input": ["StatefulPartitionedCall/model/transformer_encoder_regressor/transformer_batch_norm_encoder_block/sequential/transformer_batch_norm_encoder_layer/dense_1/Tensordot/Reshape", "StatefulPartitionedCall/model/transformer_encoder_regressor/transformer_batch_norm_encoder_block/sequential/transformer_batch_norm_encoder_layer/dense_1/Tensordot/ReadVariableOp"], "device": "/device:CPU:0", "attr": {"T": {"type": "DT_FLOAT"}, "transpose_b": {"b": false}, "transpose_a": {"b": false}}}, {"name": "StatefulPartitionedCall/model/transformer_encoder_regressor/transformer_batch_norm_encoder_block/sequential/transformer_batch_norm_encoder_layer/dense_1/Tensordot", "op": "Reshape", "input": ["StatefulPartitionedCall/model/transformer_encoder_regressor/transformer_batch_norm_encoder_block/sequential/transformer_batch_norm_encoder_layer/dense_1/Tensordot/MatMul", "StatefulPartitionedCall/model/transformer_encoder_regressor/transformer_batch_norm_encoder_block/sequential/transformer_batch_norm_encoder_layer/dense_1/Tensordot/concat_1"], "attr": {"T": {"type": "DT_FLOAT"}, "Tshape": {"type": "DT_INT32"}}}, {"name": "StatefulPartitionedCall/model/transformer_encoder_regressor/transformer_batch_norm_encoder_block/sequential/transformer_batch_norm_encoder_layer/dense_1/BiasAdd", "op": "BiasAdd", "input": ["StatefulPartitionedCall/model/transformer_encoder_regressor/transformer_batch_norm_encoder_block/sequential/transformer_batch_norm_encoder_layer/dense_1/Tensordot", "StatefulPartitionedCall/model/transformer_encoder_regressor/transformer_batch_norm_encoder_block/sequential/transformer_batch_norm_encoder_layer/dense_1/BiasAdd/ReadVariableOp"], "attr": {"data_format": {"s": "TkhXQw=="}, "T": {"type": "DT_FLOAT"}}}, {"name": "StatefulPartitionedCall/model/transformer_encoder_regressor/transformer_batch_norm_encoder_block/sequential/transformer_batch_norm_encoder_layer/dense_1/Sigmoid", "op": "Sigmoid", "input": ["StatefulPartitionedCall/model/transformer_encoder_regressor/transformer_batch_norm_encoder_block/sequential/transformer_batch_norm_encoder_layer/dense_1/BiasAdd"], "attr": {"T": {"type": "DT_FLOAT"}}}, {"name": "StatefulPartitionedCall/model/transformer_encoder_regressor/transformer_batch_norm_encoder_block/sequential/transformer_batch_norm_encoder_layer/dense_2/Tensordot/Shape", "op": "Shape", "input": ["StatefulPartitionedCall/model/transformer_encoder_regressor/transformer_batch_norm_encoder_block/sequential/transformer_batch_norm_encoder_layer/dense_1/Sigmoid"], "attr": {"T": {"type": "DT_FLOAT"}, "out_type": {"type": "DT_INT32"}}}, {"name": "StatefulPartitionedCall/model/transformer_encoder_regressor/transformer_batch_norm_encoder_block/sequential/transformer_batch_norm_encoder_layer/dense_2/Tensordot/GatherV2_1", "op": "GatherV2", "input": ["StatefulPartitionedCall/model/transformer_encoder_regressor/transformer_batch_norm_encoder_block/sequential/transformer_batch_norm_encoder_layer/dense_2/Tensordot/Shape", "StatefulPartitionedCall/model/transformer_encoder_regressor/transformer_batch_norm_encoder_block/sequential/transformer_batch_norm_encoder_layer/dense_2/Tensordot/axes", "StatefulPartitionedCall/model/transformer_encoder_regressor/transformer_batch_norm_encoder_block/sequential/transformer_batch_norm_encoder_layer/dense_2/Tensordot/GatherV2_1/axis"], "attr": {"Tparams": {"type": "DT_INT32"}, "Taxis": {"type": "DT_INT32"}, "batch_dims": {"i": "0"}, "Tindices": {"type": "DT_INT32"}}}, {"name": "StatefulPartitionedCall/model/transformer_encoder_regressor/transformer_batch_norm_encoder_block/sequential/transformer_batch_norm_encoder_layer/dense_2/Tensordot/GatherV2", "op": "GatherV2", "input": ["StatefulPartitionedCall/model/transformer_encoder_regressor/transformer_batch_norm_encoder_block/sequential/transformer_batch_norm_encoder_layer/dense_2/Tensordot/Shape", "StatefulPartitionedCall/model/transformer_encoder_regressor/transformer_batch_norm_encoder_block/sequential/transformer_batch_norm_encoder_layer/dense_2/Tensordot/free", "StatefulPartitionedCall/model/transformer_encoder_regressor/transformer_batch_norm_encoder_block/sequential/transformer_batch_norm_encoder_layer/dense_2/Tensordot/GatherV2/axis"], "attr": {"batch_dims": {"i": "0"}, "Tparams": {"type": "DT_INT32"}, "Taxis": {"type": "DT_INT32"}, "Tindices": {"type": "DT_INT32"}}}, {"name": "StatefulPartitionedCall/model/transformer_encoder_regressor/transformer_batch_norm_encoder_block/sequential/transformer_batch_norm_encoder_layer/dense_2/Tensordot/Prod_1", "op": "Prod", "input": ["StatefulPartitionedCall/model/transformer_encoder_regressor/transformer_batch_norm_encoder_block/sequential/transformer_batch_norm_encoder_layer/dense_2/Tensordot/GatherV2_1", "StatefulPartitionedCall/model/transformer_encoder_regressor/transformer_batch_norm_encoder_block/sequential/transformer_batch_norm_encoder_layer/dense_2/Tensordot/Const_1"], "attr": {"T": {"type": "DT_INT32"}, "Tidx": {"type": "DT_INT32"}, "keep_dims": {"b": false}}}, {"name": "StatefulPartitionedCall/model/transformer_encoder_regressor/transformer_batch_norm_encoder_block/sequential/transformer_batch_norm_encoder_layer/dense_2/Tensordot/Prod", "op": "Prod", "input": ["StatefulPartitionedCall/model/transformer_encoder_regressor/transformer_batch_norm_encoder_block/sequential/transformer_batch_norm_encoder_layer/dense_2/Tensordot/GatherV2", "StatefulPartitionedCall/model/transformer_encoder_regressor/transformer_batch_norm_encoder_block/sequential/transformer_batch_norm_encoder_layer/dense_2/Tensordot/Const"], "attr": {"keep_dims": {"b": false}, "T": {"type": "DT_INT32"}, "Tidx": {"type": "DT_INT32"}}}, {"name": "StatefulPartitionedCall/model/transformer_encoder_regressor/transformer_batch_norm_encoder_block/sequential/transformer_batch_norm_encoder_layer/dense_2/Tensordot/concat_1", "op": "ConcatV2", "input": ["StatefulPartitionedCall/model/transformer_encoder_regressor/transformer_batch_norm_encoder_block/sequential/transformer_batch_norm_encoder_layer/dense_2/Tensordot/GatherV2", "StatefulPartitionedCall/model/transformer_encoder_regressor/transformer_batch_norm_encoder_block/sequential/transformer_batch_norm_encoder_layer/dense_2/Tensordot/Const_2", "StatefulPartitionedCall/model/transformer_encoder_regressor/transformer_batch_norm_encoder_block/sequential/transformer_batch_norm_encoder_layer/dense_2/Tensordot/concat_1/axis"], "attr": {"N": {"i": "2"}, "Tidx": {"type": "DT_INT32"}, "T": {"type": "DT_INT32"}}}, {"name": "StatefulPartitionedCall/model/transformer_encoder_regressor/transformer_batch_norm_encoder_block/sequential/transformer_batch_norm_encoder_layer/dense_2/Tensordot/stack", "op": "Pack", "input": ["StatefulPartitionedCall/model/transformer_encoder_regressor/transformer_batch_norm_encoder_block/sequential/transformer_batch_norm_encoder_layer/dense_2/Tensordot/Prod", "StatefulPartitionedCall/model/transformer_encoder_regressor/transformer_batch_norm_encoder_block/sequential/transformer_batch_norm_encoder_layer/dense_2/Tensordot/Prod_1"], "attr": {"T": {"type": "DT_INT32"}, "N": {"i": "2"}, "axis": {"i": "0"}}}, {"name": "StatefulPartitionedCall/model/transformer_encoder_regressor/transformer_batch_norm_encoder_block/sequential/transformer_batch_norm_encoder_layer/dense_2/Tensordot/Reshape", "op": "Reshape", "input": ["StatefulPartitionedCall/model/transformer_encoder_regressor/transformer_batch_norm_encoder_block/sequential/transformer_batch_norm_encoder_layer/dense_1/Sigmoid", "StatefulPartitionedCall/model/transformer_encoder_regressor/transformer_batch_norm_encoder_block/sequential/transformer_batch_norm_encoder_layer/dense_2/Tensordot/stack"], "attr": {"T": {"type": "DT_FLOAT"}, "Tshape": {"type": "DT_INT32"}}}, {"name": "StatefulPartitionedCall/model/transformer_encoder_regressor/transformer_batch_norm_encoder_block/sequential/transformer_batch_norm_encoder_layer/dense_2/Tensordot/MatMul", "op": "MatMul", "input": ["StatefulPartitionedCall/model/transformer_encoder_regressor/transformer_batch_norm_encoder_block/sequential/transformer_batch_norm_encoder_layer/dense_2/Tensordot/Reshape", "StatefulPartitionedCall/model/transformer_encoder_regressor/transformer_batch_norm_encoder_block/sequential/transformer_batch_norm_encoder_layer/dense_2/Tensordot/ReadVariableOp"], "device": "/device:CPU:0", "attr": {"transpose_b": {"b": false}, "transpose_a": {"b": false}, "T": {"type": "DT_FLOAT"}}}, {"name": "StatefulPartitionedCall/model/transformer_encoder_regressor/transformer_batch_norm_encoder_block/sequential/transformer_batch_norm_encoder_layer/dense_2/Tensordot", "op": "Reshape", "input": ["StatefulPartitionedCall/model/transformer_encoder_regressor/transformer_batch_norm_encoder_block/sequential/transformer_batch_norm_encoder_layer/dense_2/Tensordot/MatMul", "StatefulPartitionedCall/model/transformer_encoder_regressor/transformer_batch_norm_encoder_block/sequential/transformer_batch_norm_encoder_layer/dense_2/Tensordot/concat_1"], "attr": {"T": {"type": "DT_FLOAT"}, "Tshape": {"type": "DT_INT32"}}}, {"name": "StatefulPartitionedCall/model/transformer_encoder_regressor/transformer_batch_norm_encoder_block/sequential/transformer_ba…
12/BiasAdd/ReadVariableOp", "shape": [176], "dtype": "float32"}, {"name": "StatefulPartitionedCall/model/transformer_encoder_regressor/transformer_batch_norm_encoder_block/sequential/transformer_batch_norm_encoder_layer_5/batch_normalization_11/batchnorm/mul", "shape": [176], "dtype": "float32"}, {"name": "StatefulPartitionedCall/model/transformer_encoder_regressor/transformer_batch_norm_encoder_block/sequential/transformer_batch_norm_encoder_layer_5/batch_normalization_11/batchnorm/sub", "shape": [176], "dtype": "float32"}, {"name": "StatefulPartitionedCall/model/transformer_encoder_regressor/transformer_batch_norm_encoder_block/sequential/transformer_batch_norm_encoder_layer_5/batch_normalization_10/batchnorm/sub", "shape": [176], "dtype": "float32"}, {"name": "StatefulPartitionedCall/model/transformer_encoder_regressor/transformer_batch_norm_encoder_block/sequential/transformer_batch_norm_encoder_layer_5/batch_normalization_10/batchnorm/mul", "shape": [176], "dtype": "float32"}, {"name": "StatefulPartitionedCall/model/transformer_encoder_regressor/transformer_batch_norm_encoder_block/sequential/transformer_batch_norm_encoder_layer_5/multi_head_attention_5/key/einsum/Einsum/ReadVariableOp", "shape": [176, 4, 176], "dtype": "float32"}, {"name": "StatefulPartitionedCall/model/transformer_encoder_regressor/transformer_batch_norm_encoder_block/sequential/transformer_batch_norm_encoder_layer_5/multi_head_attention_5/key/add/ReadVariableOp", "shape": [4, 176], "dtype": "float32"}, {"name": "StatefulPartitionedCall/model/transformer_encoder_regressor/transformer_batch_norm_encoder_block/sequential/transformer_batch_norm_encoder_layer_5/multi_head_attention_5/query/einsum/Einsum/ReadVariableOp", "shape": [176, 4, 176], "dtype": "float32"}, {"name": "StatefulPartitionedCall/model/transformer_encoder_regressor/transformer_batch_norm_encoder_block/sequential/transformer_batch_norm_encoder_layer_5/multi_head_attention_5/query/add/ReadVariableOp", "shape": [4, 176], "dtype": "float32"}, {"name": "StatefulPartitionedCall/model/transformer_encoder_regressor/transformer_batch_norm_encoder_block/sequential/transformer_batch_norm_encoder_layer_5/multi_head_attention_5/Mul/y", "shape": [], "dtype": "float32"}, {"name": "StatefulPartitionedCall/model/transformer_encoder_regressor/transformer_batch_norm_encoder_block/sequential/transformer_batch_norm_encoder_layer_4/dense_10/Tensordot/Const", "shape": [1], "dtype": "int32"}, {"name": "StatefulPartitionedCall/model/transformer_encoder_regressor/transformer_batch_norm_encoder_block/sequential/transformer_batch_norm_encoder_layer_4/dense_10/Tensordot/axes", "shape": [1], "dtype": "int32"}, {"name": "StatefulPartitionedCall/model/transformer_encoder_regressor/transformer_batch_norm_encoder_block/sequential/transformer_batch_norm_encoder_layer_4/dense_10/Tensordot/GatherV2_1/axis", "shape": [], "dtype": "int32"}, {"name": "StatefulPartitionedCall/model/transformer_encoder_regressor/transformer_batch_norm_encoder_block/sequential/transformer_batch_norm_encoder_layer_4/dense_10/Tensordot/Const_1", "shape": [1], "dtype": "int32"}, {"name": "StatefulPartitionedCall/model/transformer_encoder_regressor/transformer_batch_norm_encoder_block/sequential/transformer_batch_norm_encoder_layer_4/dense_10/Tensordot/ReadVariableOp", "shape": [229, 176], "dtype": "float32"}, {"name": "StatefulPartitionedCall/model/transformer_encoder_regressor/transformer_batch_norm_encoder_block/sequential/transformer_batch_norm_encoder_layer_4/dense_9/Tensordot/Const", "shape": [1], "dtype": "int32"}, {"name": "StatefulPartitionedCall/model/transformer_encoder_regressor/transformer_batch_norm_encoder_block/sequential/transformer_batch_norm_encoder_layer_4/dense_9/Tensordot/axes", "shape": [1], "dtype": "int32"}, {"name": "StatefulPartitionedCall/model/transformer_encoder_regressor/transformer_batch_norm_encoder_block/sequential/transformer_batch_norm_encoder_layer_4/dense_9/Tensordot/GatherV2_1/axis", "shape": [], "dtype": "int32"}, {"name": "StatefulPartitionedCall/model/transformer_encoder_regressor/transformer_batch_norm_encoder_block/sequential/transformer_batch_norm_encoder_layer_4/dense_9/Tensordot/Const_1", "shape": [1], "dtype": "int32"}, {"name": "StatefulPartitionedCall/model/transformer_encoder_regressor/transformer_batch_norm_encoder_block/sequential/transformer_batch_norm_encoder_layer_4/dense_9/Tensordot/ReadVariableOp", "shape": [176, 229], "dtype": "float32"}, {"name": "StatefulPartitionedCall/model/transformer_encoder_regressor/transformer_batch_norm_encoder_block/sequential/transformer_batch_norm_encoder_layer_4/dense_9/Tensordot/free", "shape": [2], "dtype": "int32"}, {"name": "StatefulPartitionedCall/model/transformer_encoder_regressor/transformer_batch_norm_encoder_block/sequential/transformer_batch_norm_encoder_layer_4/dense_9/Tensordot/GatherV2/axis", "shape": [], "dtype": "int32"}, {"name": "StatefulPartitionedCall/model/transformer_encoder_regressor/transformer_batch_norm_encoder_block/sequential/transformer_batch_norm_encoder_layer_4/dense_9/Tensordot/Const_2", "shape": [1], "dtype": "int32"}, {"name": "StatefulPartitionedCall/model/transformer_encoder_regressor/transformer_batch_norm_encoder_block/sequential/transformer_batch_norm_encoder_layer_4/dense_9/Tensordot/concat_1/axis", "shape": [], "dtype": "int32"}, {"name": "StatefulPartitionedCall/model/transformer_encoder_regressor/transformer_batch_norm_encoder_block/sequential/transformer_batch_norm_encoder_layer_4/dense_9/BiasAdd/ReadVariableOp", "shape": [229], "dtype": "float32"}, {"name": "StatefulPartitionedCall/model/transformer_encoder_regressor/transformer_batch_norm_encoder_block/sequential/transformer_batch_norm_encoder_layer_4/dense_10/Tensordot/free", "shape": [2], "dtype": "int32"}, {"name": "StatefulPartitionedCall/model/transformer_encoder_regressor/transformer_batch_norm_encoder_block/sequential/transformer_batch_norm_encoder_layer_4/dense_10/Tensordot/GatherV2/axis", "shape": [], "dtype": "int32"}, {"name": "StatefulPartitionedCall/model/transformer_encoder_regressor/transformer_batch_norm_encoder_block/sequential/transformer_batch_norm_encoder_layer_4/dense_10/Tensordot/Const_2", "shape": [1], "dtype": "int32"}, {"name": "StatefulPartitionedCall/model/transformer_encoder_regressor/transformer_batch_norm_encoder_block/sequential/transformer_batch_norm_encoder_layer_4/dense_10/Tensordot/concat_1/axis", "shape": [], "dtype": "int32"}, {"name": "StatefulPartitionedCall/model/transformer_encoder_regressor/transformer_batch_norm_encoder_block/sequential/transformer_batch_norm_encoder_layer_4/dense_10/BiasAdd/ReadVariableOp", "shape": [176], "dtype": "float32"}, {"name": "StatefulPartitionedCall/model/transformer_encoder_regressor/transformer_batch_norm_encoder_block/sequential/transformer_batch_norm_encoder_layer_4/batch_normalization_9/batchnorm/mul", "shape": [176], "dtype": "float32"}, {"name": "StatefulPartitionedCall/model/transformer_encoder_regressor/transformer_batch_norm_encoder_block/sequential/transformer_batch_norm_encoder_layer_4/batch_normalization_9/batchnorm/sub", "shape": [176], "dtype": "float32"}, {"name": "StatefulPartitionedCall/model/transformer_encoder_regressor/transformer_batch_norm_encoder_block/sequential/transformer_batch_norm_encoder_layer_4/batch_normalization_8/batchnorm/sub", "shape": [176], "dtype": "float32"}, {"name": "StatefulPartitionedCall/model/transformer_encoder_regressor/transformer_batch_norm_encoder_block/sequential/transformer_batch_norm_encoder_layer_4/batch_normalization_8/batchnorm/mul", "shape": [176], "dtype": "float32"}, {"name": "StatefulPartitionedCall/model/transformer_encoder_regressor/transformer_batch_norm_encoder_block/sequential/transformer_batch_norm_encoder_layer_4/multi_head_attention_4/key/einsum/Einsum/ReadVariableOp", "shape": [176, 4, 176], "dtype": "float32"}, {"name": "StatefulPartitionedCall/model/transformer_encoder_regressor/transformer_batch_norm_encoder_block/sequential/transformer_batch_norm_encoder_layer_4/multi_head_attention_4/key/add/ReadVariableOp", "shape": [4, 176], "dtype": "float32"}, {"name": "StatefulPartitionedCall/model/transformer_encoder_regressor/transformer_batch_norm_encoder_block/sequential/transformer_batch_norm_encoder_layer_4/multi_head_attention_4/query/einsum/Einsum/ReadVariableOp", "shape": [176, 4, 176], "dtype": "float32"}, {"name": "StatefulPartitionedCall/model/transformer_encoder_regressor/transformer_batch_norm_encoder_block/sequential/transformer_batch_norm_encoder_layer_4/multi_head_attention_4/query/add/ReadVariableOp", "shape": [4, 176], "dtype": "float32"}, {"name": "StatefulPartitionedCall/model/transformer_encoder_regressor/transformer_batch_norm_encoder_block/sequential/transformer_batch_norm_encoder_layer_4/multi_head_attention_4/Mul/y", "shape": [], "dtype": "float32"}, {"name": "StatefulPartitionedCall/model/transformer_encoder_regressor/transformer_batch_norm_encoder_block/sequential/transformer_batch_norm_encoder_layer_3/dense_8/Tensordot/Const", "shape": [1], "dtype": "int32"}, {"name": "StatefulPartitionedCall/model/transformer_encoder_regressor/transformer_batch_norm_encoder_block/sequential/transformer_batch_norm_encoder_layer_3/dense_8/Tensordot/axes", "shape": [1], "dtype": "int32"}, {"name": "StatefulPartitionedCall/model/transformer_encoder_regressor/transformer_batch_norm_encoder_block/sequential/transformer_batch_norm_encoder_layer_3/dense_8/Tensordot/GatherV2_1/axis", "shape": [], "dtype": "int32"}, {"name": "StatefulPartitionedCall/model/transformer_encoder_regressor/transformer_batch_norm_encoder_block/sequential/transformer_batch_norm_encoder_layer_3/dense_8/Tensordot/Const_1", "shape": [1], "dtype": "int32"}, {"name": "StatefulPartitionedCall/model/transformer_encoder_regressor/transformer_batch_norm_encoder_block/sequential/transformer_batch_norm_encoder_layer_3/dense_8/Tensordot/ReadVariableOp", "shape": [229, 176], "dtype": "float32"}, {"name": "StatefulPartitionedCall/model/transformer_encoder_regressor/transformer_batch_norm_encoder_block/sequential/transformer_batch_norm_encoder_layer_3/dense_7/Tensordot/Const", "shape": [1], "dtype": "int32"}, {"name": "StatefulPartitionedCall/model/transformer_encoder_regressor/transformer_batch_norm_encoder_block/sequential/transformer_batch_norm_encoder_layer_3/dense_7/Tensordot/axes", "shape": [1], "dtype": "int32"}, {"name": "StatefulPartitionedCall/model/transformer_encoder_regressor/transformer_batch_norm_encoder_block/sequential/transformer_batch_norm_encoder_layer_3/dense_7/Tensordot/GatherV2_1/axis", "shape": [], "dtype": "int32"}, {"name": "StatefulPartitionedCall/model/transformer_encoder_regressor/transformer_batch_norm_encoder_block/sequential/transformer_batch_norm_encoder_layer_3/dense_7/Tensordot/Const_1", "shape": [1], "dtype": "int32"}, {"name": "StatefulPartitionedCall/model/transformer_encoder_regressor/transformer_batch_norm_encoder_block/sequential/transformer_batch_norm_encoder_layer_3/dense_7/Tensordot/ReadVariableOp", "shape": [176, 229], "dtype": "float32"}, {"name": "StatefulPartitionedCall/model/transformer_encoder_regressor/transformer_batch_norm_encoder_block/sequential/transformer_batch_norm_encoder_layer_3/dense_7/Tensordot/free", "shape": [2], "dtype": "int32"}, {"name": "StatefulPartitionedCall/model/transformer_encoder_regressor/transformer_batch_norm_encoder_block/sequential/transformer_batch_norm_encoder_layer_3/dense_7/Tensordot/GatherV2/axis", "shape": [], "dtype": "int32"}, {"name": "StatefulPartitionedCall/model/transformer_encoder_regressor/transformer_batch_norm_encoder_block/sequential/transformer_batch_norm_encoder_layer_3/dense_7/Tensordot/Const_2", "shape": [1], "dtype": "int32"}, {"name": "StatefulPartitionedCall/model/transformer_encoder_regressor/transformer_batch_norm_encoder_block/sequential/transformer_batch_norm_encoder_layer_3/dense_7/Tensordot/concat_1/axis", "shape": [], "dtype": "int32"}, {"name": "StatefulPartitionedCall/model/transformer_encoder_regressor/transformer_batch_norm_encoder_block/sequential/transformer_batch_norm_encoder_layer_3/dense_7/BiasAdd/ReadVariableOp", "shape": [229], "dtype": "float32"}, {"name": "StatefulPartitionedCall/model/transformer_encoder_regressor/transformer_batch_norm_encoder_block/sequential/transformer_batch_norm_encoder_layer_3/dense_8/Tensordot/free", "shape": [2], "dtype": "int32"}, {"name": "StatefulPartitionedCall/model/transformer_encoder_regressor/transformer_batch_norm_encoder_block/sequential/transformer_batch_norm_encoder_layer_3/dense_8/Tensordot/GatherV2/axis", "shape": [], "dtype": "int32"}, {"name": "StatefulPartitionedCall/model/transformer_encoder_regressor/transformer_batch_norm_encoder_block/sequential/transformer_batch_norm_encoder_layer_3/dense_8/Tensordot/Const_2", "shape": [1], "dtype": "int32"}, {"name": "StatefulPartitionedCall/model/transformer_encoder_regressor/transformer_batch_norm_encoder_block/sequential/transformer_batch_norm_encoder_layer_3/dense_8/Tensordot/concat_1/axis", "shape": [], "dtype": "int32"}, {"name": "StatefulPartitionedCall/model/transformer_encoder_regressor/transformer_batch_norm_encoder_block/sequential/transformer_batch_norm_encoder_layer_3/dense_8/BiasAdd/ReadVariableOp", "shape": [176], "dtype": "float32"}, {"name": "StatefulPartitionedCall/model/transformer_encoder_regressor/transformer_batch_norm_encoder_block/sequential/transformer_batch_norm_encoder_layer_3/batch_normalization_7/batchnorm/mul", "shape": [176], "dtype": "float32"}, {"name": "StatefulPartitionedCall/model/transformer_encoder_regressor/transformer_batch_norm_encoder_block/sequential/transformer_batch_norm_encoder_layer_3/batch_normalization_7/batchnorm/sub", "shape": [176], "dtype": "float32"}, {"name": "StatefulPartitionedCall/model/transformer_encoder_regressor/transformer_batch_norm_encoder_block/sequential/transformer_batch_norm_encoder_layer_3/batch_normalization_6/batchnorm/sub", "shape": [176], "dtype": "float32"}, {"name": "StatefulPartitionedCall/model/transformer_encoder_regressor/transformer_batch_norm_encoder_block/sequential/transformer_batch_norm_encoder_layer_3/batch_normalization_6/batchnorm/mul", "shape": [176], "dtype": "float32"}, {"name": "StatefulPartitionedCall/model/transformer_encoder_regressor/transformer_batch_norm_encoder_block/sequential/transformer_batch_norm_encoder_layer_3/multi_head_attention_3/key/einsum/Einsum/ReadVariableOp", "shape": [176, 4, 176], "dtype": "float32"}, {"name": "StatefulPartitionedCall/model/transformer_encoder_regressor/transformer_batch_norm_encoder_block/sequential/transformer_batch_norm_encoder_layer_3/multi_head_attention_3/key/add/ReadVariableOp", "shape": [4, 176], "dtype": "float32"}, {"name": "StatefulPartitionedCall/model/transformer_encoder_regressor/transformer_batch_norm_encoder_block/sequential/transformer_batch_norm_encoder_layer_3/multi_head_attention_3/query/einsum/Einsum/ReadVariableOp", "shape": [176, 4, 176], "dtype": "float32"}, {"name": "StatefulPartitionedCall/model/transformer_encoder_regressor/transformer_batch_norm_encoder_block/sequential/transformer_batch_norm_encoder_layer_3/multi_head_attention_3/query/add/ReadVariableOp", "shape": [4, 176], "dtype": "float32"}, {"name": "StatefulPartitionedCall/model/transformer_encoder_regressor/transformer_batch_norm_encoder_block/sequential/transformer_batch_norm_encoder_layer_3/multi_head_attention_3/Mul/y", "shape": [], "dtype": "float32"}, {"name": "StatefulPartitionedCall/model/transformer_encoder_regressor/transformer_batch_norm_encoder_block/sequential/transformer_batch_norm_encoder_layer_2/dense_6/Tensordot/Const", "shape": [1], "dtype": "int32"}, {"name": "StatefulPartitionedCall/model/transformer_encoder_regressor/transformer_batch_norm_encoder_block/sequential/transformer_batch_norm_encoder_layer_2/dense_6/Tensordot/axes", "shape": [1], "dtype": "int32"}, {"name": "StatefulPartitionedCall/model/transformer_encoder_regressor/transformer_batch_norm_encoder_block/sequential/transformer_batch_norm_encoder_layer_2/dense_6/Tensordot/GatherV2_1/axis", "shape": [], "dtype": "int32"}, {"name": "StatefulPartitionedCall/model/transformer_encoder_regressor/transformer_batch_norm_encoder_block/sequential/transformer_batch_norm_encoder_layer_2/dense_6/Tensordot/Const_1", "shape": [1], "dtype": "int32"}, {"name": "StatefulPartitionedCall/model/transformer_encoder_regressor/transformer_batch_norm_encoder_block/sequential/transformer_batch_norm_encoder_layer_2/dense_6/Tensordot/ReadVariableOp", "shape": [229, 176], "dtype": "float32"}, {"name": "StatefulPartitionedCall/model/transformer_encoder_regressor/transformer_batch_norm_encoder_block/sequential/transformer_batch_norm_encoder_layer_2/dense_5/Tensordot/Const", "shape": [1], "dtype": "int32"}, {"name": "StatefulPartitionedCall/model/transformer_encoder_regressor/transformer_batch_norm_encoder_block/sequential/transformer_batch_norm_encoder_layer_2/dense_5/Tensordot/axes", "shape": [1], "dtype": "int32"}, {"name": "StatefulPartitionedCall/model/transformer_encoder_regressor/transformer_batch_norm_encoder_block/sequential/transformer_batch_norm_encoder_layer_2/dense_5/Tensordot/GatherV2_1/axis", "shape": [], "dtype": "int32"}, {"name": "StatefulPartitionedCall/model/transformer_encoder_regressor/transformer_batch_norm_encoder_block/sequential/transformer_batch_norm_encoder_layer_2/dense_5/Tensordot/Const_1", "shape": [1], "dtype": "int32"}, {"name": "StatefulPartitionedCall/model/transformer_encoder_regressor/transformer_batch_norm_encoder_block/sequential/transformer_batch_norm_encoder_layer_2/dense_5/Tensordot/ReadVariableOp", "shape": [176, 229], "dtype": "float32"}, {"name": "StatefulPartitionedCall/model/transformer_encoder_regressor/transformer_batch_norm_encoder_block/sequential/transformer_batch_norm_encoder_layer_2/dense_5/Tensordot/free", "shape": [2], "dtype": "int32"}, {"name": "StatefulPartitionedCall/model/transformer_encoder_regressor/transformer_batch_norm_encoder_block/sequential/transformer_batch_norm_encoder_layer_2/dense_5/Tensordot/GatherV2/axis", "shape": [], "dtype": "int32"}, {"name": "StatefulPartitionedCall/model/transformer_encoder_regressor/transformer_batch_norm_encoder_block/sequential/transformer_batch_norm_encoder_layer_2/dense_5/Tensordot/Const_2", "shape": [1], "dtype": "int32"}, {"name": "StatefulPartitionedCall/model/transformer_encoder_regressor/transformer_batch_norm_encoder_block/sequential/transformer_batch_norm_encoder_layer_2/dense_5/Tensordot/concat_1/axis", "shape": [], "dtype": "int32"}, {"name": "StatefulPartitionedCall/model/transformer_encoder_regressor/transformer_batch_norm_encoder_block/sequential/transformer_batch_norm_encoder_layer_2/dense_5/BiasAdd/ReadVariableOp", "shape": [229], "dtype": "float32"}, {"name": "StatefulPartitionedCall/model/transformer_encoder_regressor/transformer_batch_norm_encoder_block/sequential/transformer_batch_norm_encoder_layer_2/dense_6/Tensordot/free", "shape": [2], "dtype": "int32"}, {"name": "StatefulPartitionedCall/model/transformer_encoder_regressor/transformer_batch_norm_encoder_block/sequential/transformer_batch_norm_encoder_layer_2/dense_6/Tensordot/GatherV2/axis", "shape": [], "dtype": "int32"}, {"name": "StatefulPartitionedCall/model/transformer_encoder_regressor/transformer_batch_norm_encoder_block/sequential/transformer_batch_norm_encoder_layer_2/dense_6/Tensordot/Const_2", "shape": [1], "dtype": "int32"}, {"name": "StatefulPartitionedCall/model/transformer_encoder_regressor/transformer_batch_norm_encoder_block/sequential/transformer_batch_norm_encoder_layer_2/dense_6/Tensordot/concat_1/axis", "shape": [], "dtype": "int32"}, {"name": "StatefulPartitionedCall/model/transformer_encoder_regressor/transformer_batch_norm_encoder_block/sequential/transformer_batch_norm_encoder_layer_2/dense_6/BiasAdd/ReadVariableOp", "shape": [176], "dtype": "float32"}, {"name": "StatefulPartitionedCall/model/transformer_encoder_regressor/transformer_batch_norm_encoder_block/sequential/transformer_batch_norm_encoder_layer_2/batch_normalization_5/batchnorm/mul", "shape": [176], "dtype": "float32"}, {"name": "StatefulPartitionedCall/model/transformer_encoder_regressor/transformer_batch_norm_encoder_block/sequential/transformer_batch_norm_encoder_layer_2/batch_normalization_5/batchnorm/sub", "shape": [176], "dtype": "float32"}, {"name": "StatefulPartitionedCall/model/transformer_encoder_regressor/transformer_batch_norm_encoder_block/sequential/transformer_batch_norm_encoder_layer_2/batch_normalization_4/batchnorm/sub", "shape": [176], "dtype": "float32"}, {"name": "StatefulPartitionedCall/model/transformer_encoder_regressor/transformer_batch_norm_encoder_block/sequential/transformer_batch_norm_encoder_layer_2/batch_normalization_4/batchnorm/mul", "shape": [176], "dtype": "float32"}, {"name": "StatefulPartitionedCall/model/transformer_encoder_regressor/transformer_batch_norm_encoder_block/sequential/transformer_batch_norm_encoder_layer_2/multi_head_attention_2/key/einsum/Einsum/ReadVariableOp", "shape": [176, 4, 176], "dtype": "float32"}, {"name": "StatefulPartitionedCall/model/transformer_encoder_regressor/transformer_batch_norm_encoder_block/sequential/transformer_batch_norm_encoder_layer_2/multi_head_attention_2/key/add/ReadVariableOp", "shape": [4, 176], "dtype": "float32"}, {"name": "StatefulPartitionedCall/model/transformer_encoder_regressor/transformer_batch_norm_encoder_block/sequential/transformer_batch_norm_encoder_layer_2/multi_head_attention_2/query/einsum/Einsum/ReadVariableOp", "shape": [176, 4, 176], "dtype": "float32"}, {"name": "StatefulPartitionedCall/model/transformer_encoder_regressor/transformer_batch_norm_encoder_block/sequential/transformer_batch_norm_encoder_layer_2/multi_head_attention_2/query/add/ReadVariableOp", "shape": [4, 176], "dtype": "float32"}, {"name": "StatefulPartitionedCall/model/transformer_encoder_regressor/transformer_batch_norm_encoder_block/sequential/transformer_batch_norm_encoder_layer_2/multi_head_attention_2/Mul/y", "shape": [], "dtype": "float32"}, {"name": "StatefulPartitionedCall/model/transformer_encoder_regressor/transformer_batch_norm_encoder_block/sequential/transformer_batch_norm_encoder_layer_1/dense_4/Tensordot/Const", "shape": [1], "dtype": "int32"}, {"name": "StatefulPartitionedCall/model/transformer_encoder_regressor/transformer_batch_norm_encoder_block/sequential/transformer_batch_norm_encoder_layer_1/dense_4/Tensordot/axes", "shape": [1], "dtype": "int32"}, {"name": "StatefulPartitionedCall/model/transformer_encoder_regressor/transformer_batch_norm_encoder_block/sequential/transformer_batch_norm_encoder_layer_1/dense_4/Tensordot/GatherV2_1/axis", "shape": [], "dtype": "int32"}, {"name": "StatefulPartitionedCall/model/transformer_encoder_regressor/transformer_batch_norm_encoder_block/sequential/transformer_batch_norm_encoder_layer_1/dense_4/Tensordot/Const_1", "shape": [1], "dtype": "int32"}, {"name": "StatefulPartitionedCall/model/transformer_encoder_regressor/transformer_batch_norm_encoder_block/sequential/transformer_batch_norm_encoder_layer_1/dense_4/Tensordot/ReadVariableOp", "shape": [229, 176], "dtype": "float32"}, {"name": "StatefulPartitionedCall/model/transformer_encoder_regressor/transformer_batch_norm_encoder_block/sequential/transformer_batch_norm_encoder_layer_1/dense_3/Tensordot/Const", "shape": [1], "dtype": "int32"}, {"name": "StatefulPartitionedCall/model/transformer_encoder_regressor/transformer_batch_norm_encoder_block/sequential/transformer_batch_norm_encoder_layer_1/dense_3/Tensordot/axes", "shape": [1], "dtype": "int32"}, {"name": "StatefulPartitionedCall/model/transformer_encoder_regressor/transformer_batch_norm_encoder_block/sequential/transformer_batch_norm_encoder_layer_1/dense_3/Tensordot/GatherV2_1/axis", "shape": [], "dtype": "int32"}, {"name": "StatefulPartitionedCall/model/transformer_encoder_regressor/transformer_batch_norm_encoder_block/sequential/transformer_batch_norm_encoder_layer_1/dense_3/Tensordot/Const_1", "shape": [1], "dtype": "int32"}, {"name": "StatefulPartitionedCall/model/transformer_encoder_regressor/transformer_batch_norm_encoder_block/sequential/transformer_batch_norm_encoder_layer_1/dense_3/Tensordot/ReadVariableOp", "shape": [176, 229], "dtype": "float32"}, {"name": "StatefulPartitionedCall/model/transformer_encoder_regressor/transformer_batch_norm_encoder_block/sequential/transformer_batch_norm_encoder_layer_1/dense_3/Tensordot/free", "shape": [2], "dtype": "int32"}, {"name": "StatefulPartitionedCall/model/transformer_encoder_regressor/transformer_batch_norm_encoder_block/sequential/transformer_batch_norm_encoder_layer_1/dense_3/Tensordot/GatherV2/axis", "shape": [], "dtype": "int32"}, {"name": "StatefulPartitionedCall/model/transformer_encoder_regressor/transformer_batch_norm_encoder_block/sequential/transformer_batch_norm_encoder_layer_1/dense_3/Tensordot/Const_2", "shape": [1], "dtype": "int32"}, {"name": "StatefulPartitionedCall/model/transformer_encoder_regressor/transformer_batch_norm_encoder_block/sequential/transformer_batch_norm_encoder_layer_1/dense_3/Tensordot/concat_1/axis", "shape": [], "dtype": "int32"}, {"name": "StatefulPartitionedCall/model/transformer_encoder_regressor/transformer_batch_norm_encoder_block/sequential/transformer_batch_norm_encoder_layer_1/dense_3/BiasAdd/ReadVariableOp", "shape": [229], "dtype": "float32"}, {"name": "StatefulPartitionedCall/model/transformer_encoder_regressor/transformer_batch_norm_encoder_block/sequential/transformer_batch_norm_encoder_layer_1/dense_4/Tensordot/free", "shape": [2], "dtype": "int32"}, {"name": "StatefulPartitionedCall/model/transformer_encoder_regressor/transformer_batch_norm_encoder_block/sequential/transformer_batch_norm_encoder_layer_1/dense_4/Tensordot/GatherV2/axis", "shape": [], "dtype": "int32"}, {"name": "StatefulPartitionedCall/model/transformer_encoder_regressor/transformer_batch_norm_encoder_block/sequential/transformer_batch_norm_encoder_layer_1/dense_4/Tensordot/Const_2", "shape": [1], "dtype": "int32"}, {"name": "StatefulPartitionedCall/model/transformer_encoder_regressor/transformer_batch_norm_encoder_block/sequential/transformer_batch_norm_encoder_layer_1/dense_4/Tensordot/concat_1/axis", "shape": [], "dtype": "int32"}, {"name": "StatefulPartitionedCall/model/transformer_encoder_regressor/transformer_batch_norm_encoder_block/sequential/transformer_batch_norm_encoder_layer_1/dense_4/BiasAdd/ReadVariableOp", "shape": [176], "dtype": "float32"}, {"name": "StatefulPartitionedCall/model/transformer_encoder_regressor/transformer_batch_norm_encoder_block/sequential/transformer_batch_norm_encoder_layer_1/batch_normalization_3/batchnorm/mul", "shape": [176], "dtype": "float32"}, {"name": "StatefulPartitionedCall/model/transformer_encoder_regressor/transformer_batch_norm_encoder_block/sequential/transformer_batch_norm_encoder_layer_1/batch_normalization_3/batchnorm/sub", "shape": [176], "dtype": "float32"}, {"name": "StatefulPartitionedCall/model/transformer_encoder_regressor/transformer_batch_norm_encoder_block/sequential/transformer_batch_norm_encoder_layer_1/batch_normalization_2/batchnorm/sub", "shape": [176], "dtype": "float32"}, {"name": "StatefulPartitionedCall/model/transformer_encoder_regressor/transformer_batch_norm_encoder_block/sequential/transformer_batch_norm_encoder_layer_1/batch_normalization_2/batchnorm/mul", "shape": [176], "dtype": "float32"}, {"name": "StatefulPartitionedCall/model/transformer_encoder_regressor/transformer_batch_norm_encoder_block/sequential/transformer_batch_norm_encoder_layer_1/multi_head_attention_1/key/einsum/Einsum/ReadVariableOp", "shape": [176, 4, 176], "dtype": "float32"}, {"name": "StatefulPartitionedCall/model/transformer_encoder_regressor/transformer_batch_norm_encoder_block/sequential/transformer_batch_norm_encoder_layer_1/multi_head_attention_1/key/add/ReadVariableOp", "shape": [4, 176], "dtype": "float32"}, {"name": "StatefulPartitionedCall/model/transformer_encoder_regressor/transformer_batch_norm_encoder_block/sequential/transformer_batch_norm_encoder_layer_1/multi_head_attention_1/query/einsum/Einsum/ReadVariableOp", "shape": [176, 4, 176], "dtype": "float32"}, {"name": "StatefulPartitionedCall/model/transformer_encoder_regressor/transformer_batch_norm_encoder_block/sequential/transformer_batch_norm_encoder_layer_1/multi_head_attention_1/query/add/ReadVariableOp", "shape": [4, 176], "dtype": "float32"}, {"name": "StatefulPartitionedCall/model/transformer_encoder_regressor/transformer_batch_norm_encoder_block/sequential/transformer_batch_norm_encoder_layer_1/multi_head_attention_1/Mul/y", "shape": [], "dtype": "float32"}, {"name": "StatefulPartitionedCall/model/transformer_encoder_regressor/transformer_batch_norm_encoder_block/sequential/transformer_batch_norm_encoder_layer/dense_2/Tensordot/Const", "shape": [1], "dtype": "int32"}, {"name": "StatefulPartitionedCall/model/transformer_encoder_regressor/transformer_batch_norm_encoder_block/sequential/transformer_batch_norm_encoder_layer/dense_2/Tensordot/axes", "shape": [1], "dtype": "int32"}, {"name": "StatefulPartitionedCall/model/transformer_encoder_regressor/transformer_batch_norm_encoder_block/sequential/transformer_batch_norm_encoder_layer/dense_2/Tensordot/GatherV2_1/axis", "shape": [], "dtype": "int32"}, {"name": "StatefulPartitionedCall/model/transformer_encoder_regressor/transformer_batch_norm_encoder_block/sequential/transformer_batch_norm_encoder_layer/dense_2/Tensordot/Const_1", "shape": [1], "dtype": "int32"}, {"name": "StatefulPartitionedCall/model/transformer_encoder_regressor/transformer_batch_norm_encoder_block/sequential/transformer_batch_norm_encoder_layer/dense_2/Tensordot/ReadVariableOp", "shape": [229, 176], "dtype": "float32"}, {"name": "StatefulPartitionedCall/model/transformer_encoder_regressor/transformer_batch_norm_encoder_block/sequential/transformer_batch_norm_encoder_layer/dense_1/Tensordot/Const", "shape": [1], "dtype": "int32"}, {"name": "StatefulPartitionedCall/model/transformer_encoder_regressor/transformer_batch_norm_encoder_block/sequential/transformer_batch_norm_encoder_layer/dense_1/Tensordot/axes", "shape": [1], "dtype": "int32"}, {"name": "StatefulPartitionedCall/model/transformer_encoder_regressor/transformer_batch_norm_encoder_block/sequential/transformer_batch_norm_encoder_layer/dense_1/Tensordot/GatherV2_1/axis", "shape": [], "dtype": "int32"}, {"name": "StatefulPartitionedCall/model/transformer_encoder_regressor/transformer_batch_norm_encoder_block/sequential/transformer_batch_norm_encoder_layer/dense_1/Tensordot/Const_1", "shape": [1], "dtype": "int32"}, {"name": "StatefulPartitionedCall/model/transformer_encoder_regressor/transformer_batch_norm_encoder_block/sequential/transformer_batch_norm_encoder_layer/dense_1/Tensordot/ReadVariableOp", "shape": [176, 229], "dtype": "float32"}, {"name": "StatefulPartitionedCall/model/transformer_encoder_regressor/transformer_batch_norm_encoder_block/sequential/transformer_batch_norm_encoder_layer/dense_1/Tensordot/free", "shape": [2], "dtype": "int32"}, {"name": "StatefulPartitionedCall/model/transformer_encoder_regressor/transformer_batch_norm_encoder_block/sequential/transformer_batch_norm_encoder_layer/dense_1/Tensordot/GatherV2/axis", "shape": [], "dtype": "int32"}, {"name": "StatefulPartitionedCall/model/transformer_encoder_regressor/transformer_batch_norm_encoder_block/sequential/transformer_batch_norm_encoder_layer/dense_1/Tensordot/Const_2", "shape": [1], "dtype": "int32"}, {"name": "StatefulPartitionedCall/model/transformer_encoder_regressor/transformer_batch_norm_encoder_block/sequential/transformer_batch_norm_encoder_layer/dense_1/Tensordot/concat_1/axis", "shape": [], "dtype": "int32"}, {"name": "StatefulPartitionedCall/model/transformer_encoder_regressor/transformer_batch_norm_encoder_block/sequential/transformer_batch_norm_encoder_layer/dense_1/BiasAdd/ReadVariableOp", "shape": [229], "dtype": "float32"}, {"name": "StatefulPartitionedCall/model/transformer_encoder_regressor/transformer_batch_norm_encoder_block/sequential/transformer_batch_norm_encoder_layer/dense_2/Tensordot/free", "shape": [2], "dtype": "int32"}, {"name": "StatefulPartitionedCall/model/transformer_encoder_regressor/transformer_batch_norm_encoder_block/sequential/transformer_batch_norm_encoder_layer/dense_2/Tensordot/GatherV2/axis", "shape": [], "dtype": "int32"}, {"name": "StatefulPartitionedCall/model/transformer_encoder_regressor/transformer_batch_norm_encoder_block/sequential/transformer_batch_norm_encoder_layer/dense_2/Tensordot/Const_2", "shape": [1], "dtype": "int32"}, {"name": "StatefulPartitionedCall/model/transformer_encoder_regressor/transformer_batch_norm_encoder_block/sequential/transformer_batch_norm_encoder_layer/dense_2/Tensordot/concat_1/axis", "shape": [], "dtype": "int32"}, {"name": "StatefulPartitionedCall/model/transformer_encoder_regressor/transformer_batch_norm_encoder_block/sequential/transformer_batch_norm_encoder_layer/dense_2/BiasAdd/ReadVariableOp", "shape": [176], "dtype": "float32"}, {"name": "StatefulPartitionedCall/model/transformer_encoder_regressor/transformer_batch_norm_encoder_block/sequential/transformer_batch_norm_encoder_layer/batch_normalization_1/batchnorm/mul", "shape": [176], "dtype": "float32"}, {"name": "StatefulPartitionedCall/model/transformer_encoder_regressor/transformer_batch_norm_encoder_block/sequential/transformer_batch_norm_encoder_layer/batch_normalization_1/batchnorm/sub", "shape": [176], "dtype": "float32"}, {"name": "StatefulPartitionedCall/model/transformer_encoder_regressor/transformer_batch_norm_encoder_block/sequential/transformer_batch_norm_encoder_layer/batch_normalization/batchnorm/sub", "shape": [176], "dtype": "float32"}, {"name": "StatefulPartitionedCall/model/transformer_encoder_regressor/transformer_batch_norm_encoder_block/sequential/transformer_batch_norm_encoder_layer/batch_normalization/batchnorm/mul", "shape": [176], "dtype": "float32"}, {"name": "StatefulPartitionedCall/model/transformer_encoder_regressor/transformer_batch_norm_encoder_block/sequential/transformer_batch_norm_encoder_layer/multi_head_attention/key/einsum/Einsum/ReadVariableOp", "shape": [176, 4, 176], "dtype": "float32"}, {"name": "StatefulPartitionedCall/model/transformer_encoder_regressor/transformer_batch_norm_encoder_block/sequential/transformer_batch_norm_encoder_layer/multi_head_attention/key/add/ReadVariableOp", "shape": [4, 176], "dtype": "float32"}, {"name": "StatefulPartitionedCall/model/transformer_encoder_regressor/transformer_batch_norm_encoder_block/sequential/transformer_batch_norm_encoder_layer/multi_head_attention/query/einsum/Einsum/ReadVariableOp", "shape": [176, 4, 176], "dtype": "float32"}, {"name": "StatefulPartitionedCall/model/transformer_encoder_regressor/transformer_batch_norm_encoder_block/sequential/transformer_batch_norm_encoder_layer/multi_head_attention/query/add/ReadVariableOp", "shape": [4, 176], "dtype": "float32"}, {"name": "StatefulPartitionedCall/model/transformer_encoder_regressor/transformer_batch_norm_encoder_block/sequential/transformer_batch_norm_encoder_layer/multi_head_attention/Mul/y", "shape": [], "dtype": "float32"}, {"name": "StatefulPartitionedCall/model/transformer_encoder_regressor/dense/Tensordot/Const", "shape": [1], "dtype": "int32"}, {"name": "StatefulPartitionedCall/model/transformer_encoder_regressor/dense/Tensordot/axes", "shape": [1], "dtype": "int32"}, {"name": "StatefulPartitionedCall/model/transformer_encoder_regressor/dense/Tensordot/GatherV2_1/axis", "shape": [], "dtype": "int32"}, {"name": "StatefulPartitionedCall/model/transformer_encoder_regressor/dense/Tensordot/Const_1", "shape": [1], "dtype": "int32"}, {"name": "StatefulPartitionedCall/model/transformer_encoder_regressor/dense/Tensordot/ReadVariableOp", "shape": [9, 176], "dtype": "float32"}, {"name": "StatefulPartitionedCall/model/transformer_encoder_regressor/dense/Tensordot/free", "shape": [2], "dtype": "int32"}, {"name": "StatefulPartitionedCall/model/transformer_encoder_regressor/dense/Tensordot/GatherV2/axis", "shape": [], "dtype": "int32"}, {"name": "StatefulPartitionedCall/model/transformer_encoder_regressor/dense/Tensordot/Const_2", "shape": [1], "dtype": "int32"}, {"name": "StatefulPartitionedCall/model/transformer_encoder_regressor/dense/Tensordot/concat_1/axis", "shape": [], "dtype": "int32"}, {"name": "StatefulPartitionedCall/model/transformer_encoder_regressor/dense/BiasAdd/ReadVariableOp", "shape": [176], "dtype": "float32"}, {"name": "StatefulPartitionedCall/model/transformer_encoder_regressor/mul/y", "shape": [], "dtype": "float32"}, {"name": "StatefulPartitionedCall/model/transformer_encoder_regressor/learnable_position_encoding/strided_slice", "shape": [13, 176], "dtype": "float32"}, {"name": "StatefulPartitionedCall/model/transformer_encoder_regressor/transformer_batch_norm_encoder_block/sequential/transformer_batch_norm_encoder_layer/multi_head_attention/value/einsum/Einsum/ReadVariableOp", "shape": [176, 4, 176], "dtype": "float32"}, {"name": "StatefulPartitionedCall/model/transformer_encoder_regressor/transformer_batch_norm_encoder_block/sequential/transformer_batch_norm_encoder_layer/multi_head_attention/value/add/ReadVariableOp", "shape": [4, 176], "dtype": "float32"}, {"name": "StatefulPartitionedCall/model/transformer_encoder_regressor/transformer_batch_norm_encoder_block/sequential/transformer_batch_norm_encoder_layer/multi_head_attention/attention_output/einsum/Einsum/ReadVariableOp", "shape": [4, 176, 176], "dtype": "float32"}, {"name": "StatefulPartitionedCall/model/transformer_encoder_regressor/transformer_batch_norm_encoder_block/sequential/transformer_batch_norm_encoder_layer/multi_head_attention/attention_output/add/ReadVariableOp", "shape": [176], "dtype": "float32"}, {"name": "StatefulPartitionedCall/model/transformer_encoder_regressor/transformer_batch_norm_encoder_block/sequential/transformer_batch_norm_encoder_layer_1/multi_head_attention_1/value/einsum/Einsum/ReadVariableOp", "shape": [176, 4, 176], "dtype": "float32"}, {"name": "StatefulPartitionedCall/model/transformer_encoder_regressor/transformer_batch_norm_encoder_block/sequential/transformer_batch_norm_encoder_layer_1/multi_head_attention_1/value/add/ReadVariableOp", "shape": [4, 176], "dtype": "float32"}, {"name": "StatefulPartitionedCall/model/transformer_encoder_regressor/transformer_batch_norm_encoder_block/sequential/transformer_batch_norm_encoder_layer_1/multi_head_attention_1/attention_output/einsum/Einsum/ReadVariableOp", "shape": [4, 176, 176], "dtype": "float32"}, {"name": "StatefulPartitionedCall/model/transformer_encoder_regressor/transformer_batch_norm_encoder_block/sequential/transformer_batch_norm_encoder_layer_1/multi_head_attention_1/attention_output/add/ReadVariableOp", "shape": [176], "dtype": "float32"}, {"name": "StatefulPartitionedCall/model/transformer_encoder_regressor/transformer_batch_norm_encoder_block/sequential/transformer_batch_norm_encoder_layer_2/multi_head_attention_2/value/einsum/Einsum/ReadVariableOp", "shape": [176, 4, 176], "dtype": "float32"}, {"name": "StatefulPartitionedCall/model/transformer_encoder_regressor/transformer_batch_norm_encoder_block/sequential/transformer_batch_norm_encoder_layer_2/multi_head_attention_2/value/add/ReadVariableOp", "shape": [4, 176], "dtype": "float32"}, {"name": "StatefulPartitionedCall/model/transformer_encoder_regressor/transformer_batch_norm_encoder_block/sequential/transformer_batch_norm_encoder_layer_2/multi_head_attention_2/attention_output/einsum/Einsum/ReadVariableOp", "shape": [4, 176, 176], "dtype": "float32"}, {"name": "StatefulPartitionedCall/model/transformer_encoder_regressor/transformer_batch_norm_encoder_block/sequential/transformer_batch_norm_encoder_layer_2/multi_head_attention_2/attention_output/add/ReadVariableOp", "shape": [176], "dtype": "float32"}, {"name": "StatefulPartitionedCall/model/transformer_encoder_regressor/transformer_batch_norm_encoder_block/sequential/transformer_batch_norm_encoder_layer_3/multi_head_attention_3/value/einsum/Einsum/ReadVariableOp", "shape": [176, 4, 176], "dtype": "float32"}, {"name": "StatefulPartitionedCall/model/transformer_encoder_regressor/transformer_batch_norm_encoder_block/sequential/transformer_batch_norm_encoder_layer_3/multi_head_attention_3/value/add/ReadVariableOp", "shape": [4, 176], "dtype": "float32"}, {"name": "StatefulPartitionedCall/model/transformer_encoder_regressor/transformer_batch_norm_encoder_block/sequential/transformer_batch_norm_encoder_layer_3/multi_head_attention_3/attention_output/einsum/Einsum/ReadVariableOp", "shape": [4, 176, 176], "dtype": "float32"}, {"name": "StatefulPartitionedCall/model/transformer_encoder_regressor/transformer_batch_norm_encoder_block/sequential/transformer_batch_norm_encoder_layer_3/multi_head_attention_3/attention_output/add/ReadVariableOp", "shape": [176], "dtype": "float32"}, {"name": "StatefulPartitionedCall/model/transformer_encoder_regressor/transformer_batch_norm_encoder_block/sequential/transformer_batch_norm_encoder_layer_4/multi_head_attention_4/value/einsum/Einsum/ReadVariableOp", "shape": [176, 4, 176], "dtype": "float32"}, {"name": "StatefulPartitionedCall/model/transformer_encoder_regressor/transformer_batch_norm_encoder_block/sequential/transformer_batch_norm_encoder_layer_4/multi_head_attention_4/value/add/ReadVariableOp", "shape": [4, 176], "dtype": "float32"}, {"name": "StatefulPartitionedCall/model/transformer_encoder_regressor/transformer_batch_norm_encoder_block/sequential/transformer_batch_norm_encoder_layer_4/multi_head_attention_4/attention_output/einsum/Einsum/ReadVariableOp", "shape": [4, 176, 176], "dtype": "float32"}, {"name": "StatefulPartitionedCall/model/transformer_encoder_regressor/transformer_batch_norm_encoder_block/sequential/transformer_batch_norm_encoder_layer_4/multi_head_attention_4/attention_output/add/ReadVariableOp", "shape": [176], "dtype": "float32"}, {"name": "StatefulPartitionedCall/model/transformer_encoder_regressor/transformer_batch_norm_encoder_block/sequential/transformer_batch_norm_encoder_layer_5/multi_head_attention_5/value/einsum/Einsum/ReadVariableOp", "shape": [176, 4, 176], "dtype": "float32"}, {"name": "StatefulPartitionedCall/model/transformer_encoder_regressor/transformer_batch_norm_encoder_block/sequential/transformer_batch_norm_encoder_layer_5/multi_head_attention_5/value/add/ReadVariableOp", "shape": [4, 176], "dtype": "float32"}, {"name": "StatefulPartitionedCall/model/transformer_encoder_regressor/transformer_batch_norm_encoder_block/sequential/transformer_batch_norm_encoder_layer_5/multi_head_attention_5/attention_output/einsum/Einsum/ReadVariableOp", "shape": [4, 176, 176], "dtype": "float32"}, {"name": "StatefulPartitionedCall/model/transformer_encoder_regressor/transformer_batch_norm_encoder_block/sequential/transformer_batch_norm_encoder_layer_5/multi_head_attention_5/attention_output/add/ReadVariableOp", "shape": [176], "dtype": "float32"}, {"name": "StatefulPartitionedCall/model/transformer_encoder_regressor/transformer_batch_norm_encoder_block/sequential/transformer_batch_norm_encoder_layer_6/multi_head_attention_6/value/einsum/Einsum/ReadVariableOp", "shape": [176, 4, 176], "dtype": "float32"}, {"name": "StatefulPartitionedCall/model/transformer_encoder_regressor/transformer_batch_norm_encoder_block/sequential/transformer_batch_norm_encoder_layer_6/multi_head_attention_6/value/add/ReadVariableOp", "shape": [4, 176], "dtype": "float32"}, {"name": "StatefulPartitionedCall/model/transformer_encoder_regressor/transformer_batch_norm_encoder_block/sequential/transformer_batch_norm_encoder_layer_6/multi_head_attention_6/attention_output/einsum/Einsum/ReadVariableOp", "shape": [4, 176, 176], "dtype": "float32"}, {"name": "StatefulPartitionedCall/model/transformer_encoder_regressor/transformer_batch_norm_encoder_block/sequential/transformer_batch_norm_encoder_layer_6/multi_head_attention_6/attention_output/add/ReadVariableOp", "shape": [176], "dtype": "float32"}, {"name": "StatefulPartitionedCall/model/transformer_encoder_regressor/transformer_batch_norm_encoder_block/sequential/transformer_batch_norm_encoder_layer_7/multi_head_attention_7/value/einsum/Einsum/ReadVariableOp", "shape": [176, 4, 176], "dtype": "float32"}, {"name": "StatefulPartitionedCall/model/transformer_encoder_regressor/transformer_batch_norm_encoder_block/sequential/transformer_batch_norm_encoder_layer_7/multi_head_attention_7/value/add/ReadVariableOp", "shape": [4, 176], "dtype": "float32"}, {"name": "StatefulPartitionedCall/model/transformer_encoder_regressor/transformer_batch_norm_encoder_block/sequential/transformer_batch_norm_encoder_layer_7/multi_head_attention_7/attention_output/einsum/Einsum/ReadVariableOp", "shape": [4, 176, 176], "dtype": "float32"}, {"name": "StatefulPartitionedCall/model/transformer_encoder_regressor/transformer_batch_norm_encoder_block/sequential/transformer_batch_norm_encoder_layer_7/multi_head_attention_7/attention_output/add/ReadVariableOp", "shape": [176], "dtype": "float32"}, {"name": "StatefulPartitionedCall/model/transformer_encoder_regressor/transformer_batch_norm_encoder_block/sequential/transformer_batch_norm_encoder_layer_8/multi_head_attention_8/value/einsum/Einsum/ReadVariableOp", "shape": [176, 4, 176], "dtype": "float32"}, {"name": "StatefulPartitionedCall/model/transformer_encoder_regressor/transformer_batch_norm_encoder_block/sequential/transformer_batch_norm_encoder_layer_8/multi_head_attention_8/value/add/ReadVariableOp", "shape": [4, 176], "dtype": "float32"}, {"name": "StatefulPartitionedCall/model/transformer_encoder_regressor/transformer_batch_norm_encoder_block/sequential/transformer_batch_norm_encoder_layer_8/multi_head_attention_8/attention_output/einsum/Einsum/ReadVariableOp", "shape": [4, 176, 176], "dtype": "float32"}, {"name": "StatefulPartitionedCall/model/transformer_encoder_regressor/transformer_batch_norm_encoder_block/sequential/transformer_batch_norm_encoder_layer_8/multi_head_attention_8/attention_output/add/ReadVariableOp", "shape": [176], "dtype": "float32"}, {"name": "StatefulPartitionedCall/model/transformer_encoder_regressor/transformer_batch_norm_encoder_block/sequential/transformer_batch_norm_encoder_layer_9/multi_head_attention_9/value/einsum/Einsum/ReadVariableOp", "shape": [176, 4, 176], "dtype": "float32"}, {"name": "StatefulPartitionedCall/model/transformer_encoder_regressor/transformer_batch_norm_encoder_block/sequential/transformer_batch_norm_encoder_layer_9/multi_head_attention_9/value/add/ReadVariableOp", "shape": [4, 176], "dtype": "float32"}, {"name": "StatefulPartitionedCall/model/transformer_encoder_regressor/transformer_batch_norm_encoder_block/sequential/transformer_batch_norm_encoder_layer_9/multi_head_attention_9/attention_output/einsum/Einsum/ReadVariableOp", "shape": [4, 176, 176], "dtype": "float32"}, {"name": "StatefulPartitionedCall/model/transformer_encoder_regressor/transformer_batch_norm_encoder_block/sequential/transformer_batch_norm_encoder_layer_9/multi_head_attention_9/attention_output/add/ReadVariableOp", "shape": [176], "dtype": "float32"}, {"name": "StatefulPartitionedCall/model/transformer_encoder_regressor/flatten/Const", "shape": [2], "dtype": "int32"}, {"name": "StatefulPartitionedCall/model/transformer_encoder_regressor/sequential_1/dense_21/MatMul/ReadVariableOp", "shape": [2288, 176], "dtype": "float32"}, {"name": "StatefulPartitionedCall/model/transformer_encoder_regressor/sequential_1/dense_21/BiasAdd/ReadVariableOp", "shape": [176], "dtype": "float32"}, {"name": "StatefulPartitionedCall/model/transformer_encoder_regressor/sequential_1/dense_22/MatMul/ReadVariableOp", "shape": [176, 176], "dtype": "float32"}, {"name": "StatefulPartitionedCall/model/transformer_encoder_regressor/sequential_1/dense_22/BiasAdd/ReadVariableOp", "shape": [176], "dtype": "float32"}, {"name": "StatefulPartitionedCall/model/transformer_encoder_regressor/sequential_1/dense_23/MatMul/ReadVariableOp", "shape": [176, 176], "dtype": "float32"}, {"name": "StatefulPartitionedCall/model/transformer_encoder_regressor/sequential_1/dense_23/BiasAdd/ReadVariableOp", "shape": [176], "dtype": "float32"}, {"name": "StatefulPartitionedCall/model/transformer_encoder_regressor/sequential_1/dense_24/MatMul/ReadVariableOp", "shape": [176, 176], "dtype": "float32"}, {"name": "StatefulPartitionedCall/model/transformer_encoder_regressor/sequential_1/dense_24/BiasAdd/ReadVariableOp", "shape": [176], "dtype": "float32"}, {"name": "StatefulPartitionedCall/model/transformer_encoder_regressor/sequential_1/dense_25/MatMul/ReadVariableOp", "shape": [176, 176], "dtype": "float32"}, {"name": "StatefulPartitionedCall/model/transformer_encoder_regressor/sequential_1/dense_25/BiasAdd/ReadVariableOp", "shape": [176], "dtype": "float32"}, {"name": "StatefulPartitionedCall/model/transformer_encoder_regressor/sequential_1/dense_26/MatMul/ReadVariableOp", "shape": [176, 176], "dtype": "float32"}, {"name": "StatefulPartitionedCall/model/transformer_encoder_regressor/sequential_1/dense_26/BiasAdd/ReadVariableOp", "shape": [176], "dtype": "float32"}, {"name": "StatefulPartitionedCall/model/transformer_encoder_regressor/sequential_1/dense_27/MatMul/ReadVariableOp", "shape": [176, 176], "dtype": "float32"}, {"name": "StatefulPartitionedCall/model/transformer_encoder_regressor/sequential_1/dense_27/BiasAdd/ReadVariableOp", "shape": [176], "dtype": "float32"}, {"name": "StatefulPartitionedCall/model/transformer_encoder_regressor/sequential_1/dense_28/MatMul/ReadVariableOp", "shape": [176, 176], "dtype": "float32"}, {"name": "StatefulPartitionedCall/model/transformer_encoder_regressor/sequential_1/dense_28/BiasAdd/ReadVariableOp", "shape": [176], "dtype": "float32"}, {"name": "StatefulPartitionedCall/model/transformer_encoder_regressor/sequential_1/dense_29/MatMul/ReadVariableOp", "shape": [176, 2], "dtype": "float32"}, {"name": "StatefulPartitionedCall/model/transformer_encoder_regressor/sequential_1/dense_29/BiasAdd/ReadVariableOp", "shape": [2], "dtype": "float32"}]}]}